auto-iss-demo/movement_agent/weights/movement_net_10.pt (torch, 68335 bytes, 16 tensors)

net.0.weight f4 [128, 3]
000000 32 0f 6d bc e6 32 95 3f f7 e1 a7 3f 8b ad 16 bd
       -0.014468955 1.1656158 1.3115834 -0.036786597
000010 6c 70 fc 3e 76 21 ad 3f f2 bc 25 be b1 7e ff bf
       0.4930452 1.3525836 -0.16185358 -1.9960538
000020 bf 8b 81 41 4e be ed bd 0d 26 08 bf 7f 88 91 c1
       16.193235 -0.11608563 -0.5318306 -18.191648
000030 23 af ba bf bb bb 1c c1 1e a5 ce 3f 37 6d e4 3f
       -1.4584697 -9.795833 1.614414 1.784583
000040 7f aa c5 bf c5 05 24 bf c6 72 d7 3e 10 82 a9 be
       -1.5442656 -0.64071304 0.42079753 -0.33107042
000050 0c 4e 20 bf 82 63 87 be 03 12 97 bf a2 b2 62 3f
       -0.6261909 -0.26443106 -1.1802372 0.8855382
000060 c5 84 cc 3f 7b 47 a4 bf f5 7d 7f 3f 34 bc 98 be
       1.5978018 -1.2834314 0.9980157 -0.29831088
000070 7b 7f 05 c1 e2 1a 15 41 9a 13 86 3f ba f8 d9 be
       -8.343623 9.319063 1.0474732 -0.42572576
000080 1f 5c a1 bf 5e 37 06 c0 f5 b1 30 3f 82 de d0 3f
       -1.2606238 -2.0971293 0.6902154 1.6317904
000090 bb c0 ef bf cd d7 4e 3f e4 7a 45 3f 46 d2 80 be
       -1.8730692 0.80798036 0.7714064 -0.25160426
0000a0 38 89 a0 41 c7 83 2a 40 eb 13 1c 3f 01 dc b1 41
       20.067001 2.664293 0.6096789 22.232424
0000b0 82 d3 8b c0 f8 44 04 3f 21 82 06 41 71 98 fc c0
       -4.369569 0.5166774 8.40677 -7.8936086
0000c0 fe b8 a6 bf fc dc 7e 3f 40 d4 b2 bb c6 33 ea 3f
       -1.3025205 0.99555945 -0.005457431 1.829705
0000d0 e7 24 f7 3b 7c b2 a8 bf ac 7f 93 bf ae 81 a9 3e
       0.007542241 -1.3179469 -1.1523337 0.3310675
0000e0 ee 70 08 bd a4 b5 84 bf 36 94 1d 3c d1 d5 71 3e
       -0.033310823 -1.0367932 0.009617856 0.2361672
0000f0 33 36 3e c0 c7 57 c8 3e c2 52 83 3f 5b 48 01 40
       -2.972058 0.3912947 1.0259631 2.0200412
000100 e8 83 02 3e bd 38 16 be b5 9d 95 bf cb 07 8e 3f
       0.1274563 -0.14670081 -1.1688753 1.1096128
000110 8d 26 66 3f 81 a9 b1 bf ea 32 9d 3e 4a 8a c4 3f
       0.89902574 -1.3879853 0.30702907 1.5354702
000120 f5 62 10 c0 97 5c 1b 3f 93 f1 d3 3f 83 19 09 c0
       -2.2560399 0.60688156 1.6558098 -2.142182
000130 55 d6 91 3f 33 9e 91 3f 7d ff 60 be 95 b3 88 40
       1.1393534 1.1376404 -0.21972461 4.2719216
000140 aa 03 af c1 83 2e 8e bf d3 fb 8f c0 d7 85 8b 3f
       -21.87679 -1.1107944 -4.4994903 1.090022
000150 61 99 ab bf 71 0c b9 3c be 84 9a 3f 66 69 65 3f
       -1.3406183 0.02258894 1.207176 0.8961395
000160 4d f3 3f bf 92 6e 25 40 e5 88 f6 3f ed 88 ac c1
       -0.7498062 2.5848737 1.9260527 -21.566858
000170 60 8d 01 c1 85 bd ba be 0f a5 12 bc 46 2d 3e 3f
       -8.097015 -0.36472717 -0.008950486 0.7428783
000180 5b 90 7d 3e f4 f1 a3 3e 12 75 7d 3e 97 49 19 c0
       0.24762098 0.32020533 0.2475169 -2.3951166
000190 dc a0 8d 3f e5 6b f8 3f 2b 1e da 3f 39 f8 5c bf
       1.1064715 1.9407927 1.7040457 -0.8631626
0001a0 8c 4a 42 be 32 75 3a 3c c9 9c 90 40 87 e1 a6 c1
       -0.1897375 0.011380481 4.519139 -20.86012
0001b0 04 5f 54 bf 07 d3 02 3e e0 5c 8a bf 85 12 8d 3d
       -0.8295748 0.12775813 -1.0809593 0.06888298
0001c0 0d bc 4e 3f 88 e9 c4 3f 14 5e d4 bf ec af 1b 3f
       0.8075569 1.5383768 -1.659121 0.6081531
0001d0 b3 a2 b8 3f 94 0d b8 3e da 37 26 3f 86 9e 13 3f
       1.4424652 0.3594786 0.6492897 0.5766376
0001e0 39 44 03 c1 fb 5b 67 41 ab 4f 8c c1 c2 24 82 bf
       -8.204156 14.459956 -17.5389 -1.0167468
0001f0 2d b1 7c 3f d0 c2 a8 3e c7 c4 e6 be 6d a0 52 c1
       0.9870785 0.3296113 -0.45072004 -13.164166
000200 45 13 a1 3f 80 42 a0 bf 6a 8b 8e 3f 4e 96 a1 bf
       1.2584006 -1.2520294 1.1136296 -1.2623994
000210 7d 46 de 3f 80 30 c3 be d0 b8 94 bf 19 e5 9e bf
       1.7365261 -0.3812294 -1.16189 -1.2413665
000220 74 24 d9 be 96 4b 90 3f f9 bc a5 3f 27 5d cf c0
       -0.42410624 1.1273067 1.2948295 -6.480121
000230 d6 32 c8 40 a7 56 4c bf 38 a5 26 c1 1a cc d9 40
       6.2562056 -0.7981972 -10.415337 6.8061647
000240 57 7a d7 3e 03 a9 bf bf 6c 56 be be ba 8b be 3c
       0.42085525 -1.4973453 -0.3717531 0.023259986
000250 fc f5 72 3f b5 8b 00 40 2f 7a a2 be d8 6a 83 3e
       0.9490659 2.008527 -0.31733844 0.25667453
000260 f0 63 4e c1 46 d8 10 c0 dc 28 19 40 52 4f e2 3e
       -12.899399 -2.2632003 2.3931189 0.44201142
000270 94 bd bb 3f e7 ce 45 bf 4d 30 e8 bf 75 28 87 3e
       1.466723 -0.7726883 -1.813974 0.26398054
000280 ff 06 70 be e8 da 05 c1 85 25 cf 3e a7 b4 64 bc
       -0.23440169 -8.365944 0.40458313 -0.0139590865
000290 68 68 ea bf ef 40 76 bf 54 4f 88 40 02 d8 2d c1
       -1.8313112 -0.9619283 4.2596836 -10.865236
0002a0 65 e4 c2 bf a4 b9 e9 3e ce 59 9d 3f 95 c8 95 3e
       -1.522595 0.45649445 1.2293031 0.29254594
0002b0 15 7e 62 3f 5e 88 66 c1 5e e7 9d bf cb 42 fe 3e
       0.88473636 -14.408293 -1.2336233 0.49660334
0002c0 41 66 d7 3f ae 46 56 3d c5 d6 ba bd bf a1 3f 40
       1.682808 0.0523135 -0.09122995 2.9942472
0002d0 e0 0d d5 3f ab 9a 9f bf 45 fb ad bf 2e 33 bd 3e
       1.6644859 -1.2469076 -1.3592306 0.3695311
0002e0 7b 03 98 c0 f5 19 31 41 23 81 b5 bf 97 2d 2f 3f
       -4.750425 11.068837 -1.4180034 0.6842894
0002f0 d8 f4 54 3e c7 c6 61 3f 31 10 0f bf 21 21 6b bf
       0.20796525 0.88193935 -0.5588408 -0.91847426
000300 fe ea 4a 3f 1c 71 13 bc f2 48 d3 3e ab 55 89 3f
       0.7926482 -0.008999135 0.4126659 1.0729269
000310 38 2a dd c0 d2 17 c8 40 03 37 ae 3f 54 e5 5c bf
       -6.9114037 6.2529078 1.3610538 -0.86287427
000320 81 61 4b bf 26 0a ee bf 34 64 ee 3e cb 81 6f 3d
       -0.79445654 -1.8596847 0.46560824 0.05847339
000330 eb 34 46 be f7 60 e0 c1 84 68 81 be 45 51 77 be
       -0.19356124 -28.047346 -0.25275052 -0.24152096
000340 96 ee cd be f4 60 cb 3f 68 26 99 3f d2 e8 38 bf
       -0.4022109 1.5888963 1.1964846 -0.72230256
000350 fb c1 62 bf 5e b6 6c 3f 89 4f 33 bf b4 ec b7 3e
       -0.8857724 0.9246577 -0.70043236 0.35922778
000360 11 5a 55 bd 0c f9 89 bf 57 4d 92 41 00 05 0a 3f
       -0.052087847 -1.0779128 18.287764 0.5391388
000370 67 f0 8e bf 6f 44 03 bf b6 ef ec bf f7 0f a8 3e
       -1.1167115 -0.51276296 -1.8510654 0.3282468
000380 f0 48 bd 3f 3d 4e 6c 3f ae 31 c3 bf aa 45 ee be
       1.4787884 0.9230688 -1.5249536 -0.46537524
000390 c4 c7 e5 3e 81 f6 c9 3f 80 89 79 c0 96 14 d2 3e
       0.44878972 1.5778352 -3.8990173 0.4103133
0003a0 ef 93 d4 41 1a 5a c0 c0 18 09 07 40 8a fd 75 bf
       26.572233 -6.0109987 2.10993 -0.96089995
0003b0 2d a4 4b c0 09 4a d3 3f a4 7f e7 41 5a f2 16 c0
       -3.1818955 1.6506969 28.937325 -2.358542
0003c0 45 03 29 3f 65 55 f7 bf ff 81 67 3f c7 3c 02 c0
       0.66020614 -1.9322935 0.90432733 -2.0349596
0003d0 e4 e4 61 3d 7e 16 e6 3c 81 69 49 40 35 ef f1 40
       0.055149928 0.028086897 3.1470644 7.56045
0003e0 a0 f1 65 41 01 8b f2 bf fb c4 88 40 24 79 80 c0
       14.3714905 -1.8948671 4.2740455 -4.0147877
0003f0 ae 5b b5 bf c0 8f c1 3f 4e 74 39 3f e8 33 b1 3f
       -1.4168603 1.5121994 0.7244309 1.3843966

net.0.bias f4 [128]
000000 53 78 09 40 eb 31 a0 bd 06 2d 8d 3c 51 9b f7 be
       2.147969 -0.07822021 0.017233383 -0.48360685
000010 27 38 86 bf b1 cc ab be 49 58 9b 3f 1b 02 85 be
       -1.0485886 -0.33554605 1.2136317 -0.2597817
000020 d1 89 07 bf 62 db 8d 3f 2a de 3f 3e 62 f4 c4 bd
       -0.52944666 1.1082575 0.18737093 -0.09616925
000030 52 67 75 bf 3e 1f d3 3e 2e 74 f3 be c9 69 f8 3e
       -0.9586078 0.41234773 -0.47549576 0.48518208
000040 b3 d6 98 bf 4c be 8c bf 2f 76 2e bf 9b 98 bb bf
       -1.1940521 -1.0995574 -0.68149084 -1.4655946
000050 5d dc b6 bf 40 25 da 3f e5 63 4e bf 43 bd 3d 3f
       -1.4286 1.7042618 -0.80621177 0.74116915
000060 a7 8e 6f 3f bc ba 0f 3e f3 59 d2 3f 21 f7 b1 3c
       0.93577045 0.14036077 1.64337 0.021724286
000070 69 66 ec be ab 36 05 3f 96 b9 e4 3f a8 6e 60 be
       -0.46171883 0.5203654 1.7869136 -0.21917212
000080 12 31 68 be 2c 1b e3 bd 21 a4 7c be 17 b7 41 3f
       -0.22674969 -0.11089167 -0.24671985 0.7567
000090 a9 31 4c bf 91 74 95 bf 29 7a c8 3e 4a c6 5f bd
       -0.79763275 -1.1676198 0.391557 -0.054632463
0000a0 4c d8 0d c1 38 98 b0 be aa 8c e1 be 2d ff 61 bf
       -8.865307 -0.34491134 -0.4405263 -0.8827999
0000b0 24 36 01 40 f3 5c d9 bf 45 62 a0 3f c4 23 c6 bc
       2.0189295 -1.6981491 1.252999 -0.024186976
0000c0 b6 df 26 bc 98 fc 0e bf 70 6f 5e 3e b5 5c 07 3d
       -0.010185173 -0.5585418 0.21722198 0.033047397
0000d0 08 c9 11 3f af 23 3c 3f 9a 75 cf 3f 92 62 9e be
       0.56947374 0.7349195 1.6207764 -0.30934578
0000e0 5a 6f 69 be e8 83 be 3f 71 1e b6 bf fe d9 1e 3f
       -0.22796384 1.4884005 -1.422804 0.6205138
0000f0 f8 94 47 3e 89 b9 62 be 20 3f 39 3e f5 33 3d bf
       0.19490421 -0.22141089 0.18090487 -0.73907405
000100 58 18 0a 3f 1c b3 71 3f ca 3e 68 3e 7f 05 f8 3d
       0.53943396 0.94413924 0.22680202 0.12110423
000110 3c 65 32 bf 49 d0 02 c0 5b c4 c9 be f4 da 5c be
       -0.6968572 -2.0439627 -0.3940762 -0.21567899
000120 9d a8 2c be 9c 7b 9f 3f 18 71 91 3f b9 3b 6a 3e
       -0.16861196 1.2459598 1.1362638 0.22874345
000130 06 ed bd bf c4 e2 a9 be b9 89 b0 3e 67 f5 e2 3f
       -1.4837959 -0.3318082 0.34480074 1.7731141
000140 06 26 cb 3e 1b b5 c0 bf 3a fc 4a 40 f1 bb cd bf
       0.39677447 -1.5055269 3.1716447 -1.607298
000150 78 cc fa 3e ed 7a 39 3d 3f b1 44 bf 1a 3c 8f bf
       0.48984122 0.045283247 -0.76832956 -1.1190217
000160 92 03 43 3f 87 5f a2 3f 17 b5 0c bf e3 04 9a bf
       0.7617732 1.2685403 -0.5496382 -1.2032741
000170 13 f0 91 bd 78 eb af bf 73 52 48 3f 24 23 f4 bc
       -0.07125869 -1.3743734 0.7825081 -0.029801913
000180 36 42 2a bf 38 8c f5 3f 98 fc 5c 3f ea 8d f8 be
       -0.6650728 1.9183416 0.8632293 -0.48545772
000190 6e 99 ec 3e b4 fa 92 c0 5c 76 ae be 98 fd 9b 3e
       0.46210808 -4.5931034 -0.34074676 0.30466914
0001a0 2b 76 c1 3f b0 cc 01 40 69 42 98 3f d6 89 e0 bf
       1.5114187 2.0281181 1.1895267 -1.7542064
0001b0 60 5c b9 3f 57 ba cb 3e fd 49 4f 3f 1c a5 ce 3e
       1.4481316 0.39790604 0.8097227 0.40360343
0001c0 6e f1 8c 3f fa d8 1f bf 13 c4 46 3f 21 ee e0 3f
       1.1011178 -0.62440455 0.77642936 1.7572671
0001d0 bd cf b2 bd 9a 25 ee bf 77 f6 c6 3f bd 0a 1e 3e
       -0.08731029 -1.8605225 1.5543965 0.15433784
0001e0 a7 fd a3 bf 6c 85 9d bd 87 3a 97 be 08 f3 ed 3e
       -1.2811784 -0.07691464 -0.2953684 0.4647448
0001f0 10 66 89 3f 84 7c 77 3e de 94 7c bf ea 9b 4f be
       1.0734272 0.24168593 -0.98664653 -0.2027432

net.2.weight f4 [64, 128]
000000 c1 b5 fb 3e 5e e6 94 3c 01 71 16 40 0e 18 da bf
       0.49162105 0.018176254 2.3506472 -1.7038591
000010 79 57 23 3f d4 99 82 3e 13 b5 6b be 00 f2 4b bd
       0.6380535 0.25507987 -0.23018293 -0.049791336
000020 e3 6e de 3e bb 7d 5a 3f 7f aa 8d bd ae fd 0a bf
       0.43443975 0.853481 -0.06917285 -0.54293334
000030 af 36 9f be ca bf 90 3e 9c 4c 2e 3f 54 26 46 be
       -0.31096408 0.28271323 0.68085647 -0.19350559
000040 fb 7a 8d bf b3 45 14 3d b3 14 c7 3d 5c 49 85 bf
       -1.1053156 0.036199283 0.09720745 -1.0413013
000050 87 03 f3 bd 8f 01 37 bf 1e 62 32 bf 10 7d c4 3e
       -0.11865907 -0.71486753 -0.69680965 0.38376665
000060 d0 4f 07 3e da e1 6e 3c cd b5 81 be 1c f9 a7 bf
       0.1321404 0.014580214 -0.25334015 -1.3122897
000070 3b 7c ef bd ae 82 5a 3f d0 c2 1c bf 27 b8 80 3f
       -0.11693617 0.8535565 -0.6123476 1.0056199
000080 d5 6e f9 bf 2c 59 19 3f 43 77 aa 3e e7 14 23 bf
       -1.9486948 0.5990169 0.33294114 -0.6370377
000090 93 93 86 bf f0 42 fc bf d7 f7 c5 3e 00 9f b6 bf
       -1.0513786 -1.9707928 0.3866565 -1.4267273
0000a0 90 10 1b 3f 42 20 4c 3f a6 f1 2e bf 6e e4 e8 bf
       0.6057215 0.7973672 -0.68337476 -1.8194711
0000b0 e2 e0 8b 3f 5f af 01 3f c5 39 c8 3f 51 41 14 3f
       1.0928004 0.5065822 1.564263 0.57912165
0000c0 da bc dd 3e 37 32 33 3f 44 7b 21 c0 45 a8 0a bf
       0.43308145 0.69998497 -2.5231485 -0.5416301
0000d0 81 9b a7 be 38 aa 24 bf 6b 18 9e 3e ef a0 5c c0
       -0.32735828 -0.64322233 0.30878004 -3.4473226
0000e0 2b 12 87 bf 96 7d 55 c0 72 1a 7d 3f ec 68 f4 be
       -1.055242 -3.3357902 0.9886848 -0.477363
0000f0 84 0c 53 3e 7a 64 dc 3f 6c 36 0a 3e c8 2f 9b bc
       0.20610243 1.7218163 0.13497323 -0.018943682
000100 1b 72 2a 3f 9f 2c a6 3e 88 bb a5 be 47 64 0d 3d
       0.6658036 0.32455918 -0.32369637 0.03451946
000110 20 8c 09 3e ea 52 06 3e 1e 0f 10 bf c8 c6 d3 3f
       0.1343236 0.13117567 -0.56273067 1.6545038
000120 62 a5 35 40 c7 b1 46 bf 33 57 97 bd 66 9a 2b bf
       2.8382192 -0.77615017 -0.07389679 -0.6703247
000130 3c ab d4 bf 0c 79 f0 3f e1 eb 9b bf f0 b0 9f 3e
       -1.6614757 1.878694 -1.218136 0.3118968
000140 cc 2d 2e bf 1f c4 2f bf 46 4d c1 3f d8 20 9c bf
       -0.6803863 -0.6865863 1.5101707 -1.2197523
000150 a8 8d e1 bd ac af c3 be a3 6d aa 3f cf 71 c9 bf
       -0.11013347 -0.38219965 1.3314708 -1.5737857
000160 fa c5 97 bd ef de 1e 3f 7f 09 67 bf 3e 34 e7 3e
       -0.07410808 0.6205892 -0.90248865 0.45157045
000170 c0 b4 b1 3e f4 bb b0 3f e1 cb 73 be 7f 93 0b 3f
       0.34708214 1.3807359 -0.23808242 0.54521936
000180 3e c0 3d 3f 61 4d 28 3f 5d cb 52 3f 0d 57 ab 3f
       0.74121463 0.6574307 0.8234156 1.3385941
000190 2d 6e 2b c0 cb b8 5e 3f fc ac 92 be 9e d2 1b bf
       -2.6785996 0.8700072 -0.28647602 -0.6086825
0001a0 1e 0e 45 40 58 f8 ab 3f 8a e9 a4 be e4 29 89 bf
       3.0789866 1.3435163 -0.32209426 -1.0715909
0001b0 b6 ab f0 3e c3 0c ca 3f fb bf 05 3f ee cc c8 3f
       0.47006005 1.5785145 0.52246064 1.568754
0001c0 c4 b1 25 be 56 2d 29 c0 2b eb 28 3f 07 12 56 3f
       -0.16181093 -2.643392 0.6598384 0.8362126
0001d0 34 90 29 40 b4 ff 34 c0 88 93 9f bf bf 78 05 bf
       2.6494265 -2.8281069 -1.2466898 -0.5213737
0001e0 e5 62 a5 bd eb 26 88 3c b5 46 a8 3e 61 a0 4a 40
       -0.08075503 0.01662012 0.32866445 3.1660388
0001f0 2c 77 5f bf e7 8d 5f be 8f 23 06 be 19 44 14 bf
       -0.87291217 -0.21831475 -0.13099502 -0.5791641
000200 a6 ad 98 3f 4a 2c 35 3d 68 65 e2 bf 5e 6e 9b 3f
       1.1927993 0.04423169 -1.7687197 1.2143056
000210 2c 41 e3 bf 4c 29 02 3e cd 4f 0d 3f 6b ba 99 3f
       -1.7754264 0.12711066 0.5519989 1.2010015
000220 32 04 3f bf 26 65 03 c0 e5 04 f1 3f b3 3e 89 bf
       -0.74615777 -2.0530486 1.8829619 -1.0722259
000230 e2 67 e7 be 29 2b 6c bf b4 8d ff bc ca f4 0b 40
       -0.45196444 -0.9225336 -0.031195499 2.1868157
000240 9e 85 aa be af 02 4d bf 68 5d b1 3e 68 7a f5 bf
       -0.33305067 -0.8008222 0.34641576 -1.917798
000250 04 c3 46 bf 65 4f 67 be 34 62 54 bf cd f7 c7 bf
       -0.7764132 -0.2258888 -0.82962346 -1.5622498
000260 3c bb 36 3f d9 e4 f6 3e 6a fe 58 40 44 2b 84 bf
       0.71379447 0.48221472 3.3905282 -1.0325704
000270 f6 b5 a5 bf 85 1e 8c be 0a 8c 4d 3f cd 6d 60 bf
       -1.2946155 -0.27367035 0.8029181 -0.8766754
000280 5f 53 23 c0 7e c1 59 bf 0e e6 08 be f8 e5 2c 40
       -2.5519636 -0.8506087 -0.13369009 2.7015362
000290 35 b3 50 3e 80 41 90 be d2 a6 05 bf d3 82 a2 be
       0.20380862 -0.28174973 -0.5220767 -0.31740436
0002a0 3b 30 7e bf 2f 26 27 3f cf 88 6f be 79 09 61 3f
       -0.99292344 0.6529264 -0.23392032 0.8790508
0002b0 14 24 1a c0 12 83 90 bf c8 37 aa bf a8 a1 38 c0
       -2.408452 -1.129 -1.3298273 -2.8848667
0002c0 13 06 5d 3f c1 02 5f 3d 17 53 f7 be a0 74 b0 3e
       0.86337394 0.054445986 -0.4830558 0.34463978
0002d0 f8 82 1a be ef d0 43 40 cf 65 80 3e ea 86 17 40
       -0.15089023 3.0596273 0.25077674 2.3676095
0002e0 6f cb 80 3f b4 20 d2 3f 68 f3 99 bf c9 f8 87 bf
       1.0062083 1.641623 -1.2027407 -1.0622798
0002f0 34 8b 83 3f 55 68 83 bf b8 ec ce bf 80 c5 81 be
       1.0276856 -1.0266215 -1.6165991 -0.25345993
000300 00 8f e7 3e 84 2b f2 bf e9 fe 17 3e 7f ad bb 3e
       0.45226288 -1.891953 0.14843334 0.36655805
000310 c4 51 74 3e 7a 09 59 bf de 81 f5 3e af cf 0e c0
       0.23859316 -0.84780085 0.47950643 -2.231426
000320 d3 22 97 be b6 29 2a c0 d2 34 91 3f 56 cf d8 3f
       -0.29518756 -2.6587958 1.1344244 1.6938274
000330 5d 35 74 bf bd c4 1a 3f bd cf 88 3f 30 57 8d 3e
       -0.95393926 0.6045645 1.0688397 0.2760558
000340 19 d1 17 bf 8d f7 0c bf b4 fd 3b bf fe 8f ad 3f
       -0.5930343 -0.5506523 -0.73433995 1.3559568
000350 4b 9b 15 3f 67 d9 ac be e6 ba 9c bf 6a c2 1a 3f
       0.58440083 -0.33759615 -1.2244537 0.604529
000360 90 e5 85 3f c5 d3 dc 3f 29 d6 c9 be 45 f8 5c 3d
       1.0460682 1.7252127 -0.39421204 0.053947706
000370 3e 12 f7 3f d4 c0 10 3f 48 8a a6 be 04 d1 ae bf
       1.9302442 0.5654423 -0.32527375 -1.3657537
000380 88 da fb 3f ef a0 8c be 70 3e 9e 3f 50 e4 bf 3e
       1.9676065 -0.27466533 1.2362804 0.37478876
000390 25 7b 90 3e 2c 9c c6 bf cf d0 23 bf ba 91 03 40
       0.28218952 -1.551641 -0.6399049 2.0557694
0003a0 9f 67 84 3e d8 76 dd 3e 49 46 35 40 0a 2b 1b c0
       0.25860307 0.43254733 2.8324149 -2.424502
0003b0 af b1 39 40 d4 4b f4 3f a3 52 d4 3f 8a 27 9e 3e
       2.90147 1.9085641 1.6587719 0.3088954
0003c0 cd 5b 1f bf 38 0f a0 3f b6 9d 2e 3f 88 c4 93 3f
       -0.6224945 1.2504644 0.682094 1.1544352
0003d0 e1 c8 9b be fe 10 b1 3f 54 6c a8 bd fc 21 c0 3f
       -0.30426696 1.3833311 -0.08223787 1.5010371
0003e0 33 e0 08 bf a3 a0 95 3e 5a 12 5b 3f 0a 91 3c bf
       -0.534671 0.2922412 0.8557488 -0.7365881
0003f0 78 a9 ac 3f ef d7 b3 bd a3 1c 3d be 36 20 9b bc
       1.3489218 -0.087814204 -0.18467955 -0.018936258

net.2.bias f4 [64]
000000 2b d5 ad 3e b7 35 66 bd e1 46 b1 bf 25 bd 2e bf
       0.33951697 -0.05620357 -1.3849756 -0.6825736
000010 fa 7d ae be a3 3b ea 3d 39 a1 2c be dc be af 3f
       -0.34080487 0.11437156 -0.16858377 1.3730121
000020 6c 6f 73 bf f8 fb 36 3f a4 1b 45 3f a2 78 8d 3d
       -0.9509189 0.71478224 0.769953 0.069077745
000030 d2 e6 87 be 62 b2 a3 3f 23 ae 1a 3d a4 75 1b 3f
       -0.2654329 1.2788813 0.037763726 0.6072638
000040 43 ba f6 3e d5 d2 a5 be f1 29 63 3e 42 66 ab bf
       0.4818898 -0.32387415 0.22183968 -1.3390582
000050 33 7c 88 3c c7 5e 58 3f c9 71 39 bd ea ef 0a be
       0.016660785 0.8451962 -0.04527453 -0.13568082
000060 a6 f2 87 3f 2e c7 1a 3e d3 9a 7c 3e ab 73 b3 bd
       1.0620925 0.15115044 0.24668436 -0.08762296
000070 5b d9 5b be 84 1d 42 3d 49 49 28 3d 63 38 8e 3e
       -0.21469633 0.04739143 0.041085515 0.27777395
000080 b6 3a 1d bf e6 59 5a 3d 03 53 7f be 44 02 b8 be
       -0.6141771 0.05330839 -0.2493401 -0.3593923
000090 d0 87 b5 bf 40 44 a9 3d dc 72 cd be fe e1 3b 3f
       -1.4182072 0.08264971 -0.40126693 0.7339171
0000a0 85 6d 07 be 50 c4 09 be 99 af 2f 3f d0 f8 ba be
       -0.13225372 -0.13453794 0.68627316 -0.36517954
0000b0 4b 6e bb 3e e7 97 45 bf 2a bb 30 bf 27 1b 25 bf
       0.36607584 -0.7718491 -0.6903559 -0.64494556
0000c0 12 04 be bb f6 40 11 bf 1f ed 6a 3f 14 d0 05 bf
       -0.005798825 -0.5673975 0.9176807 -0.5227063
0000d0 3e 4d 4a 3d c5 74 bf be 9e ae f7 bd d5 75 3d be
       0.04939007 -0.37393776 -0.120938525 -0.1850198
0000e0 6b 07 5a be c7 0f 62 3f 2d b0 c4 bd b4 4a 18 3f
       -0.21291892 0.88305324 -0.09603915 0.5948899
0000f0 15 28 0e 3f ba 5f a3 be 11 e2 d1 bd 6f 16 c1 3c
       0.5552991 -0.3190897 -0.10248197 0.023570267

net.4.weight f4 [64, 64]
000000 41 22 6e be 58 30 4b 40 49 e1 2a 40 79 7d c1 3f
       -0.23255254 3.1748257 2.6700003 1.5116416
000010 07 9c bf bf 97 19 c0 3f ab 14 8a be 6b b8 cb bf
       -1.4969491 1.5007809 -0.26968893 -1.5915655
000020 f1 3e 9f be c3 40 ee bf f7 14 fb bf e0 67 b8 3f
       -0.31102708 -1.8613514 -1.9615773 1.44067
000030 08 e4 30 bf 09 1a 92 bf 7e 2c 70 3f b9 08 f9 be
       -0.6909795 -1.1414195 0.9381789 -0.48639467
000040 1c 83 2d 3f 89 22 89 bf 04 51 59 bf 30 19 4c 40
       0.6777818 -1.0713664 -0.84889245 3.1890373
000050 ca d5 0c be 10 53 a2 be f1 37 d7 bd 83 0a 56 be
       -0.13753429 -0.31703997 -0.10508717 -0.20902447
000060 83 fb 03 c0 4d 34 01 bf c2 2a 17 3f 25 fe b2 bf
       -2.062226 -0.5047043 0.5904962 -1.3983809
000070 ca 36 b6 3e f6 c5 51 bf e5 3c 76 3f 57 49 9a 3d
       0.35588676 -0.8194269 0.9618667 0.0753352
000080 7c 71 be 3f a0 a7 01 bf 53 0f 09 3f 01 88 1b bf
       1.4878383 -0.506464 0.5353901 -0.607544
000090 59 4d 37 40 e1 3e c3 3f 5a 11 fc 3d 77 71 c5 bf
       2.864096 1.5253564 0.12307997 -1.5425252
0000a0 1e e3 0d bf 68 35 76 3f 3f 37 95 3f c8 78 4e bf
       -0.5542468 0.9617524 1.1657485 -0.8065305
0000b0 5f ee 37 c0 09 bf f8 3f b5 e6 66 bf 41 a1 98 3f
       -2.873924 1.9433299 -0.9019578 1.1924211
0000c0 dc cc 36 bf b7 ec 99 3f d3 2b 13 bf ec ba 22 40
       -0.7140634 1.2025365 -0.57488745 2.5426588
0000d0 6f 7c 2c 3e d0 18 85 3e bf ac 1f c0 97 82 e9 3e
       0.16844343 0.25995493 -2.4949186 0.45607445
0000e0 36 05 7f bf b7 9b 83 bf c1 ac ac 3f 29 87 e3 bf
       -0.99617326 -1.0281895 1.349022 -1.7775623
0000f0 d8 4d 00 bf 43 68 c4 3f 8b 4f 8a be 39 76 cf be
       -0.5011878 1.5344318 -0.2701381 -0.40519884
000100 24 1a 07 be b4 ab fa 3e 2d 34 b5 3f 73 72 2a 40
       -0.13193566 0.48959124 1.4156548 2.6632354
000110 dd ff 5d bf 1d 52 3a c0 8d 89 7e bf a0 34 7a 3e
       -0.8671854 -2.9112618 -0.99428636 0.24434137
000120 9e bb 42 40 ae 5b 2f bf 37 0f d2 bf 7a d9 bb 3d
       3.0427012 -0.6849927 -1.6410893 0.0917234
000130 1f dd 62 be 29 1a eb 3e ce 8a 97 3f 0b 12 b3 bf
       -0.22154664 0.45918396 1.1839235 -1.3989881
000140 89 7d c4 3e 72 d7 e2 bd 26 8e b4 bf e0 97 02 3f
       0.38377026 -0.11076249 -1.410588 0.5101299
000150 ec 3c f0 bd 3c 01 91 bf 45 9e 7b bf 40 da bb 3e
       -0.1173037 -1.1328502 -0.98288375 0.3668995
000160 9c 52 15 3d 9e 94 25 bf 1c dc fa 3d 44 ee b6 3e
       0.036455736 -0.64679897 0.12249014 0.35728657
000170 67 95 32 3e 03 99 ff bf 5d 86 c4 bf 65 72 57 bc
       0.17439805 -1.996857 -1.5353504 -0.013149832
000180 8f b0 f0 3f 51 5a 15 c0 1b 71 03 bd 12 f2 90 3f
       1.8803881 -2.3336375 -0.032090288 1.1323874
000190 13 4c 1b 40 ea 2b 2d bf be 01 1a bf 94 8a a2 bf
       2.4265182 -0.6764513 -0.6015891 -1.2698541
0001a0 7a d1 6c 3e a7 cc 60 be 9a 0b 24 3e bc 61 94 3f
       0.23126784 -0.21953069 0.1602005 1.1592326
0001b0 a1 d5 34 c0 43 4b 75 be 4a 18 4a be b2 a6 4a 3f
       -2.8255389 -0.23954491 -0.19735828 0.79160607
0001c0 ac 91 1c 3e 20 a8 84 3f ed ca b9 bf 3c 3e b0 be
       0.15289944 1.0363808 -1.4515053 -0.3442248
0001d0 4d 65 84 3c 1f f8 1a 3f 49 16 0f be ce 71 d9 3d
       0.016161585 0.6053485 -0.13973345 0.1061741
0001e0 e9 3b 06 3f b4 ed 8b bf 1c 0a 28 3f 4a 3e f7 bf
       0.52435166 -1.0931916 0.65640426 -1.9315884
0001f0 1a a1 64 3f 5e 40 d8 3d 7e 93 d0 be 3e a5 28 bd
       0.8930832 0.10559152 -0.40737528 -0.041173212
000200 30 96 12 bf 31 a3 22 40 44 80 98 3f e7 c2 28 40
       -0.5726042 2.5412104 1.1914144 2.636896
000210 1c e3 33 3f d1 24 16 40 81 56 e4 bf ae 1f 17 bf
       0.70268416 2.345997 -1.7838899 -0.59032714
000220 a8 65 23 40 30 7e 5c bf 96 29 53 bf 2d f4 ad 3f
       2.5530796 -0.86130047 -0.8248533 1.3590142
000230 9c ac 37 bf 18 cd 4f be e0 f1 df 3f a7 b7 0a c0
       -0.71747756 -0.20293081 1.7495689 -2.1674592
000240 6d c4 cb 3f 46 1d ee 3f 4b bd b5 3f 15 df db 3f
       1.5919319 1.8602684 1.4198393 1.7177454
000250 10 74 c3 bf 95 93 9b bf b7 2b 45 be 57 9f 8a 3d
       -1.5269794 -1.2154413 -0.19254957 0.06768673
000260 c6 2f 67 bf 98 1f 15 bf a7 5b 4c 3e f8 e9 a7 be
       -0.9030727 -0.58251333 0.19956838 -0.32795691
000270 d5 4e 8f 3f c7 80 62 3e 20 bd 86 be 02 5e 52 bf
       1.1195933 0.22119437 -0.26316166 -0.82174695
000280 ad 85 60 40 9b 56 0b bf 00 18 72 3f 38 92 b7 3e
       3.508159 -0.54429024 0.9456787 0.35853744
000290 67 33 09 40 ce 97 04 3f d9 96 92 be f0 bf 5e bf
       2.1437624 0.51794136 -0.28630713 -0.87011623
0002a0 3a c9 4f 3f de d5 d7 bd 8f ff 02 3f 95 e4 d2 3f
       0.8116642 -0.10538839 0.511712 1.6476008
0002b0 2a 69 31 bf 2e 51 a9 3e 33 ad af bf 49 39 1c 40
       -0.6930109 0.33069748 -1.3724731 2.4409964
0002c0 ac 02 b0 3e 18 c4 b1 3f 04 73 b4 bf 95 e9 89 3d
       0.34377038 1.3887968 -1.40976 0.06734005
0002d0 d4 fb 01 c0 52 5c 51 3f 5c f9 3a bf f5 e2 b8 bf
       -2.0309954 0.81781495 -0.7303674 -1.4444262
0002e0 fc 37 a4 bf 70 11 21 bf c4 4d 38 bf fe d5 f0 bc
       -1.2829585 -0.6291723 -0.7199366 -0.029398914
0002f0 2c 97 87 3f e6 01 51 3f ea 9f 51 3f e4 32 8d be
       1.0593009 0.8164352 0.81884634 -0.2757789
000300 d3 f0 3b be f8 f9 ea 3e 43 27 dc 3f a9 38 1d be
       -0.18353586 0.45893836 1.7199482 -0.15353645
000310 a6 8e ea bd 45 63 0b 3f ad e9 69 be 0e ff c1 bd
       -0.11452989 0.5444835 -0.22843046 -0.09472476
000320 a8 90 7f 3f 96 4c f9 bf bb 3e a5 bf e1 3a 2c be
       0.998301 -1.9476497 -1.2909769 -0.16819336
000330 2d 8f ea be 76 05 8a bf 57 ab 00 40 f6 7c 64 bf
       -0.4581236 -1.0782917 2.0104578 -0.89253175
000340 e0 4b 8c 3e 77 12 9d 3e 3b 89 4e bf ae 87 0c 40
       0.27401638 0.3067815 -0.8067815 2.1957812
000350 aa 19 b9 be 60 c8 b8 3c 71 75 dd 3f 38 16 8b 3d
       -0.36152393 0.022556484 1.7301465 0.06791347
000360 3f 7d 8d 3b 69 3a 45 bf 97 ef 13 3f 5f fa 2f bf
       0.004317909 -0.7704225 0.5778746 -0.6874141
000370 e7 6b 13 3e eb 0a 71 c0 ee 29 80 3e ba 85 52 bc
       0.1439663 -3.7662914 0.2503199 -0.012849266
000380 ef e7 3e 40 9d df 48 be b7 12 ee 3e ec ab 7c 3d
       2.982906 -0.19616552 0.46498653 0.061687395
000390 0d 3c 22 3f ad a6 75 3e 92 c9 18 3f e2 cc c8 3e
       0.6337288 0.23989363 0.5968257 0.39218813
0003a0 48 ae a4 3f ed 30 14 40 75 79 bb be 59 ed 1d bf
       1.2865686 2.3154862 -0.36616102 -0.6169029
0003b0 0b 4d f9 be 4f 5f 2c 3f 51 05 97 3f 94 ac 3f 40
       -0.48691592 0.6733293 1.1798497 2.9949083
0003c0 51 93 bd 3e 8e 62 b1 3f e4 e0 24 bf 79 78 63 3e
       0.37026456 1.3858202 -0.64405656 0.22213925
0003d0 00 f5 93 bf b2 22 e1 3e 4c c1 6d bf 18 bd 9d 3d
       -1.1559143 0.43971783 -0.9287307 0.077020824
0003e0 73 20 a9 3f e5 7a d7 bf 37 b1 1f 3f 71 ba 36 bf
       1.3213028 -1.683438 0.62379783 -0.71378237
0003f0 69 78 8b be 76 46 9b 3f 45 0a 29 3f f9 dd 1e c0
       -0.27240303 1.2130878 0.66031295 -2.4822981

net.4.bias f4 [64]
000000 2b 57 62 c0 9f 85 5d c0 eb bb 5a c0 82 fa 55 c0
       -3.5365703 -3.4612806 -3.4177196 -3.3434148
000010 e8 a5 1c 40 d7 19 73 40 6b 73 54 40 1a 15 14 c0
       2.447626 3.7984521 3.3195446 -2.313788
000020 73 0d 53 c0 4d 1c 59 40 b5 ec 3b 40 05 80 41 c0
       -3.2976959 3.3923523 2.9363225 -3.0234387
000030 98 89 79 c0 11 b2 2f c0 2a 30 4f 40 24 1d 60 c0
       -3.899023 -2.7452433 3.2373147 -3.5017786
000040 ed 6b 69 40 48 fd 54 40 dc 29 4b 40 b1 1c 4c c0
       3.6472123 3.327959 3.17443 -3.1892512
000050 0a fd 6a 40 7c 8f 30 c0 fe ed 25 40 80 5d 07 40
       3.6716943 -2.7587576 2.592651 2.1150818
000060 c9 aa 2f 40 13 f8 27 40 43 45 4d 40 ba 53 61 40
       2.744799 2.6245162 3.2073524 3.5207353
000070 58 c0 38 40 45 26 44 c0 5a 49 5e c0 3f ed 58 40
       2.8867397 -3.0648358 -3.473227 3.3894804
000080 7b 79 71 40 41 9f 2c c0 f3 d7 65 c0 36 a3 70 40
       3.7730396 -2.69722 -3.5913055 3.7599616
000090 e8 d2 29 c0 c2 44 56 40 16 35 48 c0 fe 59 3d c0
       -2.6534977 3.3479466 -3.12824 -2.9586177
0000a0 a2 c9 11 40 a3 c1 33 c0 8d a6 5e c0 af 97 54 40
       2.2779317 -2.8086936 -3.4789155 3.321758
0000b0 5a 60 58 40 e3 3b 5a c0 cb d7 69 40 81 55 79 40
       3.3808808 -3.4099052 3.653796 3.8958437
0000c0 34 fd 31 c0 36 b0 45 c0 9b f5 54 c0 16 2f 16 40
       -2.7810793 -3.08888 -3.3274906 2.346624
0000d0 fe a6 47 c0 6e 77 81 40 12 f5 51 c0 a5 f9 3e 40
       -3.1195674 4.045829 -3.280583 2.983987
0000e0 88 d9 3c c0 28 23 69 c0 0c 42 55 c0 87 25 56 40
       -2.950777 -3.6427708 -3.3321562 3.3460405
0000f0 57 84 3d 40 48 10 83 c0 80 4c 3c c0 32 eb 62 40
       2.9612024 -4.0957375 -2.9421692 3.5456052

action_head.0.weight f4 [3, 64]
000000 0e ca c9 c0 3e 33 d0 c0 12 3a c8 c0 8f 86 c2 c0
       -6.305915 -6.506255 -6.2570887 -6.0789256
000010 c3 71 bd 40 ca 4e b0 40 17 ce ab 40 9b 53 c3 c0
       5.920137 5.509618 5.3689075 -6.1039557
000020 fa aa ae c0 66 b3 c7 40 a7 2c 8e 40 f6 4e ab c0
       -5.458371 6.240649 4.4429507 -5.353389
000030 ee c9 c9 c0 af ca ab c0 0c 05 cf 40 c4 20 d0 c0
       -6.3058996 -5.3684916 6.469366 -6.5039997
000040 76 4b bb 40 83 17 ba 40 9c 4d ce 40 64 7d bb c0
       5.8529615 5.81537 6.446974 -5.8590565
000050 be 2b c4 40 c1 13 b9 c0 40 52 b9 40 8f 54 ad 40
       6.1303396 -5.7836614 5.7912903 5.416572
000060 94 13 b1 40 98 71 c4 40 86 39 ca 40 96 9d d2 40
       5.53364 6.1388664 6.319522 6.5817366
000070 66 09 c0 40 06 ac a6 c0 79 86 b5 c0 40 3c c3 40
       6.0011473 -5.208499 -5.672665 6.1011047
000080 1c cc b2 40 90 58 c7 c0 0d 24 c9 c0 3e b7 ca 40
       5.5874157 -6.229561 -6.2856507 6.3348684
000090 e3 97 c0 c0 96 2e c3 40 1a f1 bc c0 a8 c4 d3 c0
       -6.018541 6.0994368 -5.9044313 -6.617756
0000a0 5b 3d b6 40 aa 8f be c0 fd 6d c8 c0 d6 39 cd 40
       5.6949897 -5.955037 -6.2634263 6.41331
0000b0 d2 11 c9 40 5d 9c d0 c0 08 46 c2 40 60 9b c9 40
       6.2834253 -6.5190873 6.0710487 6.3002167
0000c0 2a f3 bc c0 06 18 a7 c0 6e 7d bf c0 eb 69 af 40
       -5.904683 -5.2216825 -5.9840612 5.4816794
0000d0 40 f1 c4 c0 f6 d2 c8 40 98 2f b2 c0 14 26 bc 40
       -6.1544495 6.275752 -5.56831 5.879648
0000e0 b2 85 b4 c0 59 83 bc c0 b8 74 c3 c0 62 b9 c2 40
       -5.64132 -5.8910336 -6.107998 6.0851297
0000f0 bd ad c0 40 1c 05 c1 c0 eb 7d c8 c0 66 38 c8 40
       6.0212083 -6.0318737 -6.265371 6.2568846
000100 da f9 c6 c0 40 9b d0 c0 73 cb c7 c0 b9 fb bf c0
       -6.2179995 -6.5189514 -6.243585 -5.999478
000110 2a ca bb 40 7c c1 b4 40 d8 2a b0 40 9f 86 c1 c0
       5.868428 5.6486187 5.50523 -6.0476832
000120 48 55 b0 c0 b4 14 c6 40 28 09 b3 40 9f da b4 c0
       -5.5104103 6.190027 5.5948677 -5.651687
000130 ed c7 d0 c0 39 1a bd c0 08 b0 c8 40 d4 04 d7 c0
       -6.524405 -5.909451 6.271488 -6.7193394
000140 64 b6 be 40 57 d9 b6 40 c4 b6 d3 40 2f 8a bd c0
       5.9597645 5.7140307 6.6160603 -5.923118
000150 16 95 c7 40 2f 2b bf c0 ba b0 b5 40 96 0d ba 40
       6.236949 -5.9740214 5.677823 5.8141584
000160 cd 93 bb 40 13 30 c7 40 26 a4 c8 40 71 55 d0 40
       5.861792 6.2246184 6.2700377 6.51043
000170 30 fc bf 40 0a be a9 c0 53 19 bd c0 5b 0f c3 40
       5.9995346 -5.304448 -5.9093413 6.0956244
000180 02 be b5 40 58 42 c4 c0 68 ab c9 c0 01 38 cf 40
       5.6794443 -6.1330986 -6.3021736 6.4755864
000190 e3 4e c8 c0 a2 69 ca 40 72 3d c1 c0 fc b9 d7 c0
       -6.2596297 6.3253946 -6.0387506 -6.741453
0001a0 a3 34 bb 40 a8 fb c0 c0 08 d6 c6 c0 88 7d d4 40
       5.8501754 -6.0307198 -6.213627 6.6403236
0001b0 b1 96 cb 40 20 c3 d1 c0 fc 17 c6 40 9c 75 cf 40
       6.362145 -6.555069 6.190428 6.4831066
0001c0 fe 5b be c0 1c 73 a9 c0 c4 d8 c6 c0 a3 12 a7 40
       -5.9487295 -5.2953014 -6.2139606 5.221025
0001d0 8b d1 c3 c0 f7 34 d1 40 be ff b6 c0 9b 3e be 40
       -6.119329 6.5377154 -5.7187185 5.9451423
0001e0 76 0e b4 c0 5a cd bb c0 2a 07 c6 c0 54 a2 c4 40
       -5.6267653 -5.8688173 -6.1883745 6.1448154
0001f0 85 b8 c2 40 0c e0 c4 c0 7b 9c c8 c0 bb 36 cb 40
       6.0850244 -6.1523495 -6.2691016 6.350431
000200 ce 71 ce c0 24 60 d1 c0 b2 41 c6 c0 3a 9a c2 c0
       -6.451392 -6.542986 -6.1955194 -6.0813265
000210 2a d7 ba 40 ae 35 b6 40 c6 ab af 40 db 5f c0 c0
       5.838765 5.6940527 5.4897184 -6.011701
000220 9e 6d af c0 30 ae c8 40 64 f3 b1 40 34 94 b5 c0
       -5.482131 6.271263 5.560961 -5.674341
000230 c2 7e d0 c0 9b b3 c2 c0 31 42 c7 40 9c 36 d7 c0
       -6.5154734 -6.0844245 6.22683 -6.725416
000240 66 d0 bf 40 50 5b b7 40 b2 78 d1 40 f8 2e bd c0
       5.9941893 5.7298965 6.5459833 -5.9119835
000250 4a 31 c7 40 f3 c1 be c0 95 9e b6 40 3e 7e b9 40
       6.2247667 -5.9611754 5.706858 5.7966604
000260 5b ea b4 40 82 0a c7 40 c2 ab cb 40 70 e8 cf 40
       5.653608 6.2200327 6.3647165 6.4971237
000270 bd cb c0 40 ee 45 a7 c0 57 b8 bc c0 21 1a c3 40
       6.0248704 -5.2272863 -5.8975024 6.0969396
000280 ac cf b5 40 15 9d c3 c0 a5 02 c2 c0 b5 12 d0 40
       5.6816006 -6.112925 -6.062823 6.5022836
000290 da f1 c1 c0 46 10 ca 40 37 b0 bf c0 dd d2 d3 c0
       -6.060773 6.3144865 -5.9902606 -6.61949
0002a0 f2 0c bb 40 6b 89 bf c0 a5 b7 d0 c0 fe 5d d3 40
       5.84533 -5.9855247 -6.5224175 6.6052237
0002b0 36 5d cd 40 8e 94 d2 c0 e6 30 c5 40 34 7f ce 40
       6.4176283 -6.580634 6.162219 6.4530277
0002c0 bf db be c0 44 05 a9 c0 90 23 c8 c0 4e 50 a6 40
       -5.9643245 -5.281893 -6.254341 5.197303
0002d0 78 26 c3 c0 4d 35 cf 40 12 8c b8 c0 1d dd bf 40
       -6.098446 6.4752564 -5.7670984 5.9957414
0002e0 b2 b3 b3 c0 eb 56 bb c0 e4 01 c8 c0 8a fc c4 40
       -5.6156855 -5.85436 -6.250231 6.1558275
0002f0 fe c8 c1 40 ee b8 c5 c0 35 11 c7 c0 08 84 c6 40
       6.055785 -6.1788244 -6.2208505 6.203617

action_head.0.bias f4 [3]
000000 bb 44 af 40 c1 f5 d5 40 5b 04 d6 40
       5.47714 6.6862493 6.6880317

value_head.weight f4 [1, 64]
000000 aa c6 f0 c3 c3 8b ed c3 55 e8 ed c3 c4 f1 ef c3
       -481.55206 -475.0919 -475.8151 -479.8888
000010 63 3f ee 43 9c a1 f0 43 64 ad eb 43 60 c4 f0 c3
       476.4952 481.26257 471.3546 -481.53418
000020 32 a5 f0 c3 8d 9b ef 43 f1 45 ee 43 88 31 ee c3
       -481.2906 479.21524 476.54642 -476.38696
000030 f2 cf f0 c3 97 7b f0 c3 88 43 f1 43 5f 6a ee c3
       -481.62457 -480.96555 482.5276 -476.83102
000040 e0 5b f1 43 1a 58 f1 43 be a6 ed 43 4b 14 f1 c3
       482.71777 482.6883 475.30267 -482.15854
000050 11 65 f0 43 8c 32 f0 c3 b7 c3 ee 43 65 9c ef 43
       480.78958 -480.3949 477.52902 479.22183
000060 ae 3f f1 43 fd 07 ef 43 6a 91 ef 43 ef 29 ef 43
       482.4975 478.0624 479.13605 478.3276
000070 4e c7 ef 43 30 47 f0 c3 59 f6 f0 c3 04 87 ef 43
       479.55707 -480.55615 -481.9246 479.0548
000080 4d a6 ef 43 57 2e ee c3 99 69 f1 c3 98 0a ee 43
       479.29922 -476.36203 -482.82498 476.08276
000090 d8 73 ef c3 e3 4b f0 43 ac 34 f1 c3 06 5e ec c3
       -478.90503 480.59286 -482.4115 -472.73456
0000a0 0b 07 ee 43 df d7 ed c3 45 1a f1 c3 ff 06 ef 43
       476.05502 -475.6865 -482.20523 478.05466
0000b0 86 60 f0 43 63 83 f0 c3 56 c5 ef 43 6f f0 f0 43
       480.7541 -481.02646 479.5417 481.8784
0000c0 b6 ef ee c3 3a 5e ec c3 59 5b f1 c3 3a 69 ee 43
       -477.87274 -472.73615 -482.71365 476.82208
0000d0 f2 ea ef c3 fe 1b ef 43 d1 42 f0 c3 e7 1a ef 43
       -479.8355 478.2187 -480.522 478.21017
0000e0 a3 f0 ee c3 f5 11 f0 c3 e5 c6 f0 c3 3e 23 ef 43
       -477.87997 -480.1403 -481.55386 478.27533
0000f0 84 eb ee 43 08 08 eb c3 3b 91 ee c3 45 7c f0 43
       477.83997 -470.06274 -477.1346 480.97086

net.0.weight f4 [64, 3]
000000 c9 3f 32 3e 54 2c 7a 3e 7c e2 23 3d ea 4a 2b 3e
       0.17407145 0.24430972 0.040010914 0.16727796
000010 de c1 3d be 73 19 47 3c a3 10 84 3e 68 26 72 3e
       -0.18530986 0.012152064 0.25793943 0.23647463
000020 43 b7 62 3e 60 85 f5 be 99 58 34 3e e9 50 3a be
       0.22140221 -0.4795332 0.17611922 -0.18194927
000030 23 f2 84 be b1 1a 61 3e 58 3c 9e be b0 7e fb bd
       -0.25965986 0.21982838 -0.30905414 -0.12280023
000040 a6 8c 88 bd fe 14 bc bd 71 07 1c be 9e 11 08 bd
       -0.066674516 -0.091836914 -0.15237214 -0.033219926
000050 c7 a7 ab be 14 b1 b0 3d fb fe 70 3e 48 1f 18 be
       -0.3352644 0.08627525 0.23534767 -0.14855683
000060 80 a4 ce bc 66 76 3a 3e 9a 1a 06 be fb f9 63 3e
       -0.025224924 0.18209228 -0.13096085 0.22263329
000070 87 6c 8f 3e cd 0e b6 3d 1b 88 98 be db 8e 22 3e
       0.28012487 0.08889542 -0.2979134 0.15874808
000080 02 79 fe bc 03 5c ad 3e 54 7c 0e 3d 25 9a 51 bd
       -0.03106356 0.33859262 0.034786537 -0.051172394
000090 52 58 41 bd 7c e7 8b bd a6 93 66 ba 9a 59 ae be
       -0.04720337 -0.068312615 -0.0008795805 -0.34052736
0000a0 b2 d3 46 3e 08 e9 a5 38 71 cb 89 be 80 d1 d1 bd
       0.19416693 7.9112186e-05 -0.26913026 -0.10245037
0000b0 a9 8e d0 be 03 6b 06 bf 17 4b 93 3d 34 51 5d be
       -0.4073384 -0.52507037 0.071920566 -0.21613008
0000c0 a2 32 87 bd 78 d8 77 bd b5 a7 a4 be ed fd de 3d
       -0.06601454 -0.060509175 -0.321592 0.10888276
0000d0 a5 b8 64 3e 7a 36 51 3d 7f d5 34 bf 61 de 27 3e
       0.22336061 0.051077344 -0.7063827 0.16393425
0000e0 e7 b8 2d 3f ca 84 c3 3d 5d a3 da 3c f0 1a e2 3c
       0.67860264 0.09546812 0.026689226 0.027600735
0000f0 18 b9 ea be 9e fe aa 3e b2 2f bc 3d 32 85 7c be
       -0.4584434 0.33397382 0.09188785 -0.24660185
000100 6e 40 46 be 94 d4 68 3e 0e 07 7c 3e 24 e0 3e 3e
       -0.19360515 0.22737342 0.24612066 0.1864019
000110 bc 26 25 be 81 a4 f8 3d ae 6c 9f 3d 32 8d aa be
       -0.16128057 0.12140752 0.07784401 -0.33310848
000120 40 0e 9d bc f4 90 29 3e cc be 25 3e 0a f9 b8 3c
       -0.019171834 0.16559201 0.16186064 0.022579689
000130 0f a4 6e bd 8a 2a 5a bd 16 bf 6e 3e 94 18 55 bd
       -0.058261927 -0.053263225 0.23315081 -0.052025393
000140 b7 5c 8a bd 1e 4a 86 3e de 3a 97 be 1f 28 55 be
       -0.06755965 0.26228422 -0.295371 -0.20816086
000150 40 9e 55 be f6 84 ce bd 77 22 76 3b c9 18 e9 3d
       -0.20861149 -0.10083954 0.0037557164 0.113816805
000160 d0 68 aa 3d 59 9a 87 be 4b a1 29 be 0e 27 50 3e
       0.08320773 -0.26484945 -0.16565435 0.20327398
000170 5d c2 7f bc cd 12 d6 3e e7 cc d6 bd d6 d0 f7 bd
       -0.015610305 0.4181122 -0.10488301 -0.12100379
000180 13 a3 85 3e a2 c4 94 3e 78 72 c3 3e 93 ff 18 3e
       0.26100978 0.2905627 0.3817327 0.14941244
000190 da 24 60 bd 9f 18 b0 3e 7c f2 e7 bd 53 e0 a5 3e
       -0.054722644 0.34393784 -0.11325547 0.32397708
0001a0 83 32 92 be 1d 51 0e 3e c1 b3 ff 3d b5 ce 5e 3d
       -0.28554162 0.1389813 0.12485457 0.05439635
0001b0 42 eb 07 3d d8 d2 31 3e e8 54 98 be ad 1e 26 be
       0.033183344 0.17365587 -0.29752278 -0.1622264
0001c0 12 78 83 be 83 cb 7f bd 67 a0 6c be 3b 81 5a bf
       -0.25677544 -0.062449943 -0.23108064 -0.8535344
0001d0 c0 3d 34 bf 99 a2 9d 3d 16 f5 85 bd fc 77 36 be
       -0.70406723 0.07697029 -0.06540887 -0.17819208
0001e0 8e 1e b2 3d b6 fa c4 3e 45 72 dd be ca 14 90 3e
       0.08697234 0.38472527 -0.43251243 0.2814086
0001f0 25 be a3 3e 00 5f fe 3e c7 bb 44 be 58 b1 ce 3d
       0.31981006 0.49681854 -0.19212256 0.100924194
000200 d3 46 87 3d 8f 3a 8e 3d db a1 2e bd 74 cc 4f 3e
       0.066053055 0.06944763 -0.042634826 0.20292836
000210 7f cb 1e be 56 26 6b be e0 e1 21 3e fd dd c3 3e
       -0.15507315 -0.22963843 0.1580882 0.382553
000220 74 6c 7f 3c a8 79 0e 3e ff d6 70 3e 31 ba 29 3e
       0.015589822 0.13913596 0.23519515 0.16574933
000230 ad 5e d0 3d 63 ac 10 be 41 d8 cf 3c 3b f5 86 3d
       0.10174308 -0.1412826 0.025371673 0.06589743
000240 1b 17 c8 bd b4 37 38 be a5 ab 0d 3e c2 2c 1c be
       -0.09770032 -0.17989999 0.13835008 -0.15251449
000250 c2 2a c8 be 63 86 fc bd 63 a9 1b be ae 2d d0 bc
       -0.39095122 -0.1233032 -0.15201335 -0.025412407
000260 62 3c 00 3e b8 ee 4c be 24 24 f1 bd 66 04 42 3c
       0.12523034 -0.20012939 -0.117744714 0.011841869
000270 d7 78 9e 3e 74 59 ad be 02 c5 82 be 36 eb a8 be
       0.30951568 -0.3385731 -0.2554093 -0.32991952
000280 40 83 52 be ab 9b 4e 3e 8c 0d ae bd 92 37 c5 3c
       -0.2055788 0.2017657 -0.084986776 0.02407435
000290 40 32 63 be 25 f1 06 be ff 66 96 bc e1 9f 9c bd
       -0.22187138 -0.13177927 -0.01835966 -0.07647682
0002a0 c2 24 4b be 2a 8b 76 be ef f6 60 be bf 30 80 bd
       -0.1983824 -0.24076524 -0.21969198 -0.062592976
0002b0 d5 ce 67 3e 00 32 f6 bd ed 17 bb bd b6 10 6a bc
       0.22637494 -0.120212555 -0.09135423 -0.014286211
0002c0 73 45 ad bc ce c5 66 bd f2 f0 16 be 07 45 35 be
       -0.02115128 -0.056340985 -0.14740351 -0.17702113
0002d0 b9 b0 89 bd 61 00 ce be e5 37 3f be 9f 20 63 be
       -0.0672316 -0.40234664 -0.18673666 -0.22180413
0002e0 a9 14 29 be 08 5d d8 3c 49 4b 1f be 01 a2 25 be
       -0.16511787 0.026411548 -0.15556063 -0.16175081
0002f0 34 f3 c9 be c6 e4 80 be 57 a9 2e 3b d8 6e af 3b
       -0.39443362 -0.2517454 0.0026651227 0.00535379

net.0.bias f4 [64]
000000 48 34 39 3e c2 1b 5d 3b 89 1e 34 3d 31 0f 01 3d
       0.1808635 0.0033738469 0.043974433 0.03150863
000010 c4 61 f3 3b b0 d8 2c 3d 69 67 7a bd af 96 27 3d
       0.007427426 0.042198837 -0.061133776 0.040915187
000020 1a 79 c7 3c 44 4f 43 3d 65 2b e0 bd 32 69 78 3d
       0.024349738 0.047683015 -0.10945777 0.060647197
000030 d9 7b 2e bd 29 99 01 bc 70 c1 05 bd 86 e3 d6 bc
       -0.04259858 -0.007910051 -0.03265518 -0.026231539
000040 33 fa 14 bd 61 58 b5 3d 4d 0c 4e bd 62 9f 9d 3b
       -0.03637142 0.088547476 -0.0503047 0.0048102597
000050 d7 92 7d bd 0b 86 c8 bd 64 fa 1b bb 9c f4 02 bc
       -0.061907616 -0.09791192 -0.0023800367 -0.00799289
000060 90 e1 53 3c 7e 42 98 3d 01 8d 62 3d a2 f4 2b bd
       0.012932196 0.074345574 0.055310253 -0.041981347
000070 57 e3 8a bc 1d 12 35 bc b4 4a 31 bd 72 53 c0 3d
       -0.016954107 -0.011051682 -0.043284133 0.09390916
000080 7a f7 94 3d 05 07 cc bc 36 1e 4c bd 2d c1 3a 3d
       0.07273765 -0.02490569 -0.0498335 0.045594383
000090 92 d9 b8 bd 8c 1f 96 bd 0b e3 42 bd 62 36 60 bd
       -0.09025873 -0.07330236 -0.047579806 -0.054739363
0000a0 73 e3 f6 bc da 11 4c 3d ea 2f f3 3c d1 37 39 bd
       -0.030137753 0.049821712 0.029685933 -0.045219246
0000b0 c2 89 14 be 5a e1 85 3d 3b c3 4b 3d ef 4d 7a bc
       -0.14505675 0.06537123 0.049746733 -0.01527737
0000c0 ea 67 03 bd b0 8c 5e bd 1a fe 11 3c 90 e4 75 bd
       -0.032081522 -0.05433339 0.00891068 -0.060032427
0000d0 58 d6 4a bb 85 a5 9a bd b6 8b b9 bd 5b 07 a3 bd
       -0.0030950513 -0.075511016 -0.09059851 -0.07960387
0000e0 a4 20 80 bd 57 4c f0 bc fb dc 98 bd 18 75 1f bd
       -0.06256226 -0.029333277 -0.07464024 -0.03893003
0000f0 fd f8 37 bd 2d 7d 8d bb de 19 fb bc 70 8c 13 bd
       -0.044915188 -0.0043179006 -0.030651983 -0.036022604

net.2.weight f4 [32, 64]
000000 2b a5 bb bd c8 00 c8 3d 81 81 65 be 50 c0 d2 3b
       -0.09162363 0.09765774 -0.22412683 0.006431617
000010 69 5e 85 be 81 7d 3a 3d 43 9c 85 bb b0 7b 08 be
       -0.26048592 0.045529846 -0.0040774657 -0.13328433
000020 15 b6 03 be 6d 08 30 3d f2 60 94 bd 14 3e cb bd
       -0.12862428 0.042976785 -0.07245053 -0.0992395
000030 e9 10 7a be dc df d3 3e 46 17 92 3d b2 1f b8 3e
       -0.24420513 0.4138173 0.07133345 0.35961682
000040 6c da 41 3d db 7c 29 be 4e c3 c7 3e ad b3 28 3e
       0.047327444 -0.16551535 0.39016193 0.16474791
000050 76 e8 05 3c fb a0 0a 3e ef d2 db be 8e 79 2d 3e
       0.008173099 0.13537972 -0.42934367 0.169409
000060 25 13 eb be 5d 54 9b 3e 5d 50 78 3d a7 48 76 bb
       -0.45913044 0.30337802 0.060623515 -0.0037579925
000070 b6 d1 95 3b ad 9b 09 3d 27 9a 16 be 98 eb 35 bd
       0.0045721186 0.03359573 -0.14707242 -0.044414133
000080 41 f4 1b be 34 99 a7 bd 19 6f 9d bd 78 73 33 3e
       -0.15229894 -0.08183518 -0.07687206 0.17524517
000090 8f c2 d1 bc ed 0c a5 bc de 48 aa 3e 89 fa 9b 3e
       -0.025605468 -0.020147765 0.33258718 0.3046458
0000a0 46 25 0f 3e 53 88 f5 bd 33 d3 82 3e 2d 3c 1c bc
       0.13979062 -0.119888924 0.25551757 -0.009535831
0000b0 9d 11 37 3e 36 e8 e4 bd 03 d3 a8 be ad 5b 3f 3d
       0.17877813 -0.11177103 -0.3297349 0.04671829
0000c0 cb de 9f bd 43 56 86 bd 6f bb a2 be b4 ee aa 3e
       -0.07806166 -0.06559422 -0.31783625 0.3338524
0000d0 eb df 13 bf f8 87 1c be 14 3a 0d 3f 6c 22 be 3e
       -0.57763547 -0.15286243 0.55166745 0.37135637
0000e0 66 f6 60 3d 71 8c cc 3e 1f f6 88 3e 13 9f ff bd
       0.054922484 0.39950898 0.26750275 -0.12481513
0000f0 e3 0e f3 3d 96 03 8f 3d 7f 35 18 3e 3d 71 6b be
       0.11868074 0.06983106 0.14864157 -0.22992416
000100 e9 0a 9b 3e 6e 4b 32 3d 4e 0e 6a 3e cf 61 b6 bd
       0.3028176 0.043528967 0.2285702 -0.08905374
000110 05 12 2c 3e 10 ea 9b 3e b2 0c 31 be 3f 09 b4 be
       0.16803749 0.30452013 -0.17289999 -0.35163304
000120 93 64 46 3e d9 35 2d 3e 21 13 a7 3e bc 7c 90 be
       0.19374304 0.16915073 0.32631782 -0.28220165
000130 d4 c6 8f be 86 20 f8 3d 4f 39 0b bd 85 df be be
       -0.2808138 0.12115578 -0.0339902 -0.37279907
000140 e5 3e 7d be b3 e5 44 3e b1 6e 73 bd d4 be 8a 3d
       -0.24731024 0.19228248 -0.059431735 0.06774679
000150 02 e4 5f be af 9c 19 3e 74 76 97 3e 06 5d 7a 3e
       -0.21864322 0.15001176 0.2958256 0.24449548
000160 5d bc 46 bc 72 5f 69 bd 50 4a e1 bd f2 51 d3 bd
       -0.01212987 -0.05697579 -0.11000502 -0.10318364
000170 1e 63 84 3e 4a 22 a5 3d 0f 32 c5 be f2 aa 33 3d
       0.2585687 0.08063181 -0.38514754 0.043864198
000180 db f2 91 3e c0 1d 68 3d 85 c1 15 be c2 e7 15 bd
       0.28505597 0.056668997 -0.14624603 -0.036597975
000190 c4 91 0d 3d 83 f9 61 be b6 07 a0 bc 38 1e a1 3c
       0.03456284 -0.22067837 -0.019534927 0.01966773
0001a0 7d d2 5b be e8 33 96 3d 43 0b 60 3e 62 63 e7 3e
       -0.21467014 0.07334119 0.21879296 0.4519301
0001b0 2b 07 50 be be e3 cb be ff 75 42 3e e4 ad 13 bf
       -0.20315234 -0.3982219 0.18990324 -0.5768721
0001c0 7b 04 53 3e 60 88 e2 be aa 16 16 be 6f 01 5e 3d
       0.20607178 -0.4424467 -0.14657083 0.054200586
0001d0 eb b3 c9 3d 08 71 da bc 54 0a b2 3d 0f d6 8f be
       0.0984877 -0.026665226 0.08693376 -0.28093
0001e0 55 77 c0 be e5 f7 1e be 77 c7 3b 3d 26 51 0c be
       -0.37591043 -0.15524252 0.04584452 -0.1370283
0001f0 e5 01 94 bd 9a f8 ca bd f8 80 75 be a0 5d 9a bd
       -0.07226924 -0.09910698 -0.23974979 -0.07537389
000200 ba 51 bb be d2 be 9c 3e 90 c0 c9 be c5 fc a8 bd
       -0.3658579 0.30614334 -0.39404726 -0.08251337
000210 92 53 4d 3d 26 5d 01 3e 95 f2 e4 3e 72 1f 8d 38
       0.050128527 0.1263319 0.44716325 6.729261e-05
000220 82 8a 62 3e 7c a5 8a bd 18 2e 12 bd 4e 48 32 be
       0.22123149 -0.06769845 -0.03568849 -0.17410395
000230 44 c6 b6 be 9d ac 63 be b9 38 96 bd 65 e4 84 3d
       -0.3569814 -0.22233815 -0.07335038 0.06488875
000240 ab e0 65 3d df 30 dd 3e 47 66 4c be 0b 2f 1c be
       0.056122463 0.43201348 -0.1996089 -0.1525232
000250 c6 26 00 be 2d b1 5b 3e d0 f1 99 bd c2 b7 dd 3d
       -0.12514791 0.21454306 -0.07516825 0.10826065
000260 3a f6 d5 3d 28 49 95 be f5 5d ae 3d 16 fd 09 3e
       0.104473546 -0.29157376 0.08514015 0.13475451
000270 ab 53 56 bd 19 ff 08 3e 21 71 7e 3e 44 d2 c1 bd
       -0.052325886 0.13378562 0.24847843 -0.09463933
000280 d1 60 dd be 82 1f 96 3e 81 ea 52 3d bc 0f fb be
       -0.43237928 0.29320914 0.05149317 -0.49035442
000290 7d b5 7a 3d 3f 90 a2 3c 13 2c 5c 3d bf dd 20 be
       0.061208237 0.019844173 0.05375297 -0.1570959
0002a0 50 98 d8 3d ac dc a0 be 52 90 88 3e 7d b0 18 3d
       0.10575926 -0.3141836 0.26672608 0.037277687
0002b0 08 59 f0 3d c3 61 c3 3c bf be 4d 3e 50 35 f4 3d
       0.11735731 0.023850327 0.20092295 0.11924231
0002c0 65 a1 06 3f 15 d8 12 3d 22 56 05 be e3 30 85 3e
       0.5259002 0.035850603 -0.13021138 0.2601386
0002d0 5e 13 49 be 68 d0 2a 3e 68 92 2f 3e f7 38 9a 3e
       -0.19636294 0.16681063 0.17145693 0.30121586
0002e0 a4 86 66 3e d5 8e a6 3e dc 4f 47 3e 39 d8 5d 3e
       0.22512299 0.32530847 0.19464058 0.21664514
0002f0 c6 67 61 bd 9b b9 ab 3d b6 fa 0b 3e b2 11 26 3e
       -0.055030607 0.08385011 0.13669857 0.16217688
000300 13 26 72 3e 77 be 2e be 4e 9d 9c 3d e3 0f 13 be
       0.23647337 -0.17064844 0.07647191 -0.14361529
000310 f1 0f 64 3e bb d3 3f bd fc 99 61 bd b8 91 ee 3e
       0.22271706 -0.04683278 -0.05507849 0.4659555
000320 ca 4a 2d bd df 2b 5d 3e f1 c0 ef bd 62 6a 65 3e
       -0.042307653 0.21598767 -0.117067225 0.22403863
000330 11 75 2f 3e 5c 07 69 3e 2b c1 5e be ba 2d 6d bd
       0.17134501 0.22756714 -0.21753375 -0.057904936
000340 a5 6f 0f be c7 96 6e bd e7 eb 55 bd 1a b1 7f be
       -0.14007433 -0.05824926 -0.052226927 -0.24969903
000350 34 03 36 be f2 00 41 be b9 8f 1b 3e 1e 7f 40 be
       -0.1777466 -0.18848017 0.15191545 -0.18798491
000360 22 c8 63 3e ec ec 58 3e 9e 6b b2 3e be ec d0 3d
       0.22244313 0.21184129 0.3484773 0.10201405
000370 8d 0a 4b bd b2 9f ea 3e 4c bc ed be ce b3 16 be
       -0.04957061 0.45824963 -0.46432722 -0.14717028
000380 e8 ee cf 3d ed e2 69 3e 87 2e 81 be 43 07 1c be
       0.101529896 0.22840472 -0.2523081 -0.15237145
000390 73 2c 71 be 2b 4f 9f be 1b 20 a8 bd ed 1b ad be
       -0.23552112 -0.31115088 -0.08209249 -0.33810368
0003a0 74 d3 60 bd 1e ce f4 bc ef 80 dc bd ee c7 2e be
       -0.054889157 -0.02988344 -0.1076678 -0.17068455
0003b0 40 e2 16 bf 73 9e 1e bc 4e ad ee 3c 79 cc 53 3e
       -0.5893898 -0.009681332 0.029135372 0.20683469
0003c0 01 a6 e5 bd 62 cb 2b be bb 40 12 be 84 6c b8 3d
       -0.11213303 -0.16776803 -0.14282505 0.09005073
0003d0 13 06 ad bd 00 3f 81 3d 72 52 92 bd be 98 6a bb
       -0.08448424 0.063108444 -0.071446314 -0.0035796608
0003e0 6e 8d 75 be ee 3d bf 3e 64 cf 84 3e 46 72 d3 3b
       -0.23979732 0.37351936 0.25939476 0.0064528314
0003f0 70 ca f9 ba 64 69 04 bf 08 76 b0 bd a3 84 d3 3c
       -0.0019057523 -0.51723313 -0.08616263 0.025820082

net.2.bias f4 [32]
000000 19 87 54 bd 17 85 43 3d 8c d6 6e bd a3 50 fd 3c
       -0.05188665 0.047734346 -0.058310077 0.03092224
000010 64 47 82 bd 87 57 4a bd 55 e4 40 3d ac 80 0d 3d
       -0.06361273 -0.04939988 0.047092754 0.03454654
000020 06 b0 64 bc 9a db 75 3d d7 22 c2 3d f9 82 9e 3d
       -0.013957983 0.06002388 0.094793014 0.07739825
000030 f2 6f 48 3d 21 ed 19 3d b3 cb 8c bc 3b 59 a8 3d
       0.048934884 0.03757966 -0.017186975 0.08220144
000040 51 aa 70 3d 80 25 60 bd 34 85 65 bd d5 51 8c 3d
       0.058756176 -0.054723263 -0.056035236 0.06851546
000050 1d 4d d6 3c e7 4d e4 bd 49 e7 6d bd c0 b3 b8 3d
       0.026159817 -0.11147671 -0.0580819 0.090186596
000060 be da 3e 3d c6 8f 4a 3d fa d4 4e 3d 1c 7b 71 3d
       0.046595328 0.04945352 0.05049608 0.058955297
000070 c4 f1 92 3d af 37 4e 3d b7 e4 12 be 91 ab 63 3d
       0.071750194 0.050346073 -0.1434506 0.05558354
