auto-iss-demo/movement_agent/weights/movement_net_50.pt (torch, 68335 bytes, 16 tensors)

net.0.weight f4 [128, 3]
00000000: 68e6 9dbb 0ace 493d 9698 e0bc 3b2c 163e
00000010: b8a0 183e 79e0 0b3d a690 783e a1c0 07be
00000020: cab5 9abe 71d3 913d cbda cbbd 382c 9e3d
00000030: 25b2 3a3e 2081 2ebe 6e5c 92bc dc6f 173e
00000040: d82a 163e 70d7 49bc eaa0 da3d a4cb ad3e
00000050: 2aa2 373e 39aa 8bbe 9a1b 10bc 4151 6f3d
00000060: 2ebe 803d 043a eb3b 14eb 54be 3061 13be
00000070: f01e 35bd 0356 65be bca1 a9be dbd9 1dbe
00000080: 9c1f b23d 72be c2bc e10e 393e 86fc 93bd
00000090: 820b 5dbe 724a 053e 6491 e7bd 94f2 243e
000000a0: 3418 a7be b46b 583d 20ad 863b f8e2 b5bb
000000b0: c441 103b a1de 563d 0e79 4bbd 20e2 75bd
000000c0: 8ade 493d 4c77 423e 3230 20bc 4252 aebd
000000d0: d669 d2bd 9e68 6dbd 9774 833d 7a62 a0bc
000000e0: e6e7 16be d8ff 903d 27fe 84be 493e b9bd
000000f0: e895 353e 326c cfbd 8728 60be b635 aebd
00000100: 1f83 83bc 14ee 7cbd 9beb 8ebe f17a 93be
00000110: e222 193d 8221 213e 5f92 0ebd 5104 e6bb
00000120: a974 a13d dce0 2a3c 5fb3 fb3b 37b4 cc3d
00000130: ea0e 713d b315 60be f66c 3abe 93a2 fa3d
00000140: 633b 73be 9a7f 4f3e e01a 093e 0f6e 983d
00000150: 114b 633c bcf6 313e 78ea adbe f04d 273d
00000160: f885 dd3d f3b4 f93c f026 51be 9469 d63d
00000170: 8de6 323d 0bc7 e3bd cb2e 71bd 7a2a 20bd
00000180: 7471 80be 5fa6 8a3e 85d3 0bbe 1cbb 23bd
00000190: 7f02 4b3d 3aa4 66bd 961b 3ebb 81c9 bf3d
000001a0: 8d3f 6ebe 91a9 11be 7ec3 2bbd ebd5 8fbe
000001b0: 8ed9 98bd b6e8 843e 712b e6bc eb1f 783e
000001c0: 644e 33be fc8f 97bd 5c6b 94be 187c 52be
000001d0: 437c acbc 7e72 03be 2a4a df3d c72e b6bd
000001e0: 3f47 05bc 59c3 a93e 4148 b9bd 91e0 34bd
000001f0: 1dee 57be 3b53 933e 4999 0b3e 5f38 6b3d
00000200: 6ade a43e 77ad 0d3b 47a8 da3c 12cc 023d
00000210: c99e 2dbe 1948 f93d ff49 a6bc 4758 2d3c
00000220: f1bf b6bc 2628 97b9 33ca f7bd 0e6e e83d
00000230: b1f1 0e3e d8a9 043e 56f7 93bd eb3f 56be
00000240: 084d 9a3e 757e 433e 763f 1fbe 918c 25be
00000250: 3c0a 523d daff fa3d f9f0 1b3e 339f c93d
00000260: 8b45 293e 40d3 523e 49f9 45be e464 533d
00000270: ad5b 68be 9747 0bbe f046 033e 0eab 663e
00000280: e594 0dbe f5b6 13be 1498 eabd 4535 a33e
00000290: 095b 173d ffa0 113d daf9 7c3e 167b 79bc
000002a0: 40c2 d6bd 1114 73be 70ae db3c f053 a43d
000002b0: 915a 04be 6d31 b23d a353 07be a132 fcbb
000002c0: 75ee 073e 4084 efbd b28b 93bd 8b4f 0f3e
000002d0: 54d6 12be ee2c 56bc 6968 e1bd 0e57 a43e
000002e0: bbfe 6fbe 1bd2 f03d 2a26 163e 1a62 cd3c
000002f0: 542e 8bbd a449 e8bc 739f 6bbe 37c6 60bd
00000300: 5819 823e c4ee a93e 568f b2bd 1492 6a3e
00000310: dde1 bd3d 6a19 893e df8d b2bc fd5c 373e
00000320: afd6 76bd 1156 52be 174d 19be 8e13 32be
00000330: 23a4 c13c 2b32 4f3e 541a a9be 7f08 353e
00000340: 4253 7abd e2aa 923d 8fdf 28be bcca 98bd
00000350: 53f7 b13e c158 6fbe 9b13 0d3e 030c 8abd
00000360: b26e 243e 8bd0 923b 21a3 7a3e b4bd 52bd
00000370: b837 1ebd ee06 1ebc d31d 06be 0994 40be
00000380: a62c 833e bd0e 223e 6338 0e3e e570 693e
00000390: cdb2 60bb 20f1 973c f0b5 c53d d86d 8a3d
000003a0: c342 323e 688b 453e a983 d0bd e2a1 d23d
000003b0: 8903 3e3e 1f6c 873d 7168 5dbe 3f5d 50be
000003c0: 4db8 11bd 0e9b 1a3e e104 1fbe 5c19 103d
000003d0: 9a9e 84be 2d58 033e 4535 79be 5c87 063b
000003e0: f808 cfbd 1bdf 82be 37d1 6d3c ee7c 1abe
000003f0: fd06 ae3d 8dd2 8bbc 6e6a 0bbe 2162 cfbd
-0.0048187263 0.04926876 -0.027416509 0.1466531 0.1490506 0.03414962 0.24273929 -0.13257076
-0.3021682 0.071204074 -0.09953841 0.07723278 0.18232019 -0.17041445 -0.01786634 0.14788765
0.14664781 -0.012319431 0.10675223 0.33944428 0.17932954 -0.27278307 -0.008795643 0.0584271
0.06286274 0.007178547 -0.207928 -0.14392543 -0.044218957 -0.22396092 -0.33131206 -0.15415137
0.08697435 -0.023772452 0.18072082 -0.072258994 -0.21586421 0.1301668 -0.11307028 0.16108161
-0.32635653 0.05283709 0.0041099936 -0.0055507384 0.0022011856 0.05245841 -0.049675994 -0.060030103
0.049284495 0.1899082 -0.009777116 -0.08511783 -0.10274093 -0.0579611 0.06418722 -0.019578207
-0.147369 0.07080048 -0.25975153 -0.09045083 0.17732966 -0.101280585 -0.2189046 -0.08506338
-0.016053734 -0.061750486 -0.27914128 -0.28804734 0.037386782 0.15735438 -0.03480756 -0.0070195575
0.07883579 0.010429587 0.007681295 0.09995311 0.058852114 -0.21883278 -0.18205628 0.1223804
-0.23753123 0.2026352 0.13389158 0.07442867 0.013872878 0.17379278 -0.33967948 0.04084581
0.10816568 0.030481791 -0.2042501 0.10469356 0.0436769 -0.11121949 -0.058882516 -0.03910301
-0.25086558 0.27080056 -0.13654907 -0.039973363 0.049562927 -0.056308962 -0.0029008142 0.09364606
-0.2326643 -0.1422484 -0.041934483 -0.28092894 -0.0746337 0.25958794 -0.028096886 0.24230926
-0.17510372 -0.0740051 -0.2898816 -0.2055515 -0.021055346 -0.12836644 0.109028175 -0.08895641
-0.008134662 0.3315685 -0.090469845 -0.044159476 -0.21086927 0.28774437 0.13632692 0.057426807
0.32200938 0.0021618286 0.026691569 0.031932898 -0.16955103 0.12171955 -0.020298956 0.010580129
-0.022308322 -0.00028830877 -0.12099113 0.11349116 0.13959385 0.12955415 -0.0722491 -0.2092282
0.30136895 0.19091208 -0.15551552 -0.16166903 0.05127929 0.12255831 0.15228643 0.09844818
0.16530435 0.20588398 -0.19333376 0.05160989 -0.22691222 -0.13601528 0.1282003 0.2252619
-0.1382633 -0.14425261 -0.11454788 0.3187658 0.036952052 0.03555393 0.24704686 -0.0152271
-0.10486269 -0.23738123 0.026816577 0.08023822 -0.12925173 0.087008335 -0.13215499 -0.007696465
0.13274558 -0.116951466 -0.07204379 0.13995187 -0.14339572 -0.0130722355 -0.11006243 0.32097667
-0.23437016 0.117588244 0.14662996 0.025071193 -0.06795946 -0.028355427 -0.23010044 -0.054876532
0.2540996 0.33189976 -0.087187454 0.22907287 0.092715956 0.26777202 -0.021796165 0.17906566
-0.060263332 -0.20540644 -0.14970814 -0.17390272 0.023637837 0.20233981 -0.330279 0.17679022
-0.061114557 0.071614996 -0.16491531 -0.074605435 0.34759006 -0.233737 0.1377701 -0.06740572
0.16057852 0.0044804267 0.24476291 -0.051450446 -0.038627356 -0.009645207 -0.13097315 -0.18806471
0.25620002 0.15825935 0.13888697 0.22796972 -0.003428626 0.018547595 0.096538424 0.06759232
0.1740828 0.1929146 -0.10181362 0.10284783 0.18556036 0.06612419 -0.21621872 -0.2034807
-0.035576154 0.15098211 -0.15529205 0.035180435 -0.25902253 0.12826605 -0.24336727 0.0020527458
-0.101091325 -0.2556084 0.014515213 -0.1508672 0.08497427 -0.017068172 -0.13614818 -0.101261385

net.0.bias f4 [128]
00000000: fd35 933b 1473 9fba e61a 58bb 0e91 243b
00000010: ba98 02bb 3ae2 223b fb81 aa3a e3ae 5ebb
00000020: 3ed0 5d3b 1587 aabb 1ffa 9cba 630a 68bb
00000030: 9c72 fdba c295 633b 413a cb3a a881 5538
00000040: 32cc c439 993d f03a 5c7a b3bb 1b0a 7bbb
00000050: 845f d33a 6502 57bb 904a 55ba c1b0 803b
00000060: b5c0 4cbb c92c 253b 4096 0e3a eb9c 2aba
00000070: c74c 37ba fe39 18bb 7b9d 91bb 6678 69bb
00000080: 3390 8cbb 1b03 893b e098 00bb 90cb 483b
00000090: 71ad 8b3a 0839 41bb 3a9a 90bb 9535 793b
000000a0: 606c 143a 5213 053a 2443 22ba 6150 7ebb
000000b0: 4f6a 99bb 0c39 4d3b 460b 7c3b 815e 263b
000000c0: eeac 89bb 587a 9c3b 6088 55bb ed5b ca3b
000000d0: 187e 8cba 26e1 a13b 4f84 95bb 9ac7 5a3b
000000e0: 19c8 beba 2706 9bbb 068d 8c3b 5f10 173b
000000f0: 3c3b 99bb 29ad acbb 9bf1 273a dc50 72bb
00000100: e47f 873b fc52 803b adee 943b 5614 d53a
00000110: 23b9 c43b aba9 80bb 5db2 acbb 3fd5 69bb
00000120: ae87 ccbb 8a0b c93a 3b95 443b e314 8e3b
00000130: 5475 6bba bf44 a5bb 20f1 4dbb 83d3 8dbb
00000140: 601a e7ba 8d26 5ebb ec04 5eba 1d0f 963b
00000150: 1e4a 87b9 2ae9 d9ba d65a 86bb 23f8 863a
00000160: 4b98 77bb 3b59 54bb 5d24 683b 7359 2fbb
00000170: b549 cb38 3f45 c2bb 64ff b5ba ef5d 05bb
00000180: 0ed9 8e3b 42f1 9bbb e93a 5e3b 10fb 07bb
00000190: 5ecd ad3b 5c11 feb9 024f c739 52d5 8b3b
000001a0: b28a 973b 9187 fcba d725 cd3a 086b abba
000001b0: 7ff9 7fbb e5f1 34bb b50b 4cbb c7f7 783b
000001c0: b6bf 9a3a 8025 71b7 65f6 a3ba 003f c93a
000001d0: 4245 77bb baa6 8abb 329e a5bb 6637 953b
000001e0: 0306 b0bb c6b9 cfbb 3756 953b 0a76 4f3b
000001f0: 76b4 3b3b d11c c039 b94d 053b a5ca 863b
0.00449252 -0.0012165033 -0.0032975017 0.0025110873 -0.0019927458 0.002485408 0.0013008708 -0.0033978752
0.0033846046 -0.0052040913 -0.0011976397 -0.0035406582 -0.0019336524 0.0034726714 0.0015505032 5.090391e-05
0.0003753617 0.0018328904 -0.005477233 -0.0038305584 0.0016126488 -0.0032807824 -0.0008136416 0.0039273207
-0.0031242792 0.0025203696 0.0005439259 -0.0006508368 -0.0006992337 -0.0023227925 -0.004443822 -0.0035624742
-0.004289651 0.0041812784 -0.001962237 0.003063891 0.0010656548 -0.0029483456 -0.0044129165 0.0038026322
0.0005661901 0.00050764263 -0.00061898143 -0.0038805234 -0.0046818624 0.003131452 0.0038458868 0.0025385919
-0.004201523 0.0047753267 -0.0032582507 0.006175509 -0.0010718731 0.00494017 -0.0045628916 0.0033383132
-0.0014555483 -0.004730958 0.0042892722 0.002305053 -0.0046762507 -0.0052696657 0.00064065465 -0.0036974465
0.004135119 0.0039161425 0.004545054 0.0016256671 0.0060035153 -0.003926476 -0.005270286 -0.0035680083
-0.00624176 0.0015338522 0.0029996175 0.004335986 -0.0008982022 -0.0050435956 -0.003142424 -0.0043281927
-0.0017631762 -0.003389749 -0.00084693613 0.0045794384 -0.00025804428 -0.0016625274 -0.004100184 0.0010297339
-0.0037779983 -0.0032401818 0.0035422065 -0.0026756197 9.693523e-05 -0.005928665 -0.0013885316 -0.0020350178
0.004359371 -0.004758985 0.0033909625 -0.002074901 0.0053040227 -0.0004845959 0.00038015103 0.004267373
0.004624688 -0.0019266476 0.0015651536 -0.0013078162 -0.0039058623 -0.002761 -0.0031134908 0.0037989484
0.0011806402 -1.43734505e-05 -0.0012509344 0.0015353858 -0.003773049 -0.004231301 -0.0050542587 0.004553723
-0.0053718104 -0.0063392846 0.0045573968 0.003165605 0.0028641499 0.00036642564 0.0020340516 0.0041135126

net.2.weight f4 [64, 128]
00000000: 1fc9 e8bd 2721 89bd 46f3 12bd d7c2 efbc
00000010: 8637 523e a868 83bd b851 6f3e 271e 883d
00000020: d837 fd3d 0497 703e 0885 353e 72ed e33c
00000030: aa12 cfbd 40e9 18be c9c6 4d3e cbcd af3d
00000040: 329f 19be d3e0 febc cda6 193c d1af 893e
00000050: 110c 10be dbdd 35be 085e 92bc 6ba4 b7bd
00000060: e127 393e 4aa3 6ebe 3fbc 1c3e 23c7 f43d
00000070: 7002 32be 4b1f afbd e97d 903c 1437 0dbe
00000080: b430 d2bd cf7f 4c3e 80b5 423e 2c94 933c
00000090: c6df 82be 9042 31be cf38 f23c 7091 d73c
000000a0: eb3e 1e3e f6d6 b03e 5ffc d63d 5f2b c3bd
000000b0: 98da 8e3c 332d f33c ae91 373d 96d1 56bc
000000c0: 7e30 fbbd dc51 8abd 14ff 4b3e 873c a03e
000000d0: 5429 b23c 88a8 cd3d aa5d 133d 1176 11be
000000e0: 76aa 993b 7011 09bd b755 103e 094d f3bc
000000f0: 8d9a 3fbd 5e75 013d 191e b7bd 0cb7 9fbc
00000100: 9b3c 66be 1c12 3fbd e513 afbe c23f 8fbe
00000110: 2d71 f0bd 7c10 a93d 6d0d 0f3e d23b 583d
00000120: f3ef bf3d c938 e33d fcdb bebe 555c 30be
00000130: b22b 9dbd fc08 493d 5dee cf3d 6935 883d
00000140: 2273 be3d fb1b 15bd ca89 7e3d 0964 173e
00000150: b39a a23d 587c babd f867 5abd 7be2 973d
00000160: 1597 0f3e 6391 a7bd 7626 9ebc 94ac 2f3c
00000170: 0c54 d53d e841 003d 6e6f 01be 1a16 2bbe
00000180: 6204 8fbc 63bc 733e 90de b43d d5f2 62bd
00000190: 69f5 a13d df45 863e e5dd 0a3c 7e99 473e
000001a0: 7d46 13be 7374 d4bd 8ae1 6cbd 4919 153b
000001b0: c179 283d bd20 663e 4fea 12bd e5a6 3dbe
000001c0: 844f 56bd 2d41 783d 33f7 16be 5b2d 55be
000001d0: 9233 5ebd ec01 803e c948 223d 58fb 96be
000001e0: bc90 903e 29fa c33e c66e cd3b 4a66 9dbe
000001f0: ca41 183e 7e68 303e ed63 f13d 4126 cf3c
00000200: e0c9 0ebd f312 39bd eb83 6d3e dbfe 973d
00000210: 1ee2 10bd 8a4d a6be 2d84 2f3d 07c1 1ebd
00000220: b688 33bd 9353 c8bc f6ab 0abd 04b0 eb3d
00000230: f670 c1bd f135 493c cfc4 0fbe eee8 fe3e
00000240: 73c0 433d f37d b1be db17 34be d03e 07be
00000250: b2b5 b6be 2ddf 0a3e 2359 24bd 9984 ca3d
00000260: cc88 3b3d 5e77 ed3a b5c5 3abe 5371 553e
00000270: a4ba 4c3e 0c18 8fbd 021b 0ebe c2e6 a73e
00000280: ad88 98bd 1483 713e 0e16 26be b5d9 b43d
00000290: 8347 9b3d 2a55 ecbd 1f37 a83d ed19 9cbe
000002a0: f825 cb3d 85c9 9bbe 125e 35bd dd41 ad3d
000002b0: 4729 5a3c 3248 4a3c fa38 8fbd 575f 193e
000002c0: 954e 8a3d 19ab 0bbe a48d 543e 79af 9e3d
000002d0: d29b 7d3d 12c7 3c3e debc 483e 13c4 ebbd
000002e0: d506 5dbc 5b02 29bd eaf1 b93e 8e4e 073e
000002f0: 711b 44be 57d3 44be 09a1 f1bd d6b6 893d
00000300: 01d9 1cbd 2abd e5bb 3dd3 91bd 3d9f 1dbd
00000310: 38fd 88bd 2af3 9c3a ffff e73d e5e1 bfbd
00000320: a729 7cbe 47c1 46be 49ce 7bbe 17fb aa3d
00000330: bbc2 96bd d04d ea3d 4465 8dbe 4010 c53d
00000340: e9dd c93d 753f 29bd d5c5 593e 4079 a33d
00000350: 308d 9e3c 0d2b 1f3e 5e97 c33c 4036 1fbd
00000360: d81c 383d 2cd8 1abe 964b a2bd 77c8 57bc
00000370: 8ea6 38bc 0e23 5abd 8245 7b3e 567e ce3d
00000380: 9670 963c 30a5 04bd 0872 923d 597b 1c3e
00000390: ef92 333c 0676 0c3d c79c 4bbe 461c 05be
000003a0: 1b88 923d 1854 123d 19f6 cf3d bcbd 55be
000003b0: 4f5d 243e dd91 e73d 71e0 113e 6b74 33bd
000003c0: 1f91 7fbd 60fb 8dbd ea5e bcbc 717a 173d
000003d0: 9a12 95be 6b3e 5bbd b77f 67bc dbdf abbb
000003e0: ecef c8bc 7390 4abe 380f 71be 8747 fb3d
000003f0: ab58 253e f623 793c 1528 163e d227 84bd
-0.11366486 -0.066957764 -0.035876535 -0.029267712 0.20528993 -0.06416446 0.23371017 0.06646376
0.12364167 0.23495108 0.17726529 0.027823184 -0.10110982 -0.14932728 0.20095362 0.08584174
-0.15002134 -0.031113064 0.009378147 0.2689195 -0.14067103 -0.17760412 -0.017867103 -0.08966907
0.18081619 -0.23304477 0.15306185 0.11952045 -0.17383742 -0.085508905 0.017638164 -0.13790542
-0.10263196 0.1997063 0.1901455 0.01801499 -0.2556135 -0.17310548 0.029568104 0.026314467
0.15453689 0.34539002 0.10497355 -0.09529757 0.017438218 0.029684639 0.044816665 -0.013111493
-0.122651085 -0.06753895 0.19921523 0.3129618 0.021748222 0.100419104 0.035977997 -0.14205195
0.00468951 -0.033463895 0.14095198 -0.02969982 -0.04677825 0.03160607 -0.089412875 -0.019496463
-0.22484057 -0.04664813 -0.34194866 -0.2797833 -0.117403366 0.08255097 0.13969965 0.052791424
0.093719386 0.11094815 -0.3727721 -0.17222722 -0.0767435 0.049080834 0.10152886 0.06650812
0.092993036 -0.036403637 0.062143125 0.14784254 0.07939663 -0.09105748 -0.05332181 0.074162446
0.14022477 -0.08182027 -0.019305449 0.010722298 0.10416421 0.031312853 -0.12640163 -0.1670765
-0.017458145 0.23802333 0.08831513 -0.055407364 0.079081364 0.26225182 0.008475755 0.19492146
-0.14382358 -0.103737734 -0.05783228 0.0022750667 0.04113174 0.22473426 -0.035867985 -0.18520696
-0.052321926 0.06060903 -0.14742737 -0.20818083 -0.0542484 0.25001466 0.039620195 -0.29488635
0.28235424 0.38276795 0.0062693087 -0.30742103 0.14868847 0.1722736 0.117866375 0.025286796
-0.03486049 -0.045184087 0.23194854 0.07421657 -0.035371892 -0.32481033 0.042850662 -0.038758304
-0.04383155 -0.024453914 -0.0338554 0.11508182 -0.09445374 0.012280927 -0.1403992 0.49787086
0.047790956 -0.34666404 -0.17587225 -0.13207555 -0.35685498 0.13561697 -0.04012407 0.09888572
0.045784757 0.0018117239 -0.18239482 0.20844011 0.19993073 -0.069870085 -0.1387749 0.32793242
-0.07447944 0.23585159 -0.1621935 0.08830587 0.07581999 -0.11539681 0.082136385 -0.3048853
0.09919351 -0.30427185 -0.044279166 0.08459828 0.013315505 0.012346314 -0.06993289 0.14977776
0.067532696 -0.13639487 0.20757157 0.077483125 0.06191618 0.18435314 0.19603297 -0.115120076
-0.013490398 -0.041262012 0.36317378 0.1321356 -0.19151093 -0.19221245 -0.11798293 0.06724326
-0.03829289 -0.0070110755 -0.07120369 -0.03848194 -0.06688923 0.0011974324 0.11328124 -0.09369258
-0.24625264 -0.19409667 -0.2459041 0.08348673 -0.07361361 0.11440623 -0.27616322 0.0962224
0.09856779 -0.041320283 0.21266873 0.07982111 0.019354433 0.15543766 0.023875888 -0.038870096
0.044949383 -0.15121526 -0.07924573 -0.013170353 -0.0112701785 -0.053256087 0.24538234 0.100826904
0.018364232 -0.032384098 0.07150656 0.15281428 0.010960325 0.034292243 -0.19884025 -0.12999067
0.07154866 0.03572473 0.10154361 -0.20873159 0.1605122 0.11307118 0.14245774 -0.043812197
-0.062394258 -0.069327116 -0.022994477 0.036982004 -0.29115754 -0.053526323 -0.014129571 -0.0052451915
-0.024528466 -0.19781666 -0.23540962 0.12269502 0.16147105 0.015206328 0.14663728 -0.064529076

net.2.bias f4 [64]
00000000: 129a 41bb 0836 df38 5b25 18bb baa6 29b9
00000010: 6b45 5a3b d2c8 25ba ce0a b5ba c29b 873b
00000020: 2dd1 6c3a 7a31 37ba 841d 48b9 d459 9fba
00000030: a8dd c03a 3fb2 843b 2568 3e3b 5250 a63a
00000040: 6c9f 923b 9037 9cbb df0a 803b 4c36 86bb
00000050: b6ea d6ba 0905 87bb c72f f9ba 7291 a738
00000060: faf7 56bb 98db 8c3a a04f 10bb e65b 6dbb
00000070: 9a18 483a afc0 e2ba c90d caba 5f40 52bb
00000080: d19a 89bb adee 273b d389 313b 5113 57bb
00000090: 0af7 ae3b 4388 393b 94fe f3b9 c7d1 833b
000000a0: e1e6 253b a483 9ebb 97bd 81b9 3f3f 863b
000000b0: cf93 833b 861d a9bb b766 f73a 0491 5b3b
000000c0: fd35 283b b049 873b e458 79bb 8c5d 79bb
000000d0: fe64 37bb b048 99ba 91cd 5c3b 8064 e03a
000000e0: 9479 8c3a 8f18 74bb a94d 1539 6db4 17bb
000000f0: 70fa 5ebb 3177 873b 32b0 3a3b 8065 4d3b
-0.0029541296 0.00010643533 -0.0023215625 -0.00016179206 0.0033305536 -0.0006324175 -0.0013812424 0.004138441
0.0009033855 -0.00069882686 -0.00019084482 -0.0012157508 0.0014714496 0.004049569 0.0029053774 0.0012688732
0.004474571 -0.0047673658 0.003907546 -0.004095828 -0.0016396854 -0.0041204733 -0.0019011431 7.990272e-05
-0.0032801614 0.0010746596 -0.0022020116 -0.0036218106 0.00076330604 -0.0017299856 -0.0015415485 -0.0032081825
-0.0041993638 0.002562444 0.0027090206 -0.003281791 0.005339508 0.0028309978 -0.00046538247 0.00402281
0.0025314617 -0.00483747 -0.00024746053 0.004096895 0.004015423 -0.00516099 0.0018875216 0.0033503184
0.0025666945 0.0041286573 -0.0038047368 -0.0038050143 -0.002798378 -0.0011694636 0.0033691863 0.0017119795
0.0010717385 -0.0037246083 0.00014238678 -0.0023148314 -0.0034023784 0.004134082 0.0028486368 0.0031341016

net.4.weight f4 [64, 64]
00000000: ac1f cebd f80f 08bb bcdb abbe 246e 7bbe
00000010: ec5c 153e eee0 05bd 4d7e d3bd 3ecf 563e
00000020: 46d7 68be 5803 8b3e 2b4c fe3d c76f 903d
00000030: 17f0 b5be 17f6 bb3c e25b 9c3d 9b42 fb3d
00000040: c1c6 77be 994b 03be 4c85 4b3e 1331 d2bc
00000050: 37de fc3d 36cf cb3d 8855 d8bd 8f09 883e
00000060: c3f7 85be 828b 58be 5160 88bd 1e7c 89be
00000070: 7477 d93d 395d 4c3e 80b3 963e 03aa cebc
00000080: 4c8f 6b3e bf8e a1be 9260 37be 339f bfbd
00000090: 1e62 9c3e 967e f63b 4b0c f93d 9e72 88be
000000a0: 49a7 edbe 3dca 8abd 3f2d 3dbd 0d6f 663c
000000b0: 01b9 69be 15d5 ecbe 7aaa 303d 4427 b33d
000000c0: 0982 a33e 621a 0abd 6aa9 66bc c3fe 9cbd
000000d0: 7cbe c1be 6b5f 05bf 3246 97be d3b8 f8bd
000000e0: a444 543e 464b 933d c3cf 5cbe d68a 543d
000000f0: e6ff 033e cf89 af3d b8d9 263e 2a3c 1bbe
00000100: c6e8 ad3e 273a 8f3e f329 813e d354 9a3e
00000110: 2a17 a6bd 2fb0 0abb be2b 963b 13b6 2f3e
00000120: b161 50be 3200 a33d 70b1 ec3d b630 7d3e
00000130: 36a0 c53d a4c6 5b3e 9dde 813e 8271 a33e
00000140: b718 e03e 2e72 32bd 9c5f da3d 4a07 b0be
00000150: d331 933e 4a74 98be ef94 4c3d 6a4e ca3e
00000160: d998 a13e d460 823e d979 ddbd ea6d 88bc
00000170: 9c1d 20be 137f 71be 5830 a33e acc0 14bd
00000180: 4a9b ae3d 7a7f 49be 5b04 afbe 45f5 8f3e
00000190: da35 9dbd 64ec 5ebe 2026 2a3e 19c6 203e
000001a0: 8ce6 f13d 3bcd 98bd 10d3 e7bb 4b86 a1be
000001b0: ecd8 35be a33f 183e 3f2d a73d 5a4b fe3d
000001c0: 890a 823e ef37 9e3c 97d2 98bd 0b0c 0dbd
000001d0: db20 c53d 2a25 b83b 4cc8 b1bd 7d28 24be
000001e0: c08a c5bd b2d4 9fbd 970b 80be f465 29be
000001f0: 5651 d0bd 1991 8a3e c596 b6be 5037 7cbe
00000200: 57f6 42bd 7eae 16be 126e 233e f3a7 5a3e
00000210: 1657 bfbd e9e2 bfbd a01a 9fbe 51ff 76be
00000220: 99f3 f2bd 1074 b43e 3a77 51be 4a35 863e
00000230: 50c7 453e 34ff cebc 8cef 0fbf 1024 e83c
00000240: 4965 f33d 89e1 113c 18af 863d f293 c83e
00000250: 8e1a 2b3e 4bb5 c33e 240e ebbd 6e1b 8f3e
00000260: fa03 d83e a1c9 88bd 25a0 d63d 0280 c4bd
00000270: d3ae 79be 01cd 1ebe b022 fa3c 0c8d bb3d
00000280: 8137 d8bd b035 c3bd f375 c5bb 172e 783c
00000290: 20dc 6cbe f8d3 60be b661 5b3e 668e f8bc
000002a0: 020e c83d e154 103d 5a4f 2d3e b65a 933e
000002b0: 2d35 b1bc d343 c7be 9f60 2cbe 806f 16be
000002c0: 5e80 8a3e 69fb 4b3e aca6 8b3a 95e3 e03e
000002d0: 7e00 43be afd0 1b3d 170c 803c 9017 f8bd
000002e0: 6066 c5bd b363 b23e b6a7 713e 6268 7d3e
000002f0: 3511 30bd 8237 7abe 4cba 4ebd 4e77 e2bd
00000300: 5eb5 ecbc 8725 213e 277d 77bc 59bc 1b3e
00000310: 0054 e13c bd24 ee3d 8a8e 663c 5b31 2e3e
00000320: 4913 dd3d b257 7fbc 0268 bcbd fc70 9f3e
00000330: 032f 9bbd 518f d03d faba 9c3e fd15 16be
00000340: 5709 e2bc 7dfd 5abe 853c 65be c8b1 bf3e
00000350: dd1d 7bbd 51b4 8cbd ebba 6bbc 6fc4 17be
00000360: 2229 b9be 206c 66bd 7c4e afbe 7b4b a0be
00000370: caf2 bebe 05eb 183c 771d c43e fee8 5fbe
00000380: cf2d 863e 07a1 923e 78be 713e 21f5 133f
00000390: a5c4 803e b0cd 93be b52f 083e fe3c 3abe
000003a0: 6b4e 913d 4701 03be dca3 9dbc 5ed1 dc3e
000003b0: d7dd 783e 51dd 233d d20d 57be d6c3 b6be
000003c0: 8775 8b3d 4970 143c f661 ea3c 459a 2f3d
000003d0: 2846 2f3e 27fd 473d d09f 903e a70e 92bd
000003e0: 2c43 7bbd c2c0 54be 3bb4 a9bd b08a e8bb
000003f0: 4b7a 823e 9bcb 52be e480 85bd 8a19 44be
-0.10064635 -0.0020761471 -0.33566082 -0.24553734 0.14586228 -0.032685213 -0.10326824 0.20977494
-0.2273837 0.2715099 0.12416872 0.0705257 -0.35534737 0.022944493 0.07634713 0.12268563
-0.24196912 -0.12821807 0.19875067 -0.025658166 0.123470716 0.09951632 -0.10563189 0.26569793
-0.2616559 -0.21146968 -0.06658996 -0.26852506 0.10618487 0.19957437 0.29433823 -0.025227552
0.23003882 -0.3155422 -0.17907932 -0.09356537 0.30543607 0.0075224144 0.12160548 -0.26649946
-0.4641669 -0.06776855 -0.04618573 0.0140645625 -0.2282448 -0.4625632 0.04313133 0.08747724
0.31935146 -0.033716567 -0.014078477 -0.076657794 -0.3784064 -0.5209872 -0.29545742 -0.121446274
0.2072931 0.07192092 -0.2156363 0.051890217 0.12890586 0.08571207 0.1629399 -0.1515967
0.33966655 0.27974054 0.25227317 0.3014284 -0.08109887 -0.0021162143 0.004582851 0.171593
-0.20349766 0.07959022 0.11557281 0.24725613 0.096496984 0.21462494 0.25365153 0.31922537
0.43768856 -0.04356592 0.10662767 -0.3438056 0.2874895 -0.29776222 0.04994672 0.3951295
0.31561926 0.254645 -0.10814256 -0.016653974 -0.15636295 -0.23583631 0.3187282 -0.03631656
0.08525713 -0.19677535 -0.3418301 0.28116813 -0.07676287 -0.21769863 0.16616106 0.15700568
0.118115515 -0.074610196 -0.007074721 -0.3154777 -0.1775853 0.14868025 0.08162927 0.12416716
0.25398663 0.01931378 -0.07462042 -0.034435313 0.09625407 0.0056196647 -0.08680782 -0.1603107
-0.09645605 -0.0780424 -0.25008842 -0.16542798 -0.101717636 0.27063826 -0.35661903 -0.24630475
-0.04759821 -0.14715001 0.15959957 0.2135313 -0.09342782 -0.093694516 -0.31075 -0.24120833
-0.11862869 0.352448 -0.20455638 0.2621253 0.19314313 -0.025268175 -0.56224895 0.028337508
0.11884553 0.008903869 0.06576365 0.39175373 0.16709349 0.38224253 -0.114773065 0.27950615
0.42190534 -0.06679083 0.10479764 -0.09594728 -0.24383096 -0.1550789 0.030534118 0.09157762
-0.105574615 -0.095317245 -0.0060260235 0.015147707 -0.23130846 -0.2195586 0.21423993 -0.030341338
0.09768297 0.035237197 0.16924801 0.28780144 -0.021631802 -0.38918933 -0.16833733 -0.14690971
0.2705106 0.19920124 0.001065453 0.4392363 -0.19043157 0.038040813 0.015630765 -0.12113869
-0.09638667 0.3484169 0.23599133 0.2474685 -0.04298516 -0.24435237 -0.050470635 -0.11057912
-0.028895076 0.15736972 -0.015105522 0.15208568 0.027505875 0.11628101 0.01407207 0.17011015
0.10794694 -0.015584873 -0.091995254 0.31140888 -0.07577326 0.101835854 0.30611402 -0.14656825
-0.027592344 -0.2138576 -0.22386368 0.37440324 -0.061307777 -0.0687033 -0.014387826 -0.14821027
-0.36164194 -0.05625546 -0.34239566 -0.31307587 -0.37294608 0.009333377 0.3830373 -0.21866223
0.26206824 0.2863848 0.23607814 0.5779591 0.25150028 -0.28867865 0.13299449 -0.18187329
0.07095035 -0.12793456 -0.019243173 0.43128484 0.24303375 0.040005986 -0.21001366 -0.35696286
0.06809526 0.009059974 0.028611165 0.042871732 0.17116606 0.04882541 0.28246927 -0.07131701
-0.061343357 -0.20776656 -0.08286329 -0.007096611 0.25483927 -0.20585482 -0.065187246 -0.19150367

net.4.bias f4 [64]
00000000: 03dc 0c3b 096b 203a fc57 50bb 22e6 783b
00000010: 2d08 68ba e609 17bb f0db 0f3b 67d6 403b
00000020: a028 82b6 8c6f 48bb 191f 323b 30df 013a
00000030: 6aa4 443b 52de e3ba 28aa 36bb 8e4f 593b
00000040: 2440 63bb 8cc5 1b3a fcd4 1e3b 3060 99b5
00000050: c9dc 333b 9d69 9e39 7d31 3abb 4318 32bb
00000060: 990e 90bb 574c 53bb cb57 12bb 5dad 323b
00000070: ed2f bcba ce41 173b d221 a53a 9650 6c3b
00000080: d283 41bb 4490 c03a 1785 2fbb 7284 c23a
00000090: b316 5e3b ecff 3e3b b2f4 0ab9 419b 3f3b
000000a0: ee71 333a 76f4 51bb 2ff1 4b3b ca51 253b
000000b0: 0ab0 4a39 fdbe 603b 81c6 2dbb 963e 29bb
000000c0: ca07 4bba 51a6 203b 8ffd 123b d071 2bba
000000d0: 19de 553a b821 783b c6f2 463b 7bda 823b
000000e0: ed5c 173b abb7 55bb fa86 6f3b 70a7 efba
000000f0: 2143 7abb 9ad3 e53a 2f67 86ba 2881 41bb
0.0021493442 0.0006119465 -0.0031790724 0.0037978967 -0.0008851316 -0.0023046671 0.0021951161 0.0029424669
-3.8790313e-06 -0.0030584065 0.002717918 0.0004954217 0.0030005225 -0.0017384982 -0.0027872417 0.003315899
-0.0034675682 0.00059422175 0.0024235835 -1.1427383e-06 0.002744483 0.00030214796 -0.0028410845 -0.0027175106
-0.0043962714 -0.0032241547 -0.002233016 0.0027263977 -0.0014357545 0.0023079994 0.001259858 0.0036058775
-0.0029528034 0.0014691432 -0.0026782209 0.0014840497 0.0033888042 0.002914424 -0.00013251862 0.0029236826
0.0006845285 -0.003203658 0.0031119098 0.0025225752 0.00019329801 0.0034293525 -0.0026516023 -0.0025824658
-0.0007744996 0.0024513195 0.0022428965 -0.00065400917 0.00081584003 0.0037861895 0.0030357107 0.00399333
0.002309616 -0.0032610695 0.0036548958 -0.0018284153 -0.0038186985 0.0017534376 -0.001025414 -0.0029526446

action_head.0.weight f4 [3, 64]
00000000: a7a5 0cbf 0f87 6e3d 69aa a63e c9c6 36bc
00000010: af4f ee3d 0d57 3b3e 3c61 1cbd 3bd6 dbbd
00000020: fc46 653e ffc3 ce3d abad fcbd e074 12bd
00000030: 3d81 5bbe a95a 1abe f48d fb3d 5a4c 1bbe
00000040: cd07 243e 6942 70bd 0116 c43d a662 82bd
00000050: 5bf2 08be 9128 623d 716c 193f 7628 293e
00000060: e03b 1f3e eb33 b03e b005 143e 20c3 0d3c
00000070: 62f7 d43e a8e5 b3bd 44b3 20be a1e9 48be
00000080: 2c52 273e 874e 71be 8b2d 753d 00de c0bd
00000090: 8d6a 0fbe 2bb5 49bd 8037 ee3d ae8e 4abe
000000a0: 2798 423e b488 763d fd77 e63d a55c 313c
000000b0: 523a 163f dcc7 69be 7e8b 64bd ea51 bbbd
000000c0: 3ea9 a4bd d648 8cbd a3c0 1abc 0b4b 283e
000000d0: a7e8 d9be dc28 a7be 56f6 47be 38f0 9cbe
000000e0: 6800 f7bd 0ba1 833d 68c0 f3bc 4722 5b3e
000000f0: 77de 6d3e 411c 0b3e 280e a8bb 704a 353e
00000100: 2ce9 96be 8658 39be 1235 fabb a8f6 d3be
00000110: e9ce cf3d 2f7e aa3b b124 c53e 0e68 ce3c
00000120: c625 2cbe bdea a0be af67 7dbd 1226 2a3e
00000130: e407 2b3c da96 af3c d251 c73d 1eec 9b3d
00000140: 8b30 6abe 80d0 693d ad8b 303e 7097 d63e
00000150: 36fa 1abe 0000 fa3e 3462 e13d 1f08 75be
00000160: f24d 43be 5ce6 d4bc 57fc 083e 11b3 553e
00000170: 8a6e c5be 2afa ce3d 9d08 5e3d c2ee c3bd
00000180: 4d14 23bd b192 d0bc 7a67 bfbd 175c 15bc
00000190: 6f97 a83c d2e3 823d 54d5 91be 5a65 f53d
000001a0: f1b7 443e dba9 6bbe 29fa 003f 432c 013e
000001b0: 1723 433e b158 ae3e b4db 18be 8c34 6f3e
000001c0: e0c2 a2be 2d28 12be 492b a73d adbd 633e
000001d0: a9bc b53d a935 0bbe f1b9 c2bc ab31 903e
000001e0: f686 813e 80fa 4dbe 117f 813e efeb 943e
000001f0: 5eae 83bc f159 043e 56a2 12be 5336 fd3d
00000200: dc22 78bd 2097 543e 6eab 92be a503 913e
00000210: 39cd c53b c9d1 973d 217a 5d3e 7ad7 573e
00000220: bcbb 853e 3862 2b3e e882 b8bd 01a1 d9bd
00000230: 6e3d c53e 78a6 1cbe 4ce9 f03d 5c73 953d
00000240: aa39 17be 5c5c d0bc f7bf 5c3e b8c0 0dbe
00000250: 9113 953e dad0 2cbe 8da2 483d 706b 863d
00000260: d6c0 ac3c 0557 46bd 4c23 c2bd 611b 273e
00000270: 4922 30bd 96c3 cf3e ed5a 8abe 7eef 193d
00000280: 4f95 8abe 56fd f5bd c82c 9dbe 3c2a 2dbe
00000290: 7392 253e c6a4 0e3e b247 663e fe04 a53e
000002a0: be28 753e 344d 05be 6edd 713c bf73 3d3e
000002b0: c29c c13e 9e42 42bb 371a 7fbe 24f4 21be
000002c0: 5960 4cbe e6d2 3a3e a582 a73e 078f 053e
000002d0: b307 13be 2867 ca3d 6bd1 1b3e 70d3 283e
000002e0: e583 c53d a8a0 c8be c637 9abe 9198 04bf
000002f0: fddd 1cbc 31b6 583e 53aa 693e bee5 0a3e
-0.54940265 0.05823427 0.32551888 -0.0111557925 0.11636292 0.18294926 -0.038178667 -0.107342206
0.2239036 0.10095977 -0.12337812 -0.035755992 -0.21436019 -0.15073647 0.12282935 -0.15165845
0.16018601 -0.058657084 0.095745094 -0.06366472 -0.13373701 0.05521447 0.59931093 0.16519341
0.15550184 0.3441461 0.14455295 0.008652478 0.41594988 -0.08784038 -0.15693384 -0.19620372
0.1633994 -0.23565112 0.059857886 -0.09417343 -0.1400549 -0.04924504 0.116316795 -0.1978099
0.19003354 0.060188964 0.11253355 0.010825311 0.5868274 -0.22830147 -0.055797093 -0.09146483
-0.08040093 -0.0684983 -0.009445342 0.16434877 -0.42560312 -0.3264836 -0.19527563 -0.30652022
-0.12060624 0.06427201 -0.029754832 0.21399795 0.23229395 0.13584997 -0.0051286407 0.17704177
-0.2947477 -0.18100175 -0.007635721 -0.4139912 0.10146887 0.0052030305 0.38504556 0.025196102
-0.16811284 -0.3142909 -0.06186646 0.16616085 0.010438893 0.021434236 0.09732403 0.07613395
-0.2287008 0.057083607 0.17240782 0.41912413 -0.1513451 0.48828125 0.11005059 -0.23928879
-0.19072703 -0.02598875 0.1337751 0.2086909 -0.38560897 0.10106309 0.054207433 -0.09567024
-0.039814282 -0.025460573 -0.093459085 -0.009116194 0.020580022 0.063911095 -0.2848307 0.11982222
0.19210793 -0.23014013 0.50381714 0.12614541 0.19056354 0.3405204 -0.1492756 0.23359889
-0.31789303 -0.14273138 0.08162553 0.22240324 0.08873875 -0.13594688 -0.023770304 0.28162894
0.2529828 -0.2011509 0.25292256 0.29086253 -0.016074356 0.12924935 -0.14319739 0.12363877
-0.06058012 0.20760775 -0.28646415 0.28323093 0.0060364273 0.0741306 0.2162862 0.21078292
0.26119792 0.16736686 -0.090093434 -0.10626412 0.3852343 -0.15297878 0.11763248 0.07297394
-0.14768091 -0.025434665 0.21557604 -0.13843048 0.2911649 -0.16876546 0.048983146 0.06563461
0.021088045 -0.048422832 -0.094793886 0.16319038 -0.043001447 0.40578908 -0.27022496 0.037581913
-0.27067038 -0.120112106 -0.30698228 -0.16910642 0.16169147 0.13930044 0.22488287 0.3223037
0.23941323 -0.13017732 0.014762266 0.18501185 0.3781491 -0.0029641758 -0.24912344 -0.15815789
-0.19958629 0.18244514 0.3271686 0.13042842 -0.14358406 0.09882957 0.15216605 0.16486907
0.096442975 -0.3918507 -0.30120677 -0.517953 -0.0095744105 0.2116325 0.2281888 0.13564202

action_head.0.bias f4 [3]
00000000: 6df6 42bb fa8b 4c3a 5876 0d3b
-0.0029748932 0.00078028406 0.002158543

value_head.weight f4 [1, 64]
00000000: f53e 30be 5671 bbbc f163 c43d 5bae e93d
00000010: 14ab bfbd d1d2 1abe f860 b53e 275e 083e
00000020: 3e1a 823d 39a3 c9be 2ff1 03be 98a4 9c3e
00000030: a314 38be 312e 273e a552 eabd 8911 0bbe
00000040: 09ef abbe 84e3 e0be 1e26 463d 8d95 5a3c
00000050: 3b10 17be 16d4 45be 95ea 73bd 574e 3f3e
00000060: f676 40bd 4b06 c2bd c925 c1bd ea9a 4bbd
00000070: 615c ba3d 6523 023e 6d96 763d 46fb 34bd
00000080: d959 febd 4401 0ebf b0bb c03e 06cd ea3e
00000090: 0285 533d 404a 013e 94f8 663e 91f3 4c3e
000000a0: c45f 2fbe bd4f c33d 9510 9dbd b36e b4be
000000b0: 0054 593e 3b62 103c fe01 da3e b3b7 16be
000000c0: 9409 b0be 52d0 dabd e4a5 473e a79a 53be
000000d0: 38de 7c3d 8123 47be 5b35 fcbd 3642 3fbd
000000e0: 8304 61bd 4d44 7f3d b4cd 9ebe 970e 003e
000000f0: 4b4f 58be 6428 893e eb45 033e 2f90 cfbd
-0.17211516 -0.022881191 0.09589375 0.11410209 -0.093588024 -0.15119483 0.35425544 0.13317166
0.063526616 -0.39382342 -0.12884973 0.30594325 -0.17976622 0.16326214 -0.114415444 -0.13580908
-0.33580807 -0.4392358 0.048376195 0.01334132 -0.14752285 -0.19319186 -0.059549887 0.18682228
-0.04698845 -0.094738565 -0.09431035 -0.049708284 0.09099651 0.12708814 0.06020205 -0.044184946
-0.12419481 -0.5547068 0.37643194 0.45859545 0.051640518 0.1262598 0.22555763 0.20014788
-0.17126375 0.09536693 -0.076691784 -0.35240707 0.2122345 0.0088124825 0.42579645 -0.14718513
-0.34382308 -0.10684265 0.19496876 -0.20664464 0.06173536 -0.19447137 -0.12314864 -0.046694003
-0.054935943 0.062320996 -0.31016314 0.12505566 -0.21123998 0.26788628 0.1281964 -0.10134923

net.0.weight f4 [64, 3]
00000000: 8336 35be c676 5cbe 81e3 0e3e 8f52 edbd
00000010: 9839 4b3e ecf4 ce3d 0605 5f3d 744a bcbd
00000020: 0811 a93d e864 a9bd 8586 eabe e6a0 ad3c
00000030: 2c75 1e3e 60e2 59be 18dc bcbd bbb0 34bd
00000040: 6f69 c03d c1a4 08bd 893b 5c3d 8e09 a93d
00000050: 79eb f23c 516b 8b3e 426e 653e ed87 10bf
00000060: 6228 82be 2836 63be 0578 143e ed0a 5abe
00000070: bd1d 6fbd 6d85 883c d041 843d 92f0 323e
00000080: f93c e9bd 8493 423e a984 d4bd 82a0 11bf
00000090: a945 223c 9320 863e 4ba6 703e 86f5 8abe
000000a0: 385e a6bd f796 153e 26b4 6b3d 0185 45be
000000b0: 6fe5 4cbe 78d0 7b3e dcb0 16bd 83f6 a03d
000000c0: 28a6 92bc de15 ad3d e082 9abb 7353 d23e
000000d0: 8a97 093e 9ae8 313e 7538 1cbe 0bf2 df3d
000000e0: d49e 3bbd 3532 10be b524 663e cd06 93be
000000f0: a840 053c 1a3f ea3d 6f08 cc3d 627c 84be
00000100: 7988 e7be cc8d 15be 5e0f 8d3e 80ff 08bf
00000110: 0c06 eabd 5d29 b33e cfd1 10be fed8 7a3d
00000120: 1955 ad3e 1544 3d3e 8046 b5bd a71b 4bbe
00000130: 70fc 863d 3e99 d5bd 822e 8fbe d7b7 33be
00000140: 8aba 4a3d ee02 22be 8584 303c 78b3 ae3c
00000150: 0b37 3c3d 5c45 3ebe a90c ab3d 10b8 94be
00000160: 7b22 adbd c307 adbe 3030 83bd 76ab b3bd
00000170: 6436 333e d78f 61be 2be8 273e e882 343d
00000180: edac 0ebd 3d67 4abd 1b23 473e 715f b63d
00000190: 6063 6a3e ce54 4d3e fbbe 193e ac2d f13c
000001a0: b66e 9d3e d4c1 c83d 38f5 9ebe 1934 b43e
000001b0: 5f3a c8bb 0b0c 7bbe 7b73 e0be 7582 87bd
000001c0: db94 693e d5f1 6fbe 2760 95bd e8f9 06bd
000001d0: 5abc 953e 5ef1 0a3f 93f4 23bd e7c9 ae3e
000001e0: 1079 c33e 5466 c33e f6ff b43d efa7 b2be
000001f0: 18b2 053e c640 15bd 61bf b2bc d15a b23d
00000200: fa5a 3a3e 2ac6 913d 9192 9cbe b301 98be
00000210: 8bfc 00be 1083 583e 1327 85bd 12a0 8b3e
00000220: d6b6 bf3d ebfd a6bd 197f 393e cba8 8fbc
00000230: d817 a03c 2669 c8bd 6997 0bbe 79a0 b23e
00000240: 3762 7f3e ce4c 843e 083b 143e 5f6c 503e
00000250: 2f1a 863e fc28 90be 2633 0ebe 3ad0 82be
00000260: 083e 833e ff6c b33e 5fe2 ebbd 009f 273d
00000270: da35 8d3d 017c fabd 1739 e03d dd8e a33e
00000280: f135 99be 0a5a 2ebd 99aa 453d 36b8 36bc
00000290: f39c d23d 5249 dfbd e503 85bd 7acf 07be
000002a0: 3cad 30bc e7d3 103d 4da1 7cbe 00c6 893d
000002b0: 580f 79bc 6de9 873e 9b17 0b3e d4b6 d6be
000002c0: bb47 a9be dbff 0bbd 7b56 49bd 00a5 f23d
000002d0: e09c a03d 3629 b53b 0dd4 633e ef66 303e
000002e0: 77ab 8bbe 05ed b63c bae3 babe e155 c23e
000002f0: dcbb c7bd bb31 c4be db0d 91bd 0c29 593e
-0.17696576 -0.21529683 0.13953973 -0.115880124 0.19846189 0.10105309 0.05444815 -0.09193888
0.082552016 -0.082711995 -0.45805755 0.021194886 0.15474385 -0.21277761 -0.09221667 -0.044113856
0.0939511 -0.033360247 0.053767715 0.082537755 0.029653298 0.27230313 0.22405341 -0.56457406
-0.25421435 -0.22188628 0.14498909 -0.2129323 -0.05837797 0.016665185 0.06457865 0.17474583
-0.11388583 0.19001585 -0.103768654 -0.5688554 0.009904304 0.26196727 0.23500936 -0.27140445
-0.081234396 0.1460837 0.05754485 -0.19289018 -0.20009397 0.24591243 -0.03678976 0.078595184
-0.017901495 0.084514365 -0.0047153085 0.41079292 0.13436714 0.17373887 -0.15255912 0.10934838
-0.045805767 -0.14081652 0.2247494 -0.28716126 0.008133091 0.11437817 0.09962546 -0.25876147
-0.45221308 -0.14604872 0.27550787 -0.5351486 -0.114269346 0.34992495 -0.14142536 0.061242096
0.33853987 0.18483002 -0.088513374 -0.19834767 0.065911174 -0.10429619 -0.2796517 -0.17550598
0.049494304 -0.1582143 0.010773783 0.021325812 0.04595093 -0.18581146 0.08352024 -0.2904668
-0.08453842 -0.33794984 -0.064056754 -0.08772938 0.17501217 -0.22027527 0.16397159 0.044070154
-0.034832884 -0.049414862 0.19446985 0.08904923 0.22889471 0.20051882 0.1501426 0.029440723
0.30748528 0.09802595 -0.31046462 0.35195997 -0.006110474 -0.24516313 -0.43838105 -0.066166796
0.2281069 -0.23432095 -0.0729373 -0.032953173 0.29245263 0.5427455 -0.040028166 0.34138414
0.381783 0.38164008 0.08837883 -0.34893748 0.13056219 -0.036438726 -0.021819772 0.08708728
0.18198767 0.07117875 -0.3058057 -0.29688796 -0.12596337 0.21143746 -0.065015934 0.2727056
0.09361045 -0.081539 0.1811489 -0.017536541 0.01954262 -0.097856805 -0.13631977 0.34888056
0.2493981 0.25839847 0.14475644 0.2035384 0.26191851 -0.2815627 -0.13886699 -0.2554949
0.25633264 0.35044095 -0.11517786 0.04092312 0.06895037 -0.12230683 0.10948389 0.31944934
-0.29923967 -0.042566337 0.048258398 -0.011152318 0.10283842 -0.109026566 -0.064948834 -0.1326274
-0.01078349 0.035358336 -0.24670906 0.06727219 -0.015201412 0.26545277 0.13583224 -0.41936362
-0.33062539 -0.03417955 -0.04915474 0.118478775 0.078424215 0.0055285944 0.2224886 0.17226766
-0.27279255 0.022329817 -0.36501867 0.37956145 -0.09752628 -0.3831919 -0.07082721 0.21207064

net.0.bias f4 [64]
00000000: 5a47 e9bb 443a f13b 4103 f73b 04bf 03bc
00000010: 3a17 463a cd4a 1d3b 8ae1 b93b 91a7 f1bb
00000020: 4b8f 563b d732 f1bb e67a ea3b 5c78 d13b
00000030: edc7 2dba dade fb3b d109 f2bb 3b71 97bb
00000040: e194 dd3a 9663 b43b e692 e9bb e07f 02bc
00000050: 38cf ebbb c8a0 cabb 5db8 053c 93d1 01bc
00000060: 4df3 513b 506c e63b 896e 033c 3bfd 0b3c
00000070: 22af 013c 1664 bbbb 7293 f93b d3e2 f63b
00000080: 5b26 0c3c 6e3b e03b 0632 03bc d325 30bb
00000090: fc41 033c 0d32 f73b 242a 0abc 872b 02bc
000000a0: b090 e83b 6667 f43b d46e 223b fdbf ffbb
000000b0: c62e 013c 9891 043c bbc6 10bc 6118 e9bb
000000c0: 508e 023c 9960 06bc 60f3 1b39 2dca fb3b
000000d0: f475 e8bb 789d 8fbb aa78 e73b 322e 043c
000000e0: 2083 03bc 6589 b0bb 6fe1 4b3b 9dab febb
000000f0: 1968 f1bb 176d 5d3b 28e3 fcbb 7278 03bc
-0.0071191015 0.007361682 0.0075382297 -0.008041147 0.00075565616 0.0024000884 0.0056726383 -0.007374712
0.0032739218 -0.007360797 0.007155764 0.006392522 -0.00066292175 0.007686478 -0.007386424 -0.0046216524
0.0016905331 0.0055050356 -0.0071281074 -0.007965058 -0.0071963333 -0.0061837174 0.008161631 -0.007923502
0.0032035888 0.007031955 0.008021959 0.008544262 0.00791529 -0.0057187183 0.007616454 0.007534364
0.0085540665 0.006843022 -0.008007532 -0.0026878014 0.008011337 0.0075438083 -0.008432899 -0.007944948
0.007097326 0.007458615 0.0024785297 -0.007804869 0.007884687 0.008091353 -0.008836444 -0.007113502
0.0079685 -0.008201742 0.00014872616 0.0076840133 -0.0070941392 -0.0043827854 0.007063945 0.008067654
-0.008026868 -0.0053874725 0.003110971 -0.0077719227 -0.0073671457 0.0033786946 -0.007717509 -0.008024322

net.2.weight f4 [32, 64]
00000000: 8afa 49be ff2a edbe 22ee eb3c ce22 2d3b
00000010: dfd8 263e cb73 f8bd 12fd 043e 6c2a cdbd
00000020: 886e df3c b3c6 1abd 7837 113e 2777 43be
00000030: be86 81bc 2350 dd3e db52 2e3e 4876 8c3e
00000040: 97b2 a5be c7be be3e 2e61 21be 8689 813e
00000050: 64b4 213e 7253 03bd 913e 853d 6451 d03d
00000060: 51db 893e b924 fb3b 43b2 473d 14c7 1e3e
00000070: f5be 413e 2a17 08be 2b41 5dbe 1e19 63bd
00000080: bd28 8cbe a1e5 ca3c 2d59 02bf 3759 87be
00000090: d7ac 863c b293 d2be 84e8 d43d 449b cabd
000000a0: 1395 1abe 186e d13d b2aa a6bd 71bd d23c
000000b0: 63b9 2e3e 08d2 ad3e a891 5e3c 63b7 233d
000000c0: c880 813e 0a90 a53e 9051 babe a26f 753e
000000d0: 8d00 99bd 80fc a93d ac64 863d 6b88 04be
000000e0: f508 a13e dd52 223c 73d7 8dbc 8f43 b1be
000000f0: 1f51 6abe 790a d03d f9f9 833e 6c0b 833d
00000100: 36a9 0d3e b18d acbe 8830 fb3c 98d2 ad3e
00000110: 97ff 93be 47f0 14bd d288 41be 1a08 fb3e
00000120: 5672 debe 1204 e53d c453 a0be ed17 323d
00000130: 4c5a af3e 5d7e 1dbe aed6 f9bd f606 1bbe
00000140: 0023 5ebd ae2e e9bd cecc 06ba 4afa 133e
00000150: fc8d 11be a9ce 2a3e f703 f43c 09bd 363e
00000160: 47ba a9be eb7b 0fbf 0ce4 7a3d bff8 19be
00000170: 2d6d 463e ad5d d6bc 1c03 e8bd aa1b 6f3e
00000180: df8e 41be c97e 15bd 74d2 2dbe cd92 893c
00000190: a7b7 d5be 4a21 88be 2d1e ba3d bee8 813d
000001a0: f4fa acbd fc89 c4bd 495d 213e 71fb 39be
000001b0: a5c8 7ebd 2fde 1d3d d600 6b3c 39b8 3a3e
000001c0: cde4 2cbe 02b6 e6bd f18c 853e 36f3 56bc
000001d0: 8aa0 debd 1dd9 6e3e e980 493e 3d75 13be
000001e0: 2b10 903e 181f 6cbe b43e 96be 22c5 50bd
000001f0: bd60 bf3d d920 42be 2835 4b3e f409 44be
00000200: 5fd2 e1bc 4bdf 56be c77c 3f3e b7ad 7abe
00000210: bdc5 16bc 5be9 bf3e bd1c 5b3e 1a3f eb3d
00000220: 1349 173e 6350 093e 1e7d 34be e0ec 1a3e
00000230: 8917 d23c b2e6 b7be 7255 b9be 6e08 383e
00000240: ba82 c53d d6d2 1bbe b9a3 703c 2189 20be
00000250: 59df 74be 2adc c63d c523 0f3e 96c9 323e
00000260: f133 46bd a761 80be 3fa2 23be eb9a 513d
00000270: 3aac c1bd ebba 0fbe 3078 18be 77a4 9c3d
00000280: 4a45 b43e e57a 12be 602a 9b3d 5f77 b7be
00000290: 08ed 963c d8d7 6e3d 5133 993e 2534 303e
000002a0: d34d 9ebe 1f27 e4bd 743f 80be d99e a63d
000002b0: ea4c 0f3d 4302 063d f1a1 163e a782 8c3e
000002c0: 6cf6 d5be dd6c c93d 0a71 91be f671 923e
000002d0: f8bf 6a3d a7b0 b0be 4283 6ebe 3551 3dbe
000002e0: f97c d53d 1996 513d 6e88 d73e 6e32 55be
000002f0: 9a3d e33d eda6 d13d 8c49 013e 452f ee3e
00000300: ffc9 3fbe 65f9 0cbd 4a53 7f3e 7dce 91be
00000310: 10f1 90bc aba4 383d 5b4a 80be 271b 91be
00000320: a751 813e dce5 f0bc c82d b13c 2508 a1bd
00000330: 743c 5dbe 42d2 2fbe a6c3 803e 9265 0ebe
00000340: 32fa a4be f425 cd3e f737 633e f77a 0cbe
00000350: f190 95be 3363 be3e d493 80bd bd37 8e3e
00000360: 6c18 a3bd 5e18 c1bd 1352 1e3e 5659 86be
00000370: c52f 0fbd 214c ab3e cbf0 f93d 881e c23e
00000380: 61d0 9c3d 42cb eebd 4d1c d6bd 8341 9ebd
00000390: 397a 4bbe fdf7 b03d be02 133e 449b 18be
000003a0: ca07 04be 9c7f 55bd 2c8f 623e 3aba 303e
000003b0: 9b4e 19be f447 60be 3a4d 95bd 55f0 bd3d
000003c0: ccf0 273e c9ad 88be d4fa 0cbf 4e61 6dbe
000003d0: 6d60 b8be 260c bcbd 2fce ea3d 609c 2c3d
000003e0: 75f9 8f3d cdc4 3bbe dfa8 abbe d753 5abd
000003f0: 760b 223e b4e9 e03d c09f 7fbe cc48 a33d
-0.1972448 -0.46321866 0.028800074 0.002641845 0.16293667 -0.12131461 0.12987164 -0.10017857
0.027274385 -0.03778715 0.14181316 -0.19088422 -0.01581132 0.43225202 0.17023794 0.2743399
-0.32362816 0.37254927 -0.15759727 0.25300235 0.1579147 -0.032062 0.06506074 0.10171774
0.26925138 0.00766429 0.048753988 0.1550563 0.189205 -0.13290086 -0.21606891 -0.055443875
-0.2737483 0.024767699 -0.5091732 -0.26435253 0.016439838 -0.41128308 0.10395911 -0.09892896
-0.1509593 0.10226077 -0.08138026 0.025725098 0.17062907 0.33949304 0.013584532 0.039969813
0.25293565 0.32336456 -0.36390352 0.23968366 -0.07470808 0.08300114 0.065621704 -0.12942664
0.31452146 0.009907451 -0.017314648 -0.34621856 -0.22882508 0.101582475 0.25776652 0.06398663
0.1383408 -0.33701852 0.03066279 0.33949733 -0.28905937 -0.03636196 -0.18899849 0.49029619
-0.43446606 0.11182417 -0.31313908 0.04347985 0.3424858 -0.15380235 -0.1219915 -0.15139374
-0.054232597 -0.113858566 -0.00051422126 0.14450946 -0.14214319 0.16680397 0.029787047 0.17845549
-0.3314993 -0.5604846 0.06125264 -0.15036295 0.19377585 -0.026167715 -0.11328718 0.23350397
-0.18902157 -0.036497865 -0.16974813 0.016793633 -0.41741678 -0.26587898 0.09087787 0.0634322
-0.08446303 -0.09596631 0.15758242 -0.18162324 -0.06220307 0.03854197 0.014343461 0.18234338
-0.16884156 -0.11265184 0.26084092 -0.013119509 -0.10870464 0.2332501 0.19678082 -0.14400192
0.28137335 -0.23058736 -0.29344714 -0.05096925 0.09344623 -0.18957843 0.19844496 -0.19144422
-0.027566133 -0.20983617 0.18699943 -0.2448033 -0.009202418 0.37482724 0.21397682 0.11486645
0.1477397 0.13409571 -0.17625853 0.15129423 0.025645988 -0.35918194 -0.36198002 0.17971966
0.09644075 -0.15217146 0.014687472 -0.1567731 -0.23913325 0.09709962 0.13978489 0.17459711
-0.04838938 -0.25074503 -0.1597986 0.051173132 -0.09456678 -0.14036147 -0.14889598 0.07648557
0.35209113 -0.14304693 0.07576442 -0.3583326 0.018423572 0.058311313 0.29921964 0.17207392
-0.3091875 -0.11140274 -0.2504841 0.081357665 0.03498546 0.032717 0.14710213 0.2744343
-0.41789567 0.09835217 -0.28406554 0.2860257 0.057311982 -0.34509775 -0.23292258 -0.1848801
0.10424227 0.051168535 0.42096275 -0.20820019 0.11095734 0.10236917 0.12625712 0.4652044
-0.18729399 -0.03441753 0.24934116 -0.2847785 -0.017693073 0.045078915 -0.2505673 -0.28341028
0.25257608 -0.02940648 0.021628276 -0.078628816 -0.21605092 -0.1717005 0.25149268 -0.13905933
-0.32222134 0.40068018 0.22189318 -0.13718782 -0.29212144 0.37185058 -0.06278196 0.277769
-0.079636425 -0.09428476 0.15460996 -0.26240033 -0.034957666 0.3345652 0.12204131 0.37913918
0.076569326 -0.11659862 -0.10454617 -0.07727339 -0.19870843 0.0864105 0.14356515 -0.14902979
-0.12893596 -0.05212365 0.22124928 0.1725854 -0.14971392 -0.21902448 -0.072901204 0.09274355
0.1640045 -0.26695088 -0.55070233 -0.2318165 -0.36011067 -0.09182005 0.11465108 0.04214132
0.07030002 -0.18336792 -0.33527276 -0.053302612 0.15824685 0.10982075 -0.24963284 0.07972869

net.2.bias f4 [32]
00000000: bacb ecba 6d4b f6bb 1af9 fdbb 4283 0b3c
00000010: 8f81 f03b e1a9 ffbb 7ed1 f7bb 51f0 f03b
00000020: a0c3 0bbc b915 f73b 5a64 103c 7ec0 04bc
00000030: 460b 053c 2361 02bc e07f f8bb dca1 353b
00000040: 454b 003c 1c9b 063c 4c1e d8bb 25e6 0ebc
00000050: 1a48 fa3b b3e6 f8bb e270 c73b 6828 ee3b
00000060: fb0e e7bb 1445 fd3b 2bfd f83b 1d9b f2bb
00000070: 142e eebb 72fa ec3b 41e4 df3b 0428 f93b
-0.0018066086 -0.0075163157 -0.0077506425 0.008515181 0.0073396633 -0.0078022336 -0.007562815 0.0073528667
-0.008530527 0.0075404313 0.008812988 -0.008102534 0.008120364 -0.0079577295 -0.0075836033 0.0027714884
0.007830446 0.008215692 -0.0065954085 -0.008721863 0.0076379897 -0.007595861 0.0060864547 0.0072680004
-0.0070513464 0.007729182 0.0075985393 -0.007403745 -0.0072686765 0.007232004 0.00683263 0.007603647
