auto-iss-demo/movement_agent/weights/movement_net_30.pt (torch, 68335 bytes, 16 tensors)

net.0.weight f4 [128, 3]
0	0x3e8b0141	0.27149394
1	0xbed7c7fb	-0.4214476
2	0xbf0ed02e	-0.55786407
3	0xbda8383f	-0.08213853
4	0xbe71a783	-0.23599057
5	0xbdf60a3e	-0.12013672
6	0x3e0e5037	0.13897787
7	0xbe1ff951	-0.1562245
8	0x3c600530	0.013673112
9	0x3de4059a	0.11133881
10	0x3e6b80cc	0.22998351
11	0x3e195922	0.14975408
12	0x3e5f66aa	0.21816507
13	0xbf09913b	-0.5373723
14	0xbe726eee	-0.23675129
15	0x3e98a2f9	0.29811838
16	0xbf2f2c24	-0.6842673
17	0x3e14a0d0	0.1451447
18	0xbe82d5a6	-0.25553626
19	0x3f01f7db	0.5076882
20	0x3e26db8f	0.16294692
21	0xbcfcfd17	-0.030882401
22	0xbf11b0e2	-0.56910527
23	0xbed350dc	-0.41272628
24	0xbe5b1ef9	-0.21398534
25	0x3f568c68	0.8380799
26	0x3f57e5ee	0.8433522
27	0x3e36fb92	0.17869404
28	0x3d043937	0.032281127
29	0x3e60dd4a	0.21959415
30	0xbe314f60	-0.17315435
31	0x3ee2ad33	0.44272766
32	0xbf11a482	-0.56891644
33	0x3cf05000	0.029335022
34	0xbd43cf5f	-0.047805186
35	0x3f047c9d	0.51752645
36	0x3ccd2750	0.02504316
37	0x3e4a2c18	0.19743383
38	0x3e85a9e5	0.26106182
39	0x3e7caeea	0.246761
40	0xbdd78307	-0.10523038
41	0xbe1e03c9	-0.15431131
42	0xbdb0b871	-0.086289294
43	0x3de0f66d	0.10984502
44	0x3eb1fdf4	0.34764063
45	0x3e35cead	0.17754622
46	0xbf21ebc1	-0.63250357
47	0xbf14a88d	-0.5806969
48	0xbd918817	-0.07106035
49	0xbd2fd253	-0.04292519
50	0xbdb368c8	-0.0876022
51	0x3db3b494	0.08774677
52	0xbf18072c	-0.59385943
53	0xbf2a0d78	-0.664268
54	0x3e41b972	0.18918398
55	0xbe0b803f	-0.13623141
56	0x3d3032a3	0.04301704
57	0x3ea9923c	0.3311938
58	0xbfa38d44	-1.2777486
59	0x3d868776	0.06568806
60	0xbdfc0db0	-0.12307298
61	0x3e45be16	0.19310793
62	0x3ecc0f27	0.3985531
63	0xbe03a30c	-0.12855166
64	0x3f2b4f20	0.6691761
65	0x3f31f486	0.6951374
66	0x3db91066	0.09036331
67	0xbeff5428	-0.49868894
68	0xbf158a73	-0.5841438
69	0xbe04b4ab	-0.12959544
70	0x3e1eb6ce	0.15499422
71	0x3edcc3ee	0.43118232
72	0x3e261fa0	0.16223001
73	0xbeb16621	-0.3464823
74	0xbe8acd49	-0.27109745
75	0x3e655014	0.22393829
76	0xbdf5ca7a	-0.1200151
77	0xbdce9c29	-0.10088379
78	0x3d8dcbec	0.06923661
79	0xbf31cd16	-0.6945356
80	0xbf529cb9	-0.8227039
81	0xbd61a122	-0.05508531
82	0x3f2c031d	0.6719225
83	0x3f36f6de	0.7147044
84	0x3e85ad9a	0.2610901
85	0xbe90b407	-0.2826235
86	0x3e259e0c	0.16173571
87	0x3e850819	0.2598274
88	0xbea1e923	-0.31623182
89	0x3de268fe	0.11055182
90	0x3e67aff5	0.22625716
91	0xbe9da38d	-0.30788842
92	0x3cc88295	0.024476329
93	0xbd412133	-0.047150802
94	0xbd51691a	-0.051125623
95	0x3e6d5faf	0.23181032
96	0xbd9bd1eb	-0.07608398
97	0xbed6d497	-0.41959068
98	0xbe83877f	-0.25689313
99	0x3ebda6dc	0.37041366
100	0xbf435aa7	-0.763102
101	0xbd61c309	-0.05511764
102	0xbec5beee	-0.3862223
103	0x3fb361db	1.4014238
104	0x3e4e4030	0.20141673
105	0x3e2d24cb	0.16908567
106	0xbf302a25	-0.6881431
107	0xbf55a4e9	-0.8345476
108	0x3c5a4aaf	0.01332347
109	0x3e1fde9f	0.15612267
110	0x3e7f9ca4	0.24962097
111	0xbe24084b	-0.16018789
112	0x3f1b8b1c	0.6075914
113	0xbe87157c	-0.2638358
114	0x3dce75bd	0.100810505
115	0x3d47e103	0.048798572
116	0x3d83d4fa	0.064371064
117	0x3ea32297	0.31862327
118	0xbec40f07	-0.38292715
119	0xbe52f6ef	-0.2060201
120	0x3e46ffc8	0.1943351
121	0x3cf685a5	0.030093024
122	0x3d45cbe9	0.048290167
123	0x3c939abd	0.01801812
124	0xbf3e882e	-0.74426544
125	0xbf75bc9a	-0.9599091
126	0x3ca12965	0.019673059
127	0xbf026080	-0.509285
128	0xbf4b348b	-0.7937705
129	0x3d930647	0.07178932
130	0x3e61c50f	0.22047828
131	0x3f2651ee	0.64968765
132	0x3eb1b521	0.34708503
133	0xbf231e96	-0.63718545
134	0xbeda1b81	-0.4259911
135	0xbdd31120	-0.10306001
136	0xbce2d89b	-0.027691176
137	0xbe7f1063	-0.24908595
138	0x3e33956d	0.1753747
139	0xbdc66f3e	-0.096891865
140	0x3e0892ce	0.13337252
141	0x3e946c6e	0.28988975
142	0xbedf99fb	-0.43672165
143	0xbeae1421	-0.33999732
144	0x3de81020	0.113312006
145	0x3df839a2	0.121203676
146	0xbcbd7318	-0.02312617
147	0xbdbd8f03	-0.09255793
148	0xbd824ff7	-0.06362908
149	0x3e07f533	0.1327713
150	0xbd8a0f2e	-0.067411765
151	0x3f2af7eb	0.6678454
152	0x3f253a95	0.64542514
153	0xbe29e664	-0.16591793
154	0xbc63df4a	-0.013908217
155	0x3e536230	0.20642924
156	0x3da1d42b	0.07901796
157	0x3d65db34	0.05611725
158	0x3bc71519	0.006075513
159	0x3eb24daf	0.34824893
160	0xbf17ed00	-0.5934601
161	0xbeb2564a	-0.34831458
162	0xbdc83287	-0.09775262
163	0xbe1255b5	-0.14290507
164	0xbd534396	-0.051578127
165	0x3e177128	0.1478926
166	0xb95290fd	-0.00020081173
167	0x3c29d3d0	0.010365441
168	0xbd9ae91d	-0.07563994
169	0x3f287597	0.6580443
170	0x3f4ab118	0.79176474
171	0xbed363d3	-0.41287097
172	0x3f35ebc1	0.71062857
173	0x3ee0ead4	0.4392916
174	0x3e14dacc	0.1453659
175	0x3d84bb8d	0.06481085
176	0xbda27e95	-0.079343
177	0x3de93a64	0.1138809
178	0xbf0b58d6	-0.5443243
179	0xbf26a108	-0.65089464
180	0xbe339562	-0.17537454
181	0x3c76c1ce	0.015060855
182	0xbd35f5c9	-0.044423852
183	0xbe0c234c	-0.1368534
184	0x3e19591b	0.14975397
185	0x3edc5989	0.4303706
186	0xbe4c88d2	-0.19974068
187	0x3e864e9f	0.26231858
188	0x3f01a6c4	0.5064509
189	0xbdd562a4	-0.10419205
190	0x3f0f2974	0.5592263
191	0x3f142f82	0.5788499
192	0x3dfd5b52	0.123709336
193	0xbed90e8e	-0.42393917
194	0xbf162972	-0.5865699
195	0x3e37756b	0.17915885
196	0xbf0af01e	-0.5427264
197	0xbedea001	-0.43481448
198	0x3e4532f7	0.19257723
199	0x3ef6fc2f	0.48239276
200	0x3e48a1e3	0.19593005
201	0x3d99f01c	0.075165
202	0xbed1ae33	-0.40953216
203	0xbf1331bd	-0.5749777
204	0x3e243502	0.16035846
205	0x3cd72ac0	0.026265502
206	0x3e8bd638	0.27311873
207	0x3dc5dbd5	0.0966107
208	0x3e25095b	0.1611685
209	0xbc5b45c0	-0.013383329
210	0xbe726e4f	-0.23674892
211	0x3ebe6ab2	0.37190777
212	0x3f341204	0.7033999
213	0x3e52ea2e	0.20597145
214	0x3dd4e5ed	0.10395417
215	0x3d961be2	0.07329537
216	0x3dde0743	0.10841229
217	0x3cbf4e42	0.023352746
218	0x3e03b453	0.12861757
219	0x3e6ccb93	0.23124532
220	0xbc178256	-0.009247383
221	0x3c8a1ebb	0.016860357
222	0x3eb159ef	0.34638926
223	0xbe966c0d	-0.2937931
224	0xbf02aa81	-0.5104142
225	0xbc9e4ced	-0.01932379
226	0x3f4ab922	0.7918874
227	0x3f2cc69c	0.67490554
228	0xbc4bf395	-0.012448211
229	0x3f190b05	0.5978244
230	0x3ee76a64	0.45198357
231	0x3e4d402f	0.20044015
232	0xbef86675	-0.4851567
233	0xbef6bd70	-0.48191404
234	0xbe32ce22	-0.17461446
235	0x3d815c0b	0.06316384
236	0xbdcb2e93	-0.09920993
237	0xbe90867a	-0.28227597
238	0x3e92827d	0.2861518
239	0x3e83dc3e	0.2575397
240	0xbd80f319	-0.06296367
241	0x3f07ea06	0.53091466
242	0x3f155d84	0.5834582
243	0x3dcb3e08	0.09923941
244	0x3e10ae47	0.14128982
245	0x3e8c656c	0.2742113
246	0xbe8289cf	-0.25495765
247	0x3e83a10e	0.25708812
248	0x3f836f99	1.0268432
249	0xbe94c4cf	-0.29056403
250	0x3ec7215c	0.3889264
251	0x3f19bcdc	0.600538
252	0x3e9d6a56	0.3074519
253	0xbe6ab0e4	-0.22919041
254	0xbef4a0d3	-0.4777895
255	0x3ddd5e78	0.10809034

net.0.bias f4 [128]
0	0x3daec3fa	0.08533473
1	0xbc53bc80	-0.01292336
2	0x3d420fe3	0.047378432
3	0x3ded5c3c	0.11589858
4	0x3dcc8977	0.09987157
5	0x3c03e07f	0.0080491295
6	0xbd66eeb7	-0.05638
7	0x3db8f823	0.09031703
8	0xbd0385b4	-0.03210993
9	0x3a8844b6	0.0010396454
10	0xbd3e8553	-0.046513867
11	0xbd439c4e	-0.047756486
12	0x3d08c335	0.03338929
13	0x3db05227	0.08609419
14	0xbd503163	-0.05082835
15	0x3c8da4ee	0.017290559
16	0x3c902bce	0.017599013
17	0x3d20c5e6	0.03925123
18	0x3d8fbeae	0.07018791
19	0xbbf388bf	-0.007432073
20	0xbda7222c	-0.08160815
21	0xbc7ddd67	-0.015494681
22	0x3dcae79a	0.09907456
23	0xbd6413fb	-0.055683117
24	0x3de8af0d	0.11361513
25	0x3d249602	0.04018212
26	0x3c9be766	0.019031238
27	0x3cdf6575	0.027270058
28	0x3d5bdfcd	0.05368023
29	0x3dbd8a5f	0.09254908
30	0x3ded61ca	0.115909174
31	0x3cd7a9eb	0.02632614
32	0x3dbb408d	0.091431715
33	0x3d94cb0e	0.07265292
34	0xbd00be6a	-0.031431593
35	0x3d893107	0.06698804
36	0x3d55c1f4	0.05218692
37	0x3db7b059	0.089691825
38	0xbcd45fdc	-0.025924616
39	0xbd2d5ab8	-0.042322844
40	0x3df28dc9	0.118434496
41	0x3c9671dc	0.01836484
42	0xbbace43f	-0.0052762325
43	0x3cbf69c7	0.023365868
44	0x3ddce8d0	0.10786593
45	0xbdb6c025	-0.089233674
46	0x3d188971	0.03724045
47	0x3d3343ee	0.043765955
48	0x3d8fe74d	0.07026539
49	0xbdc5010c	-0.0961934
50	0xbdac0ba2	-0.08400656
51	0xbd469ff2	-0.04849238
52	0x3dbcc664	0.092175275
53	0x3db2835c	0.08716461
54	0xbdb5840d	-0.08863077
55	0x3d45aab1	0.048258487
56	0x3c098044	0.008392397
57	0xbdd3f75e	-0.10349916
58	0x3da3d2a3	0.0799916
59	0x3d90c211	0.07068265
60	0xbdd7a337	-0.10529178
61	0xbdcb7d3c	-0.09935996
62	0xbdfb046e	-0.12256704
63	0x3b901564	0.004397081
64	0x3dc11962	0.094286695
65	0xbcc89f85	-0.024490127
66	0x3d2008c4	0.03907086
67	0x3d889d88	0.06670672
68	0x3cb8879f	0.022525607
69	0x3d16545a	0.036701538
70	0x3d2233bc	0.03960012
71	0x3da1c48c	0.078988165
72	0x3a49f3ee	0.000770389
73	0x3dd9eca2	0.10640837
74	0x3d17edc8	0.037092
75	0xbd62e047	-0.05538967
76	0xbc896b04	-0.016774662
77	0x3d5c3a2e	0.053766422
78	0xbd408f88	-0.047011882
79	0xbda2953b	-0.0793862
80	0xbcda3794	-0.02663783
81	0x3da8c242	0.08240177
82	0xbda379f8	-0.07982248
83	0xbde7c3f5	-0.11316673
84	0x3dde6bb9	0.1086039
85	0x3c93718a	0.017998476
86	0xbd352dc2	-0.04423309
87	0xbdaa0711	-0.08302129
88	0x3cf0c63a	0.029391397
89	0xbc96b1eb	-0.018395385
90	0x3c0ed0b8	0.008716755
91	0x3c92c2d2	0.017915163
92	0x3ca1eda2	0.019766632
93	0xbda1800d	-0.07885752
94	0x3d25024b	0.04028539
95	0xbd849be3	-0.064750455
96	0xbd64c2f9	-0.055850003
97	0xbe03861c	-0.12844127
98	0xbdbcc2ad	-0.09216819
99	0xbd9c3c78	-0.07628721
100	0xbe1cb700	-0.15304184
101	0xbdf6b589	-0.12046344
102	0xbd9e77c2	-0.07737686
103	0x3dcf6818	0.10127276
104	0xbc81bdfb	-0.01583766
105	0xbd63dfc1	-0.05563331
106	0x3c2025a6	0.009774601
107	0x3de00150	0.1093775
108	0x3cb888a7	0.022526098
109	0x3d7df9a4	0.062005654
110	0xbda0d48f	-0.07853042
111	0x3d0e11f6	0.034685098
112	0x3ddd3f93	0.108031414
113	0x3dc2957c	0.09501168
114	0xbdf1c403	-0.118049644
115	0x3e029daa	0.12755457
116	0x3e080a07	0.13285075
117	0xbbdcd07c	-0.0067387205
118	0x3c001cb2	0.0078193415
119	0xbd8063a2	-0.062690035
120	0x3da0b0ae	0.07846199
121	0x3df8cdc6	0.12148623
122	0xbd9c7f51	-0.07641471
123	0x3e04aad4	0.12955791
124	0xbdb273dc	-0.08713505
125	0xbcce491f	-0.025181351
126	0x3da51f61	0.08062626
127	0x3d64cf59	0.055861805

net.2.weight f4 [64, 128]
0	0x3d8fb918	0.07017726
1	0x3d84c9c2	0.06483795
2	0xbcf3ed49	-0.029776232
3	0x3cbb0959	0.022831606
4	0xbc4810a2	-0.012210997
5	0xbddb6bd5	-0.10713927
6	0x3cb6341d	0.022241646
7	0x3e36925d	0.1782927
8	0xbbc0c123	-0.0058823987
9	0xbda4543d	-0.0802388
10	0x3daa9ce2	0.08330704
11	0xbea41ec9	-0.32054737
12	0xbe62b066	-0.22137603
13	0xbe29d583	-0.16585355
14	0xbe4fc9be	-0.20291802
15	0x3ac2bcc9	0.0014857288
16	0x3e630825	0.22171076
17	0x3e2b4c10	0.16728234
18	0x3e599d64	0.21251446
19	0xbe83edbb	-0.2576731
20	0x3e2f7fdf	0.17138623
21	0x3d66ba52	0.056330033
22	0x3dcfc625	0.10145215
23	0xbdfdd907	-0.1239491
24	0xbd7a72ad	-0.06114452
25	0xbdca3ce4	-0.09874895
26	0x3deb8278	0.11499494
27	0xbe07e7de	-0.13272044
28	0xbd566b9e	-0.052348725
29	0xbe16b2c0	-0.14716625
30	0xbd76c4af	-0.060246166
31	0xbe15e190	-0.14636827
32	0x3e1406fa	0.14455786
33	0xbd44d6ba	-0.04805634
34	0x3cd25ff1	0.025680514
35	0x3def23fe	0.11676787
36	0xbdbcf63e	-0.092266545
37	0xbd202e4f	-0.039106663
38	0xbdc91027	-0.09817534
39	0x3dc9663d	0.098339535
40	0x3c530638	0.012879901
41	0x3e20ed0a	0.15715423
42	0x3dd83b43	0.10558178
43	0x3dc89a93	0.09795108
44	0xbe885326	-0.26625937
45	0x3e8f4f09	0.27989987
46	0xba9d24f4	-0.0011989162
47	0x3e9e16df	0.30876824
48	0xbdba12ee	-0.09085642
49	0x3e6fc1b3	0.23413734
50	0xbe5db551	-0.21651198
51	0x3d9a0f9c	0.075225085
52	0xbe1ce8a9	-0.15323128
53	0x3d7fd54b	0.06245927
54	0xbd73ac52	-0.05949051
55	0xbe049597	-0.12947689
56	0x3cd18d6f	0.025580136
57	0x3d974ac4	0.07387307
58	0x3e9bff90	0.30468416
59	0x3e56ee78	0.20989406
60	0x3dcd7dea	0.10033782
61	0xbd080c00	-0.03321457
62	0xbe4dcee3	-0.20098452
63	0xbd175033	-0.03694172
64	0xbeafb884	-0.34320462
65	0x3e5fa256	0.2183927
66	0x3e3781d1	0.17920615
67	0x3d0b97d0	0.034080327
68	0xbe489403	-0.19587712
69	0x3e051862	0.12997583
70	0x3d49dc08	0.049282104
71	0xbe8d6e88	-0.2762339
72	0x3c94a3af	0.018144457
73	0x3e63d119	0.22247733
74	0xbe39ae85	-0.1813298
75	0x3b4703b5	0.00303672
76	0xbc82990a	-0.015942115
77	0x3d86f6d7	0.0659005
78	0xbc8caf9c	-0.01717358
79	0x3dd57136	0.10421984
80	0x3d8e7ce4	0.06957415
81	0xbd09740f	-0.033557948
82	0xbe0d29d0	-0.13785481
83	0x3e797b9a	0.24363557
84	0x3da9d685	0.082928695
85	0x3dbb36cd	0.09141312
86	0x3d06c01e	0.03289806
87	0x3e5c3a3d	0.21506591
88	0xbdbf609c	-0.09344599
89	0x3e60879f	0.21926735
90	0x3e9afde4	0.30271828
91	0xbe117971	-0.14206482
92	0x3da53efa	0.080686525
93	0x3e97cdbc	0.2964915
94	0x3e3d1917	0.18466602
95	0x3c9b87b1	0.018985601
96	0x3de6329e	0.11240123
97	0x3d980089	0.07421977
98	0xbe204570	-0.15651488
99	0xbda9f668	-0.082989514
100	0x3c9acfff	0.018898008
101	0xbe1e9008	-0.15484631
102	0x3d13fd7b	0.03613041
103	0xbcf38393	-0.029725825
104	0xbe0ecbc1	-0.13944913
105	0x3d36fa00	0.044672012
106	0x3c9e09ee	0.019291844
107	0x3e03fa38	0.1288842
108	0xbdcb9ed2	-0.09942402
109	0xbeb5a8f5	-0.35480466
110	0x3d2b059f	0.041753408
111	0x3e288628	0.16457427
112	0xbdceb256	-0.10092609
113	0xbe9dd391	-0.30825475
114	0xbe3a73bd	-0.18208213
115	0xbebf0445	-0.37307945
116	0xbd29018c	-0.04126124
117	0x3ddcaf02	0.107755676
118	0xbe13bd33	-0.14427643
119	0xbae72590	-0.0017635096
120	0x3b9b889b	0.0047465093
121	0xbd394092	-0.045227595
122	0xbdbfa8cd	-0.09358368
123	0xbde7b965	-0.11314658
124	0x3e02d24e	0.12775537
125	0xbdf15e83	-0.11785605
126	0x3d9fb9a3	0.07799079
127	0x3de65359	0.11246366
128	0x3e9e8b41	0.30965617
129	0x3dad23ad	0.0845407
130	0xbdd6d0ea	-0.10489066
131	0x3e5d4d75	0.21611579
132	0x3e372900	0.17886734
133	0xbd9e7439	-0.077370115
134	0x3dd4bce2	0.10387589
135	0x3e1a401e	0.15063521
136	0xbdce5e70	-0.10076606
137	0x3cb576c9	0.022151368
138	0xbe709dbb	-0.2349767
139	0x3cef3b9c	0.029203229
140	0x3d0c7be6	0.034297846
141	0xbaf19189	-0.0018430214
142	0xbe92a732	-0.28643185
143	0xbd216489	-0.03940252
144	0xbca1fadf	-0.019772945
145	0xbc7f83e5	-0.015595411
146	0x3cb33586	0.021876108
147	0x3ac0600c	0.0014677062
148	0x3e12b5d3	0.14327173
149	0x3dbd0797	0.09229963
150	0xbccf0c8f	-0.025274543
151	0xbd8cbaa0	-0.068715334
152	0xbe631960	-0.22177649
153	0x3d6cc79b	0.057807546
154	0xbe2b84a0	-0.16749811
155	0x3d95e500	0.07319069
156	0x3dabdc44	0.08391622
157	0x3e3a949e	0.18220755
158	0xbc82ecad	-0.015981996
159	0x3e1feb16	0.15617022
160	0x3df4e135	0.11957017
161	0xbb1478bc	-0.002265497
162	0x3e175d00	0.1478157
163	0xbdda5d12	-0.10662283
164	0xbccda20a	-0.02510168
165	0x3e62f64a	0.22164264
166	0xbb18bf4b	-0.002330738
167	0x3ea7e8b8	0.32794738
168	0xbd89cbee	-0.067283496
169	0xbe6409e0	-0.22269392
170	0x3e846879	0.25860956
171	0x3dfc12bc	0.12308261
172	0x3e5c12e2	0.21491578
173	0x3cfc017a	0.030762423
174	0xbd58309c	-0.052780733
175	0x3d14a621	0.036291245
176	0xbd9620d9	-0.07330484
177	0x372f5670	1.0450938e-05
178	0x3ca66f67	0.020316793
179	0x3c8b7240	0.017022252
180	0x3e76dd1d	0.24107786
181	0x3dea542c	0.11441836
182	0x3c24862e	0.010041757
183	0x3e8f04bf	0.27933308
184	0x3e31f840	0.17379856
185	0x3d1bf030	0.038070858
186	0xbeccb764	-0.39983666
187	0xbe5b3201	-0.21405794
188	0xbe43c8b3	-0.1911953
189	0xbece5d27	-0.40305445
190	0x3e35c209	0.177498
191	0x3d574aeb	0.05256168
192	0x3e19ca18	0.15018499
193	0xbd9f7774	-0.07786456
194	0x3ddc913d	0.107698895
195	0x3cbdfb5d	0.023191148
196	0x3d82d3a4	0.063880235
197	0x3e478e36	0.19487843
198	0x3dea766d	0.11448369
199	0x3d756483	0.05991031
200	0x3d525a9a	0.051355936
201	0xbd4c96fc	-0.049948677
202	0xbe122419	-0.14271583
203	0x3edf1e73	0.43577918
204	0x3e88bb9d	0.26705638
205	0xbe165e89	-0.146845
206	0xbe4eb56c	-0.20186394
207	0x3e805d94	0.25071394
208	0xbe7e87eb	-0.24856536
209	0x3e8fdccb	0.2809814
210	0xbd07831b	-0.033084016
211	0x3e9823cc	0.2971481
212	0xbdcc5eaf	-0.09978997
213	0xbd1502d1	-0.03637964
214	0xbd78d2c2	-0.06074787
215	0xbd134849	-0.03595761
216	0xbbcb113f	-0.0061971243
217	0x3e41af5c	0.1891455
218	0xbd5857f2	-0.052818246
219	0xbe3c5d89	-0.18395056
220	0xbcda0b21	-0.026616635
221	0x3e188ad5	0.1489671
222	0x3e7e6607	0.24843608
223	0xbd4439fa	-0.047906853
224	0xbdf3c361	-0.119025
225	0xbdf0bcc6	-0.11754756
226	0x3d876ff8	0.06613153
227	0xbd250baa	-0.040294327
228	0x3e6e6299	0.232798
229	0xbcde0e6b	-0.027106484
230	0xbce48091	-0.027893336
231	0x3e3a8a91	0.18216921
232	0xbdb024cb	-0.08600768
233	0xbd899865	-0.0671852
234	0x3d8eeffa	0.06979366
235	0x3d6eab15	0.058268625
236	0xbde8db00	-0.11369896
237	0xbd763399	-0.0601078
238	0xbdec1b8a	-0.1152869
239	0x3be8ffc7	0.007110569
240	0xbe727c12	-0.23680142
241	0x3e83a31c	0.2571038
242	0xbe147ac9	-0.14499964
243	0x3bbcf305	0.005766275
244	0x3e524b7d	0.20536609
245	0x3b6deec4	0.0036305645
246	0x3e294e92	0.16533878
247	0x3da232a4	0.07919815
248	0xbd1fbe96	-0.039000116
249	0x3df55e54	0.11980882
250	0x3d22c2d6	0.03973659
251	0x3e05602a	0.13024965
252	0xbcc4bd4d	-0.024016047
253	0x3dfe6415	0.12421433
254	0x3df3ce10	0.11904538
255	0x3d7a2cc6	0.061077856

net.2.bias f4 [64]
0	0xbc0c30aa	-0.008556524
1	0x3cecce0b	0.028906843
2	0x3bff423e	0.007789879
3	0x3db087ef	0.08619677
4	0xbce678ee	-0.028133836
5	0xbd7612f4	-0.06007667
6	0x3d1cd5fc	0.03829001
7	0xbca22123	-0.019791191
8	0xbd9ef2bc	-0.07761142
9	0x3d1af9cb	0.037835877
10	0x3d95d80d	0.07316599
11	0xbc98aa53	-0.018635904
12	0xbd2c4925	-0.042061944
13	0xbdc34530	-0.09534681
14	0x3d9577ca	0.072982386
15	0x3d63223f	0.05545258
16	0xbd747c82	-0.059689052
17	0xbdab5bf6	-0.083671495
18	0x3d0917d7	0.03347
19	0xbdbfe925	-0.09370641
20	0xbdd1f52e	-0.102518424
21	0x3e01abbd	0.12663169
22	0xbd524a5d	-0.05134045
23	0x3dc57d5d	0.09643052
24	0xbde748f1	-0.11293209
25	0x3deec0d8	0.11657876
26	0xbd308150	-0.043092072
27	0xbda03f11	-0.07824529
28	0xbd6bd884	-0.057579532
29	0xbdb55672	-0.08854379
30	0x3d5fe164	0.05465831
31	0xbd28e83d	-0.041237105
32	0xbddf2386	-0.108954474
33	0xbdc02bab	-0.09383329
34	0x3df07632	0.11741294
35	0x3cc82693	0.024432456
36	0x3dd606d3	0.1045052
37	0xbe02aaab	-0.12760417
38	0xbd3d9e44	-0.046293512
39	0x3cbcd52b	0.023050865
40	0x3d971e91	0.07378877
41	0x3de80aa6	0.11330156
42	0xbd933a68	-0.071888745
43	0x3d0d61a8	0.03451696
44	0xbda7ba00	-0.081897736
45	0xbc71330c	-0.014721643
46	0xbd94de9f	-0.07269024
47	0xbc3f91a9	-0.011692443
48	0x3d6916d3	0.056906532
49	0xbdec01d9	-0.1152379
50	0xbdb3b0b5	-0.087739386
51	0xbc954cb7	-0.018225057
52	0x3c8cb2da	0.017175127
53	0xbd063f5f	-0.03277528
54	0x3d34f405	0.044178028
55	0xbd1b87ca	-0.037971295
56	0xbd2132a7	-0.039354946
57	0x3da346ad	0.07972465
58	0xbd2b7d01	-0.04186726
59	0xbcb5c9cb	-0.022190949
60	0xbca8e95d	-0.020619089
61	0x3d321ca8	0.04348436
62	0xbd3566b2	-0.04428739
63	0xbd66f58d	-0.05638652

net.4.weight f4 [64, 64]
0	0xbdd06aa1	-0.10176588
1	0x3d086221	0.033296708
2	0xbe81e20b	-0.2536777
3	0x3cbe2e76	0.023215514
4	0x3e01d44e	0.12678644
5	0x3d275427	0.04085174
6	0x3e50451d	0.20338865
7	0xbc03c7bf	-0.008043229
8	0xbde97656	-0.11399524
9	0xbe3e6737	-0.18594061
10	0x3ee8e07e	0.45483774
11	0x3f08797c	0.5331037
12	0xbd875ba3	-0.06609275
13	0xbee299db	-0.44258007
14	0x3e132a3b	0.14371578
15	0x3dbf10f7	0.09329408
16	0xbe4c56a9	-0.19954933
17	0xbebfa8f9	-0.37433603
18	0xbea54f32	-0.32286984
19	0xbdec4db1	-0.11538256
20	0xbe3720e5	-0.17883642
21	0xbb363b4a	-0.0027806335
22	0xbe844f56	-0.2584178
23	0x3ea7e76b	0.32793745
24	0xbea6ae47	-0.32554838
25	0x3f01767b	0.5057141
26	0xbd9ab1d7	-0.075534515
27	0xbf06fa40	-0.527256
28	0x3e1895db	0.14900915
29	0xbee26977	-0.44221088
30	0x3e1c7ed2	0.15282753
31	0xbe79305e	-0.24334857
32	0x3e1c003d	0.15234466
33	0xbe46c34c	-0.19410437
34	0xbdad3ff4	-0.08459464
35	0x3e719d75	0.23595221
36	0xbe9629cb	-0.2932876
37	0x3ead04a9	0.33792618
38	0xbdb650a8	-0.08902103
39	0xbefd8ad3	-0.49519977
40	0x3e93d354	0.28872168
41	0x3ea61b9c	0.3244294
42	0x3cce5d6a	0.025191028
43	0x3ea6f62f	0.32609698
44	0xbf0ee878	-0.5582347
45	0x3caf03e9	0.02136417
46	0xbc972867	-0.018451883
47	0x3ec28086	0.3798868
48	0x3ea761f4	0.3269192
49	0xbd04b71e	-0.032401197
50	0xbe8d1754	-0.2755686
51	0xbd6dc22f	-0.058046516
52	0xbe4d5f02	-0.20055774
53	0xbe498d95	-0.19682916
54	0x3dccb42a	0.09995301
55	0x3ec32d36	0.3812043
56	0xbc5756db	-0.013143267
57	0x3e30694b	0.17227666
58	0xbe87ff7c	-0.26562107
59	0xbea15bc3	-0.3151532
60	0xbe1b412f	-0.15161584
61	0x3e9db822	0.30804545
62	0xbef74027	-0.48291132
63	0x3dfc6e9b	0.12325784
64	0x3dabb407	0.08383947
65	0xbda5d77e	-0.080977425
66	0x3dd2daff	0.102956764
67	0x3e1ac23c	0.15113157
68	0xba2c47f5	-0.0006572002
69	0x3dd7407d	0.10510347
70	0xbe8e9706	-0.27849597
71	0x3e18289c	0.14859241
72	0x3e8ad52d	0.27115765
73	0xbe456842	-0.19278052
74	0xbe95e830	-0.29278708
75	0xbe39e700	-0.18154526
76	0x3ee10a0c	0.43952978
77	0xbdab6081	-0.08368016
78	0xbe6c8ba6	-0.23100147
79	0xbf246b99	-0.6422668
80	0x3dcdec9e	0.10054897
81	0x3f2631cd	0.6491974
82	0x3eb8f705	0.3612596
83	0x3eb34e1e	0.35020536
84	0x3e7d6e99	0.24749221
85	0x3e3feb54	0.18742114
86	0x3e20f9f3	0.15720348
87	0xbe2387ea	-0.15969816
88	0x3d9ab00b	0.07553109
89	0xbda35c70	-0.079766154
90	0x3f3b9dfc	0.7328794
91	0x3e6cc28c	0.23121089
92	0x3e1bfc91	0.15233065
93	0x3d27257d	0.040807236
94	0xbea9b984	-0.3314935
95	0xbeb122de	-0.34596914
96	0x3e7c84aa	0.24659982
97	0xbe3827ac	-0.17983884
98	0xbebccea2	-0.36876398
99	0xbc0e880c	-0.008699428
100	0xbe0e4904	-0.13895041
101	0x3eb4891a	0.3526085
102	0x3ebfc620	0.37455845
103	0x3ed228f6	0.41046876
104	0xbe9aeed6	-0.30260342
105	0xbe1f4817	-0.15554844
106	0x3f16e541	0.58943564
107	0xbed93e0f	-0.4243016
108	0x3ebe353c	0.3714999
109	0x3cb407aa	0.02197631
110	0x3cf1a113	0.029495751
111	0xbed04f94	-0.40685713
112	0xbe9c349e	-0.30508894
113	0xbd75a529	-0.059971962
114	0x3daff911	0.085924275
115	0xbdb2473e	-0.087049946
116	0x3eb99d04	0.36252606
117	0x3d2aee2e	0.041731052
118	0xbe8d3c0b	-0.27584872
119	0xbde564b3	-0.112008475
120	0xbe17b46f	-0.14814924
121	0xbcab7502	-0.020929817
122	0x3f0d6053	0.55225104
123	0x3f4579b3	0.77138823
124	0x3dcd6d79	0.10030646
125	0xbeaccfa5	-0.3375217
126	0xbe5007ba	-0.20315447
127	0xbb935342	-0.004496009
128	0x3e038af2	0.12845972
129	0xbec183b0	-0.37795782
130	0x3e1da78b	0.15395944
131	0xbf3933c0	-0.7234459
132	0xbdf0af79	-0.11752219
133	0x3e114f5e	0.14190432
134	0xbb6d197a	-0.0036178515
135	0x3e4d5664	0.20052487
136	0x3f3fded0	0.7494936
137	0xbeeb622c	-0.45973337
138	0xbeb2409d	-0.3481492
139	0xbd094ef6	-0.03352257
140	0x3dda29a5	0.10652474
141	0xbd8f007c	-0.06982514
142	0xbef93281	-0.48671344
143	0xbf09fcdd	-0.53901464
144	0x3ece8341	0.40334514
145	0x3b32a7ff	0.0027260778
146	0x3f0e2f7b	0.555412
147	0x3e3e0967	0.18558274
148	0xbda55190	-0.080721974
149	0xbeb14847	-0.34625456
150	0x3e848af9	0.25887278
151	0xbde2df94	-0.110778004
152	0x3e24fc5c	0.16111892
153	0xbd4f060e	-0.050542884
154	0x3dd7ab6a	0.105307415
155	0x3e7f0df7	0.24907671
156	0xbe085a6d	-0.13315745
157	0x3e66574a	0.22494236
158	0xbf024b33	-0.50895995
159	0x3e104551	0.14088942
160	0xbdeb2e09	-0.1148339
161	0xbdbf2301	-0.09332848
162	0xbe2388b0	-0.15970111
163	0xbea2b3a5	-0.31777683
164	0xbdaf8214	-0.08569732
165	0xbe4239ca	-0.18967357
166	0x3e7144d9	0.2356142
167	0xbd131ce7	-0.035916235
168	0xbee8a657	-0.45439407
169	0xbd77855f	-0.060429927
170	0x3e71294d	0.23550911
171	0xbdc594f6	-0.09647553
172	0x3bc2ee74	0.005948836
173	0x3e0011c9	0.12506784
174	0x3ea2b429	0.31778076
175	0xbee3217f	-0.44361493
176	0xbed58072	-0.41699558
177	0x3e6531b6	0.22382244
178	0x3dcd7c6c	0.10033497
179	0x3f0f15fb	0.55892915
180	0x3dcc4459	0.09973974
181	0xbe86d3a6	-0.2633335
182	0xbcae0b5e	-0.021245655
183	0xbe48c749	-0.19607271
184	0xbe65fe47	-0.2246028
185	0x3de97d82	0.11400892
186	0x3f0f91d7	0.5608191
187	0x3edc1b4a	0.4298957
188	0x3e0c4db1	0.13701512
189	0xbe966713	-0.29375514
190	0x3e1ef4a2	0.15523008
191	0xbe118954	-0.14212543
192	0x3d1792df	0.0370053
193	0xbec757e7	-0.38934252
194	0x3da3e8c1	0.08003379
195	0xbe3077eb	-0.17233245
196	0x3e0fb8d0	0.14035344
197	0x3e99437a	0.29934293
198	0xbf016d6a	-0.5055758
199	0x3de76090	0.11297715
200	0xbd306568	-0.04306546
201	0xbde17ca9	-0.11010105
202	0xbe814f02	-0.2525559
203	0xbda23f41	-0.07922221
204	0x3ec78a05	0.38972488
205	0xbd444c6b	-0.04792444
206	0xbcf644db	-0.03006213
207	0x3cff08fe	0.031132217
208	0x3e097cac	0.13426465
209	0x3ef1fc09	0.472626
210	0x3e80a133	0.25122985
211	0x3ea7fe5a	0.32811242
212	0x3edbe42e	0.42947525
213	0xbe400885	-0.1875325
214	0x3e49bab1	0.19700123
215	0x3dcd197e	0.10014628
216	0xbe5089bc	-0.20365041
217	0x3d7112f3	0.058855962
218	0xbe1a97b0	-0.15096927
219	0x3f0ef77e	0.55846393
220	0x3db50703	0.08839228
221	0x3e9172c6	0.28407878
222	0xbebcb459	-0.36856344
223	0x3e806827	0.25079462
224	0xbe18df01	-0.14928819
225	0x3e8828fa	0.26593763
226	0x3c86a611	0.016436609
227	0xbeef48a1	-0.467351
228	0xbddec238	-0.10876888
229	0x3dba379f	0.0909264
230	0x3e9fca7c	0.3120917
231	0x3ed3ae08	0.41343713
232	0xbe1ecd83	-0.15508084
233	0xbdc84f5d	-0.09780762
234	0x3e14fba0	0.14549112
235	0x3d903d4d	0.07042942
236	0x3e210039	0.15722741
237	0xbd22c10c	-0.039734885
238	0x3e93165a	0.2872799
239	0x3be196be	0.006884425
240	0xbf48d9ab	-0.78457135
241	0x3f067439	0.5252109
242	0x3eedf384	0.4647485
243	0x3e3a80b1	0.18213154
244	0x3eaa214a	0.33228523
245	0x3e0b61f3	0.13611583
246	0xbe9325ef	-0.2873988
247	0x3df93a5f	0.121693365
248	0xbdcca28f	-0.09991943
249	0x3e0ef13f	0.13959216
250	0x3f1e65d8	0.6187415
251	0x3ebb453a	0.36576253
252	0x3f0b758f	0.54476255
253	0xbe467985	-0.19382294
254	0xbf026a3e	-0.5094336
255	0xbedef483	-0.43545923

net.4.bias f4 [64]
0	0x3e2e8dba	0.17046252
1	0xbe404fc0	-0.18780422
2	0xbe45edb6	-0.19328961
3	0xbe791f3c	-0.24328321
4	0xbe18247d	-0.14857669
5	0x3cbaa3ba	0.022783149
6	0x3e6e6976	0.23282418
7	0x3e54696a	0.20743337
8	0xbe6d035e	-0.23145816
9	0x3cbf79df	0.023373542
10	0xbe3e33fa	-0.18574515
11	0x3e4bba2a	0.19895235
12	0xbe40e580	-0.18837547
13	0xbe3c6032	-0.1839607
14	0xbe827418	-0.25479198
15	0x3e2dc73d	0.16970535
16	0xbe794a82	-0.24344829
17	0x3e1ca43a	0.15297022
18	0xbe67e9e1	-0.22647811
19	0xbd533445	-0.05156352
20	0x3dc368d2	0.09541477
21	0xbe630be1	-0.221725
22	0x3e1bb365	0.15205152
23	0x3e44e2d2	0.1922715
24	0xbe551c9a	-0.20811692
25	0xbd5b31f4	-0.053514436
26	0x3e71c270	0.23609328
27	0x3e523fbb	0.20532124
28	0x3e4e3ad4	0.20139629
29	0xbe4eb42e	-0.2018592
30	0xbe5dd9ba	-0.21665087
31	0x3e69c985	0.2283078
32	0x3e49fbee	0.1972501
33	0x3e43b612	0.19112423
34	0x3e237055	0.1596082
35	0x3e3dd6b3	0.18538933
36	0x3b89073a	0.0041817697
37	0xbe3267e5	-0.17422445
38	0xbe593a63	-0.21213679
39	0xbd3d5fe3	-0.046234023
40	0x3e645d20	0.2230115
41	0xbdcf28bc	-0.10115191
42	0x3dc80cd1	0.097680695
43	0xbe672505	-0.22572716
44	0xbe2817f4	-0.16415387
45	0x3e5274e9	0.2055241
46	0xbe725570	-0.23665404
47	0x3dbfcda5	0.093653955
48	0x3e4d8932	0.20071867
49	0x3e727a50	0.23679471
50	0xbe51b6bb	-0.20479862
51	0xbe39488a	-0.18094078
52	0x3d42e258	0.04757914
53	0xbe88513b	-0.26624474
54	0x3e724706	0.23659906
55	0x3e72c430	0.23707652
56	0xbe2cacb9	-0.16862763
57	0x3e3c96d9	0.18416919
58	0xbe3f59da	-0.1868662
59	0xbdbcc169	-0.092165776
60	0xbe7771b3	-0.24164467
61	0x3e5681b9	0.20947923
62	0xbe55d2d2	-0.20881203
63	0x3e3f8c39	0.18705834

action_head.0.weight f4 [3, 64]
0	0xbea46c57	-0.32113907
1	0x3e0ce771	0.13760163
2	0xbbff0884	-0.0077829976
3	0x3c2b2ce1	0.010447712
4	0xbe3ab81a	-0.18234292
5	0x3e11ac1e	0.14225814
6	0xbeddd3ce	-0.43325657
7	0xbdc79b06	-0.09746365
8	0x3e12e2a1	0.14344265
9	0x3e0b6ad4	0.1361497
10	0x3d1a4e00	0.037672043
11	0x3ea21e93	0.3166395
12	0xbe0ef14a	-0.13959232
13	0x3e386fa9	0.18011345
14	0xbdb9fe2e	-0.09081684
15	0x3cc75b94	0.02433566
16	0x3f0ca3af	0.5493726
17	0x3dac7a79	0.08421797
18	0xbd807112	-0.062715665
19	0x3eb9c4ec	0.36283052
20	0x3d9d5224	0.07681683
21	0xbe2a5733	-0.16634826
22	0xbd4da57c	-0.050206646
23	0x3ebb6cc2	0.36606413
24	0x3e0a72ae	0.1352031
25	0xbe7fd243	-0.24982552
26	0x3d38cbf6	0.045116387
27	0x3d8d3761	0.06895328
28	0x3dc651c2	0.09683563
29	0xbe8f23f9	-0.27957132
30	0x3e272ada	0.1632494
31	0x3b8c7aa3	0.0042870804
32	0x3e5495fa	0.20760337
33	0x3d8e0828	0.069351494
34	0xbbd450c7	-0.006479356
35	0xbb24a4a7	-0.0025122555
36	0xbe94f0bf	-0.29089925
37	0xbeb82fb9	-0.3597391
38	0xbe46385f	-0.19357441
39	0xbe588314	-0.21143752
40	0x3e92af31	0.28649285
41	0xbdc97052	-0.098358765
42	0xbc7eadf1	-0.015544401
43	0x3d8d397a	0.068957284
44	0xbd779f51	-0.06045467
45	0xbd229275	-0.039690454
46	0xbdc13046	-0.094330356
47	0xbeb4d2e8	-0.3531716
48	0x3e399166	0.18121871
49	0x3e323bd1	0.1740563
50	0xbd51791d	-0.051140893
51	0xbe954c8a	-0.29159957
52	0x3cdef4af	0.027216284
53	0x3e9e88f5	0.30963865
54	0xbcb5aef1	-0.022178145
55	0xbe74951d	-0.23885007
56	0x3dc74b6d	0.09731183
57	0x3e8b57f2	0.27215534
58	0x3ec7eea4	0.39049256
59	0xbda63739	-0.08116002
60	0xbeb215de	-0.34782308
61	0x3de77a3c	0.11302611
62	0xbe6259cb	-0.22104566
63	0xbd80ab8f	-0.06282722
64	0xbd9ea003	-0.077453636
65	0x3f14aeef	0.5807943
66	0x3d8a63f0	0.06757343
67	0xbeb80627	-0.35942194
68	0x3f011e1f	0.50436586
69	0xbe9a442d	-0.3013014
70	0x3e66aa1e	0.22525832
71	0xbe01c2f7	-0.1267203
72	0xbe4d9759	-0.20077266
73	0x3d998be7	0.074973874
74	0xbe7254b5	-0.23665126
75	0xbddf40e2	-0.10901047
76	0xbdcb7f0c	-0.09936342
77	0xbe35613b	-0.17712872
78	0x3d5c1f72	0.053740926
79	0xbd987a04	-0.07445148
80	0xbd94701c	-0.07247946
81	0xbd130469	-0.035892878
82	0xbe8e9a5b	-0.2785214
83	0xbe2974df	-0.16548489
84	0xbe220163	-0.15820841
85	0xbb4f48d5	-0.0031629105
86	0xbd089e5d	-0.033354152
87	0xbdfe28c7	-0.124101214
88	0xbed00cc2	-0.40634733
89	0xbeabd988	-0.335644
90	0x3c8a1fad	0.016860807
91	0xbe53d5ac	-0.20686978
92	0xbd9127fc	-0.070877045
93	0xbe5b8e67	-0.21441041
94	0x3e43380b	0.19064347
95	0x3db6696c	0.089068264
96	0x3c0b0dba	0.008487159
97	0x3ec3557c	0.38151157
98	0x3e9d1289	0.30678204
99	0xbd9be3da	-0.076118186
100	0x3e24dde7	0.16100274
101	0xbe3529dc	-0.1769175
102	0xbd846954	-0.06465402
103	0x3d6e730a	0.05821518
104	0x3c367139	0.011135393
105	0xba8bdbbc	-0.0010670344
106	0x3e5b4054	0.21411258
107	0xbddc91be	-0.107699856
108	0xbc38c75b	-0.011277999
109	0xbe19bb30	-0.15012813
110	0xbe3d1568	-0.18465197
111	0x3ca05d53	0.01957575
112	0x3eb4d9a9	0.35322312
113	0x3d99d33e	0.075109944
114	0x3db832de	0.08994077
115	0xbe2b39b1	-0.16721226
116	0x3e0b6608	0.1361314
117	0xbd20fc7a	-0.03930328
118	0x3e8591b7	0.26087734
119	0xbe923dc2	-0.28562742
120	0x3d22e905	0.039773006
121	0x3e09a3f6	0.13441452
122	0x3dbc9721	0.09208513
123	0x3ebd0cc8	0.36923814
124	0x3e8dc0d2	0.27686173
125	0x3e76ad49	0.2408954
126	0xbd949832	-0.072555915
127	0x3d4c0332	0.049807735
128	0x3d88d33f	0.06680917
129	0xbe97c6fc	-0.29644
130	0x3e266a17	0.16251408
131	0x3dccda23	0.10002544
132	0xbdc51c15	-0.09624497
133	0x3e165029	0.14679016
134	0xbef17281	-0.47157672
135	0xbe6451c3	-0.22296815
136	0xbdaa4656	-0.08314197
137	0xbebce20f	-0.3689122
138	0x3e6a1936	0.2286118
139	0xbe01196c	-0.12607354
140	0x3e3d4d84	0.18486601
141	0x3dee2d99	0.11629791
142	0x3e53c28e	0.20679685
143	0xbe00f78b	-0.1259443
144	0xbdf32d14	-0.11873832
145	0x3bace188	0.005275909
146	0xbdb2a3cd	-0.08722649
147	0xbe057da4	-0.1303621
148	0x3e2d457a	0.16921034
149	0xbcbdac2a	-0.023153383
150	0x3a2890cc	0.0006430268
151	0xbde9c732	-0.114149466
152	0xbd8493fd	-0.06473539
153	0xbe9eef5f	-0.31042
154	0x3d1bf242	0.038072832
155	0x3d2df91e	0.042473905
156	0xbe3dc937	-0.18533789
157	0xbec1d1d5	-0.37855402
158	0xbe44cdd2	-0.19219139
159	0x3df615f7	0.12015908
160	0xbe437216	-0.19086489
161	0x3ce8bb6f	0.028409688
162	0x3e63543f	0.22200106
163	0x3d8cea5c	0.06880638
164	0xbedc3ff8	-0.43017554
165	0xbdee5d53	-0.11638894
166	0xbe08442f	-0.1330726
167	0xbcfdaf4c	-0.030967377
168	0xbcbbd26f	-0.022927491
169	0xbd404c71	-0.0469479
170	0xbd58384b	-0.05278806
171	0xbd58ca75	-0.052927453
172	0xbc9c12b7	-0.019051893
173	0xbe05066e	-0.12990734
174	0x3e15a560	0.14613867
175	0xbe37f4b6	-0.17964444
176	0x3f0bac54	0.54559827
177	0x3ec5b404	0.38613904
178	0xbe24fde8	-0.16112483
179	0xbe722bdb	-0.23649542
180	0xbe6156cf	-0.22005771
181	0xbe2fa968	-0.17154467
182	0x3dd83658	0.1055724
183	0x3d51f97b	0.051263314
184	0xbe853ef8	-0.26024604
185	0x3dc8c205	0.09802631
186	0xbef4d663	-0.47819814
187	0x3e6eceab	0.23321025
188	0x3eb70dcc	0.35752714
189	0x3d10d1b4	0.03535624
190	0x3d63e7a0	0.055640817
191	0x3e9339d8	0.2875507

action_head.0.bias f4 [3]
0	0xbcfb7587	-0.03069569
1	0x3ca313f5	0.019906977
2	0x3d654524	0.05597414

value_head.weight f4 [1, 64]
0	0x402d6588	2.709322
1	0xc037617c	-2.865325
2	0xc0295281	-2.6456606
3	0xc027f5a5	-2.624368
4	0xc04354f1	-3.0520594
5	0x4036d5c5	2.8567975
6	0x402ba045	2.681657
7	0x40276ca1	2.6160052
8	0xc026da59	-2.607077
9	0x402a2357	2.658407
10	0xc0326dd9	-2.7879546
11	0x4044316f	3.0655172
12	0xc032e246	-2.7950606
13	0xc02c3a8f	-2.6910741
14	0xc025029f	-2.578285
15	0x40303a3e	2.7535548
16	0xc025f35f	-2.5929792
17	0x4025ff95	2.5937245
18	0xc03c941d	-2.94654
19	0xc027e47b	-2.6233203
20	0x4022b265	2.5421383
21	0xc02936cd	-2.6439698
22	0x403c7fc8	2.9452991
23	0x403409fa	2.813109
24	0xc02ad352	-2.669148
25	0xc027bca8	-2.6208897
26	0x40270498	2.6096554
27	0x40304e9c	2.754798
28	0x4033cd3f	2.8094022
29	0xc03b25e2	-2.9241872
30	0xc0295695	-2.6459095
31	0x402cd65e	2.700584
32	0x402b650f	2.6780431
33	0x4029d0f2	2.653378
34	0x40452c70	3.0808372
35	0x4037de7b	2.8729541
36	0xc03c5a17	-2.9429986
37	0xc02edaac	-2.7320967
38	0xc024bb4d	-2.573932
39	0xc026fbbe	-2.6091151
40	0x402a3ee1	2.6600878
41	0xc02ce722	-2.7016072
42	0x4028a161	2.6348498
43	0xc02c1f02	-2.6893926
44	0xc0331e13	-2.7987106
45	0x40314d42	2.7703404
46	0xc0242c31	-2.5651972
47	0x402e392e	2.72224
48	0x40322dee	2.7840533
49	0x4030906b	2.7588146
50	0xc0380533	-2.8753173
51	0xc026499f	-2.5982435
52	0x4026a931	2.6040766
53	0xc02425b1	-2.5648005
54	0x40322afc	2.7838736
55	0x4028de2f	2.638561
56	0xc02d32f4	-2.706235
57	0x402c42a4	2.6915674
58	0xc03b915f	-2.9307477
59	0xc029ef52	-2.655232
60	0xc02930f9	-2.643614
61	0x4029e459	2.6545622
62	0xc02e57e7	-2.7241151
63	0x40347518	2.8196468

net.0.weight f4 [64, 3]
0	0xbda0790b	-0.07835587
1	0xbd877464	-0.066139966
2	0xbe35bc4e	-0.17747614
3	0x3ef0f75e	0.47063726
4	0x3daf2c1d	0.08553336
5	0xbd869f3a	-0.06573339
6	0xbdc399a3	-0.09550788
7	0xbd7f96fe	-0.062399857
8	0x3e5e3186	0.21698579
9	0x3e4d2751	0.2003453
10	0x3e947320	0.28994083
11	0xbeb58330	-0.3545165
12	0x3e10bd58	0.14134729
13	0xbe0a30b8	-0.13495147
14	0xbe5aedfe	-0.2137985
15	0x3ea65750	0.3248849
16	0x3ea488d6	0.32135648
17	0x3e36a5e4	0.1783672
18	0x3da3ab85	0.07991699
19	0xbd37a91d	-0.044839013
20	0xbd755af0	-0.059901178
21	0xbe4e703f	-0.20160006
22	0xbee0346b	-0.43789992
23	0xbd2d7746	-0.042350076
24	0x3ed16896	0.40900105
25	0x3eb4259e	0.3518495
26	0x3c926554	0.017870583
27	0xbd189402	-0.037250526
28	0x3dd0c853	0.10194459
29	0xbeb38b62	-0.35067278
30	0xbb711d5e	-0.0036791186
31	0xbdb8de75	-0.09026805
32	0x3e7a60fa	0.24451056
33	0x3e918665	0.28422847
34	0x3d64c3a3	0.055850636
35	0xbe9569da	-0.2918232
36	0xbe80d6a4	-0.25163758
37	0x3d65cbb7	0.05610248
38	0x3be8b109	0.0071011824
39	0xbe40dd7c	-0.1883449
40	0x3e4179c9	0.18894114
41	0x3d986838	0.07441753
42	0x3e2ec99b	0.17069094
43	0x3b9e5323	0.004831688
44	0xbcb959b5	-0.022625783
45	0xbdbaf050	-0.09127867
46	0x3e66c0f2	0.2253454
47	0x3d27ff43	0.04101492
48	0xbd77ee8d	-0.060530234
49	0xbe4e9857	-0.201753
50	0xbcc3c632	-0.023898218
51	0xbe68efe5	-0.22747763
52	0x3d85db37	0.065359525
53	0xbd374737	-0.04474565
54	0xbe3838b8	-0.17990386
55	0x3efeeca8	0.4978993
56	0x3ea84ce0	0.3287115
57	0xbe3e3364	-0.18574291
58	0xbec88132	-0.39161068
59	0x3951bc6a	0.00020001983
60	0xbee116a8	-0.43962598
61	0xbea35b11	-0.31905416
62	0xbe6b7c0f	-0.22996543
63	0xbe475d9b	-0.19469301
64	0x3d9b65ad	0.075877525
65	0x3cb7e136	0.022446256
66	0x3dfa3260	0.122166395
67	0xbcdd70af	-0.02703127
68	0xbe1b1f93	-0.15148763
69	0x3ee6b476	0.45059556
70	0x3e9b8eed	0.3038248
71	0x3e1018fe	0.14072034
72	0xbd988a50	-0.07448256
73	0x3ed22ff5	0.41052213
74	0xbd8ca81e	-0.06868003
75	0x3e08ad4f	0.13347362
76	0x3e90f0bf	0.28308675
77	0xbe1b2a25	-0.15152796
78	0xbe9c729b	-0.30556187
79	0xbe1070b0	-0.14105487
80	0x3cf21816	0.0295525
81	0xbe05ae8d	-0.13054867
82	0xbdac105f	-0.0840156
83	0xbe95941b	-0.29214558
84	0xbdeb7030	-0.114960074
85	0xbdc6eae8	-0.097127736
86	0xbd66e9e3	-0.056375396
87	0x3e6a261f	0.22866105
88	0x3ea37324	0.31923783
89	0x3e5275b5	0.20552714
90	0x3ed5771e	0.41692442
91	0x3da23c56	0.079216644
92	0xbe4eec7a	-0.20207396
93	0x3d58cb92	0.052928515
94	0x3d60f93f	0.0549252
95	0x3dc439ea	0.09581359
96	0xbec3cc8b	-0.3824199
97	0xbdb75d50	-0.08953345
98	0xbea14ff4	-0.31506312
99	0x3e9d02e8	0.3066628
100	0x3d9e3e65	0.077267446
101	0x3eac2e65	0.33629146
102	0xba6202a6	-0.00086216105
103	0x3e79a5b9	0.24379624
104	0x3e78c3a5	0.24293382
105	0xbe86635a	-0.26247674
106	0x3e92b5f6	0.2865445
107	0xbe2a93bc	-0.16657919
108	0xbe54850b	-0.20753877
109	0xbd6a1bfd	-0.057155598
110	0x3e35b97f	0.17746542
111	0xbe2f5d1c	-0.17125362
112	0x3e12dc11	0.14341761
113	0xbd6d734c	-0.057971284
114	0xbdc0d1a2	-0.09414984
115	0xbde1006a	-0.10986407
116	0xbefc6ae6	-0.49300307
117	0x3f0e72df	0.5564403
118	0x3ee872a2	0.45399958
119	0xbe86bb1a	-0.26314622
120	0xbc8b402f	-0.016998379
121	0xbe3420b2	-0.17590597
122	0x3e61e38d	0.2205946
123	0x3e7d68c7	0.24747
124	0x3f038edf	0.5138988
125	0x3d42a1ec	0.047517702
126	0xbe3f1eae	-0.18664047
127	0xbd838b20	-0.0642302
128	0x3d17dfc7	0.037078645
129	0xbe2a6e1b	-0.16643564
130	0x3e427641	0.18990423
131	0xbe8a86a8	-0.2705586
132	0x3dbeb5de	0.09312032
133	0xbdbc6d72	-0.092005625
134	0x3dcdfabb	0.10057589
135	0x3e3d06c8	0.18459618
136	0xbe0e3eb2	-0.13891104
137	0xbb32d9ad	-0.002729039
138	0x3e0ef0e9	0.13959087
139	0x3e629409	0.22126783
140	0x3d3e1745	0.04640891
141	0x3e390147	0.18066894
142	0x3e0bf7bc	0.13668722
143	0x3e62d80a	0.22152725
144	0x3e536a7d	0.20646091
145	0xba193145	-0.00058438285
146	0xbc685ab4	-0.014181782
147	0x3e18c769	0.14919819
148	0x3e88e519	0.26737288
149	0x3d54a445	0.051914472
150	0xbe0bd224	-0.13654381
151	0x3ea5d753	0.32390842
152	0xbe7aa067	-0.24475251
153	0x3e9eeecd	0.31041566
154	0xbe815ef4	-0.25267756
155	0x3ec7aab5	0.38997427
156	0xbe2e08a2	-0.1699548
157	0xbe217dd4	-0.15770656
158	0x3e4b3c63	0.19847254
159	0x3e881752	0.26580292
160	0x3e5dd7b8	0.21664321
161	0x3e52a88d	0.2057211
162	0xbe259a95	-0.1617225
163	0x3d3aea43	0.045633566
164	0x3d850b20	0.064962626
165	0x3dc26156	0.094912216
166	0x3e3d39b5	0.18479045
167	0xbe862293	-0.26198253
168	0x3e427228	0.1898886
169	0xbdb67cd2	-0.08910526
170	0xbe8956b6	-0.26823968
171	0xbe7e69b9	-0.24845017
172	0xbd1bcad7	-0.03803524
173	0xbe690621	-0.22756244
174	0xbec3ba12	-0.38227898
175	0xbe59b71a	-0.21261254
176	0xbe3dfb04	-0.18552786
177	0xbdc10d87	-0.09426408
178	0xbdea3b9b	-0.1143715
179	0x3e4c5095	0.19952615
180	0xbebbec9b	-0.36703953
181	0x3e8e9a09	0.27851894
182	0xbe81d5a3	-0.25358304
183	0x3e25f694	0.16207343
184	0x3e04a1b3	0.12952308
185	0xbe7e0357	-0.24805962
186	0x3ed4da16	0.41572636
187	0xbd89a446	-0.06720786
188	0xbdcd2b0a	-0.10017975
189	0xbea7ab6c	-0.32747972
190	0x3dff2faa	0.12460263
191	0xbe3199b5	-0.17343791

net.0.bias f4 [64]
0	0x3ca5a3fa	0.020219792
1	0x3cdc648d	0.026903415
2	0x3d5dee2b	0.054182213
3	0x3d82712a	0.063692406
4	0xbd8255e6	-0.0636404
5	0x3d22019b	0.039552312
6	0xbd473f85	-0.04864456
7	0xbcca54b6	-0.024698596
8	0x3d6e9608	0.05824855
9	0x3d348a73	0.044077348
10	0xbd3f4595	-0.046697218
11	0x3d92cd76	0.07168095
12	0xbcabdb28	-0.020978525
13	0xbd98c793	-0.07459941
14	0x3d9bc453	0.07605805
15	0x3dbc8445	0.09204916
16	0xbd33fe3c	-0.04394363
17	0xbdb95a8c	-0.090504736
18	0x3c8c147c	0.017099611
19	0xbd9e9a01	-0.07744218
20	0xbd1f9232	-0.038957782
21	0x3cacc878	0.021091685
22	0x3cb77892	0.02239636
23	0x3d6be04b	0.05758695
24	0xbb8dcf8e	-0.004327721
25	0x3ca7bcbb	0.020475736
26	0xbdc37302	-0.095434204
27	0xbd7557fb	-0.059898358
28	0xbdbf1a22	-0.09331156
29	0xbc223bf4	-0.009901989
30	0x3d1bb93c	0.03801845
31	0x3d9b1f89	0.07574374
32	0xbcd8d15b	-0.026467016
33	0x3d779a29	0.060449753
34	0x3d547e87	0.05187848
35	0xbd975333	-0.07388916
36	0xbd7bad5f	-0.061444636
37	0xbd916e9d	-0.07101176
38	0xbd9802db	-0.0742242
39	0x3df1ffd8	0.118163764
40	0xbd368b60	-0.044566512
41	0x3d59a945	0.053139944
42	0xbe4b74a4	-0.19868714
43	0x3d3bf53a	0.045888163
44	0x3d736765	0.059424777
45	0x3d9bd55f	0.07609057
46	0x3d3b4068	0.04571572
47	0x3df2605c	0.11834785
48	0x3d48560c	0.048910186
49	0x3d80370d	0.062605
50	0xbc1c1c1f	-0.009528189
51	0xbd230d82	-0.039807804
52	0xbdde7fa0	-0.10864186
53	0x3d62c05d	0.055359233
54	0x3cd7f392	0.02636126
55	0xbcdaf8b3	-0.026729917
56	0xbcc71630	-0.024302572
57	0xbd247a82	-0.040155895
58	0xbcf410b8	-0.029793128
59	0xbcc4e76f	-0.024036137
60	0xbd52ba3c	-0.05144714
61	0xbd6bea79	-0.057596657
62	0x3d9853a5	0.07437829
63	0xbde09a53	-0.10966935

net.2.weight f4 [32, 64]
0	0xbdc32e36	-0.095302984
1	0x3ea4db3a	0.32198507
2	0xbe6d7d62	-0.23192361
3	0x3efde242	0.49586684
4	0xbc448e93	-0.011996883
5	0x3cab4517	0.020906968
6	0x3d8b6c67	0.068077855
7	0xbc22a463	-0.009926888
8	0x3e0d461b	0.13796274
9	0x3e11097b	0.14163773
10	0xbda799c8	-0.08183628
11	0x3e392967	0.180822
12	0xbe48dee2	-0.19616273
13	0xbe1af5a3	-0.15132765
14	0x3e55afbc	0.20867819
15	0xbd903051	-0.070404656
16	0xbce4b1bc	-0.027916782
17	0xbe8e5502	-0.2779923
18	0x3e1e8541	0.1548052
19	0xbeaa1f62	-0.33227068
20	0xbc89f869	-0.016842084
21	0xbd32e980	-0.043679714
22	0x3d48ad76	0.04899355
23	0xbdd6d394	-0.10489574
24	0xbe131c21	-0.14366199
25	0xbdead6de	-0.11466764
26	0x3e9e8d28	0.3096707
27	0xbe556057	-0.20837532
28	0xbcbac63c	-0.022799604
29	0xbdb4944b	-0.08817347
30	0x3dbce26c	0.09222874
31	0xbddbcc71	-0.107323535
32	0x3dfe833e	0.12427376
33	0x3e467c37	0.19383322
34	0xbea48cd0	-0.3213868
35	0xbd3b3cc8	-0.045712262
36	0xbe28d13f	-0.16486071
37	0x3eaf6a95	0.34261003
38	0xbeb081e1	-0.3447409
39	0x3eab0c75	0.3340794
40	0xbe517004	-0.20452887
41	0x3f0432cc	0.5164001
42	0xbe947eac	-0.29002893
43	0x3d46f012	0.048568793
44	0x3d518910	0.051156104
45	0x3e5e2cbf	0.21696757
46	0xbd059487	-0.03261235
47	0x3ed29490	0.4112897
48	0xbe55c59a	-0.2087616
49	0x3c4e88ea	0.012605885
50	0xbdb8d203	-0.090244316
51	0xbe0a54e5	-0.13508947
52	0x3e853a40	0.26021004
53	0x3cf970f5	0.03044937
54	0x3e7973da	0.243606
55	0xbcebbb7e	-0.028775927
56	0xbe973b25	-0.2953731
57	0xbee75796	-0.4518401
58	0x3ead8767	0.33892366
59	0x3eb87c87	0.36032507
60	0xbe5a0dc7	-0.21294318
61	0xbe5f62ef	-0.21815084
62	0x3d33650c	0.043797538
63	0xbe123720	-0.14278841
64	0x3eb19155	0.34681192
65	0xbe718c57	-0.23588692
66	0xbeb40bb6	-0.35165185
67	0xbeaca6da	-0.33721048
68	0x3e1e6bf3	0.15470867
69	0xbd16017b	-0.036622506
70	0xbd9e97cf	-0.07743799
71	0x3e831a1f	0.25605866
72	0xbdae088c	-0.08497724
73	0x3ea16880	0.3152504
74	0xbe14f149	-0.14545168
75	0xbae76a02	-0.0017655494
76	0xbd4691c1	-0.048478846
77	0xbdc85364	-0.097815305
78	0xbe18d186	-0.14923677
79	0xbe2b1dd1	-0.16710593
80	0x3e992acc	0.29915464
81	0x3d83c6e6	0.06434421
82	0x3dded813	0.10881057
83	0x3e745d0a	0.23863617
84	0xbeaadca3	-0.33371457
85	0x3c799d32	0.015235232
86	0xbe95c2b3	-0.29250106
87	0xbe786c82	-0.24260142
88	0xbdc53f91	-0.09631265
89	0x3ebc717e	0.36805338
90	0x3e391a0d	0.18076344
91	0x3c8dc536	0.017305952
92	0xbe7abe98	-0.24486768
93	0xbe98eea6	-0.29869574
94	0x3db38431	0.08765448
95	0xbe9c1123	-0.30481824
96	0x3b3bc50b	0.0028651382
97	0xbd8aa806	-0.06770329
98	0x3e0258b6	0.12729153
99	0x3e26d356	0.16291556
100	0x3dc7b11c	0.09750578
101	0x3e3eab2f	0.18619989
102	0x3e851403	0.2599183
103	0x3dee1e0e	0.11626826
104	0xbdac1030	-0.08401525
105	0x3ebdca53	0.37068424
106	0x3efe9953	0.49726352
107	0x3d076d4b	0.033063214
108	0xbe012ed3	-0.12615518
109	0x3dbb25e4	0.091380864
110	0x3e9fa1c3	0.31178102
111	0x3dbb3103	0.091402076
112	0x3e333a94	0.17502815
113	0xbe6401d1	-0.22266318
114	0x3d7b9971	0.06142563
115	0xbddf0246	-0.108891055
116	0x3dfd988a	0.1238261
117	0xbeb0150f	-0.34391066
118	0x3df7140c	0.120643705
119	0xbf111fe4	-0.56689286
120	0x3eb48fc8	0.35265946
121	0x3cc80806	0.024417888
122	0xbd25c9e8	-0.040475756
123	0xbe7d8828	-0.2475897
124	0x3e2a65a2	0.16640332
125	0x3ddb4feb	0.107086025
126	0xbea52a74	-0.32258952
127	0x3d9346c6	0.07191233
128	0x3e0c2200	0.13684845
129	0xbf0513ce	-0.51983345
130	0x3de0394b	0.10948428
131	0xbd1210d9	-0.0356606
132	0x3e95d3e9	0.29263237
133	0x3da7035a	0.08154936
134	0xbc9d4f64	-0.019202895
135	0x3d0c3acf	0.03423577
136	0xbe2a3913	-0.16623335
137	0xbe282cf3	-0.16423397
138	0x3e3b25be	0.18276116
139	0xbdc904f8	-0.09815401
140	0xbe404eab	-0.1878001
141	0x3e419aad	0.1890666
142	0xbe83864a	-0.25688392
143	0xbb8211ef	-0.003969423
144	0xbcbc1361	-0.02295846
145	0x3edf9476	0.43667954
146	0x3e64ad73	0.2233179
147	0x3d2fdc61	0.04293478
148	0xbe6b54fa	-0.22981635
149	0xbd582765	-0.052771945
150	0xbf054b43	-0.52067965
151	0xbe851bbd	-0.25997725
152	0x3e52f075	0.2059954
153	0x3e564750	0.20925641
154	0x3d555024	0.05207838
155	0xbd86de14	-0.06585327
156	0x3ebd5cd2	0.3698488
157	0xbe29d23e	-0.16584107
158	0x3ebf9fb8	0.37426543
159	0x3db74b3f	0.08949899
160	0xbda7279d	-0.081618525
161	0xbec2010e	-0.3789143
162	0xbe10951c	-0.1411938
163	0x3d170545	0.03687026
164	0x3e7e26f8	0.24819553
165	0x3b071595	0.002061223
166	0xbd3b8366	-0.04577961
167	0xbdc14823	-0.09437587
168	0xbedff4ce	-0.4374146
169	0xbe8547e6	-0.26031417
170	0x3e908823	0.28228864
171	0x3ee35056	0.4439723
172	0x3e296111	0.16540934
173	0xbe4dc714	-0.20095474
174	0xbe676241	-0.22596075
175	0xbe47fa55	-0.19529088
176	0x3c66ea5d	0.0140939625
177	0xbbc0effd	-0.005887984
178	0x3dcdf231	0.1005596
179	0x3e946023	0.28979596
180	0x3e4c0d5e	0.19926974
181	0xbcf3d7e9	-0.02976604
182	0x3c9e8531	0.01935062
183	0xbe4c2a76	-0.19938073
184	0xbe90d017	-0.2828376
185	0xbdb9023a	-0.09033628
186	0x3eb6688a	0.35626632
187	0x3e2f6417	0.17128025
188	0xbb93741e	-0.004499926
189	0xbe84a281	-0.2590523
190	0x3d572aa1	0.05253089
191	0x3e8ae715	0.27129427
192	0xbec27db3	-0.37986526
193	0x3e45eff1	0.19329812
194	0x3cfec8f7	0.031101687
195	0xbdbf7365	-0.09348182
196	0x3df2e318	0.11859721
197	0x3e724611	0.2365954
198	0xbcbb20ea	-0.022842843
199	0x3e21bb97	0.15794216
200	0x3dfc4d85	0.12319473
201	0xbc980f22	-0.018561903
202	0x3d6f4e74	0.058424428
203	0x3de9d478	0.11417478
204	0xbe6792af	-0.22614549
205	0x3d46abda	0.048503734
206	0x3dad3666	0.08457641
207	0xbd15f2e0	-0.036608577
208	0x3e23d308	0.15998471
209	0xbe531afe	-0.20615765
210	0x3ddb5f40	0.10711527
211	0xbee5d198	-0.4488647
212	0xbe7bfb87	-0.24607669
213	0xbe926123	-0.28589734
214	0x3d5070ae	0.05088871
215	0x3e311461	0.1729293
216	0xbe798116	-0.24365649
217	0x3df40b0f	0.11916172
218	0xbebc7ccd	-0.36813965
219	0x3e6c6ec0	0.23089123
220	0x3bde7a18	0.006789457
221	0x3e702dce	0.23454973
222	0x3eb5ce2d	0.35508862
223	0x3e97f2b1	0.29677346
224	0x3dbd93bd	0.092566945
225	0x3ed51551	0.41617826
226	0xbe9da0c6	-0.30786723
227	0xbe1481aa	-0.14502588
228	0x3e9076ee	0.28215736
229	0xbdde8aea	-0.108663395
230	0xbdbc8ae2	-0.09206177
231	0x3e85440e	0.26028484
232	0x3d22c415	0.03973778
233	0x3d1cf64b	0.03832082
234	0xbee061f9	-0.43824747
235	0xbe8aec7c	-0.27133548
236	0xbdb10be2	-0.086448446
237	0x3e91bd84	0.284649
238	0xbeaff48c	-0.34366262
239	0xbe68b816	-0.22726473
240	0x3daa3121	0.08310152
241	0x3d5f2acb	0.05448417
242	0xbd4eee95	-0.0505205
243	0xbe1a4e98	-0.15069044
244	0xbeafaabb	-0.34309945
245	0xbdffb0eb	-0.12484916
246	0xbdc32d3a	-0.09530111
247	0x3dfff68a	0.124981955
248	0xbe242c66	-0.16032562
249	0xbeaace0e	-0.33360332
250	0xbe2baa7f	-0.16764258
251	0xbed6189f	-0.4181566
252	0x3db03934	0.08604661
253	0xbe0d3832	-0.13790968
254	0xbeabfc4f	-0.33590934
255	0x3ec17df9	0.37791422

net.2.bias f4 [32]
0	0x3d59d0f8	0.053177804
1	0xbdad0e05	-0.0844994
2	0xbd88ba0b	-0.0667611
3	0x3cf90560	0.03039807
4	0xbdecdd44	-0.115656406
5	0xbda34e10	-0.079738736
6	0xbc7ed46c	-0.015553575
7	0x3d6b6bda	0.057475902
8	0x3d8db764	0.069197446
9	0x3d699df3	0.057035398
10	0xbd4c1b19	-0.04983053
11	0xbd408882	-0.047005184
12	0xbdabcead	-0.0838903
13	0xbe0d971a	-0.13827172
14	0x3d86c5c1	0.06580687
15	0x3d853cef	0.06505763
16	0xbdd47418	-0.103737056
17	0x3d8ba10b	0.06817826
18	0x3e05dec5	0.13073261
19	0xbd124c31	-0.035717193
20	0x3d5bcc5d	0.053661693
21	0x3d0c3343	0.034228574
22	0x3d9eea56	0.0775954
23	0xbd256c08	-0.04038623
24	0xbd5dd706	-0.05416014
25	0xbd868232	-0.065678015
26	0x3d954789	0.07289035
27	0x3d472ef5	0.048628766
28	0x3d81095e	0.06300615
29	0xbd8e51a6	-0.06949167
30	0xbd8a45e9	-0.067516156
31	0x3d9454ab	0.07242712
