auto-iss-demo/orientation_agent/weights/orientation_net_3M.pt (torch, 68335 bytes, 16 tensors)

net.0.weight f4 [128, 3]
-0.36094564 0.13764468 0.20113273 0.11358168 0.104691416 -0.094107516 -0.4903999 0.102012336
0.1617069 0.19229093 0.12454824 -0.033482384 0.6212249 0.48246813 0.83581084 0.30336526
0.07801998 -0.2626785 0.28703836 -1.1950673 0.20038433 0.43944526 0.07662026 0.27077907
0.25231066 -0.15444158 -0.25448188 -0.38473415 -0.22109209 -0.38650045 1.9456614 0.13754395
0.12360389 0.01976162 -0.02491451 0.21138206 -0.9293673 -0.13637188 -0.4752452 -0.1891839
0.1267093 0.057464857 0.26827684 0.36940524 0.39100504 -0.1407613 0.2087226 -0.3884944
-0.8270468 -0.7115289 -0.8712606 -0.2697718 0.26466477 -0.09114818 4.163592 -1.7342881
-1.0302029 0.31247717 0.03810694 -0.25858992 -0.74188334 -0.99794745 -0.55575407 3.6937454
-0.1479939 -1.0501462 0.045992874 0.23083079 -0.17641059 0.9355023 0.8050963 0.8492095
0.12572026 -0.014387436 -0.34628463 0.29516736 -0.096473016 0.4356575 -0.18527007 0.07036721
-0.23924018 0.15949914 0.14663526 0.16406311 -0.0730197 0.443978 0.44388533 0.08591171
0.03732274 0.035139255 -0.80101097 -0.42140755 -0.3230316 0.17719977 0.27209675 0.02205674
1.5548321 0.5290981 -14.836414 0.14209324 0.09078637 0.3596555 -13.405399 0.90896916
-0.060007013 0.11678523 0.25431997 0.0605874 0.6656784 0.231497 0.13238397 0.21189238
0.0062598763 -0.022011725 -0.341092 -0.09365592 0.034768615 0.3440053 0.17637715 0.25183168
0.022169897 0.06764347 0.21390457 -2.428624 0.7258487 -0.36910433 1.0184062 0.40511724
0.55909574 0.016040226 0.05567604 -0.10128632 -0.054755084 -0.54851025 -0.17610551 -0.0046324707
-0.0031515541 0.39208338 0.6054168 0.44693592 0.2890956 -0.57607806 -0.084473036 -0.5473699
-0.0388074 0.26474866 -0.14632869 0.05750901 0.17254512 -0.043613166 -1.2533864 -3.3062403
0.011359529 -0.07875336 0.03289987 0.045159556 -0.2412175 -0.3048585 -0.049819987 1.8806913
0.7361718 0.68084216 0.5210623 0.7548258 0.37245283 -0.06077714 0.34047177 0.10090072
-0.61065453 0.1438272 -0.30566165 -0.8867107 -0.1507446 -0.60533816 0.06795653 -0.018784465
-0.21179321 -0.0018402893 0.014981219 0.029550351 -0.011587336 0.10613851 0.31293574 2.0575058
1.3081292 -1.4032344 0.53290343 0.113559835 0.025756428 -0.4452423 -0.21642978 0.031123005
0.102649346 -0.08854204 -0.06507199 -0.3168297 -0.034418296 -0.43964508 -4.506356 -0.17292261
1.800803 -0.47849768 -0.6559168 -0.25771537 -0.124287836 0.22037382 0.14027072 -0.5071773
-0.58046156 -0.071159 0.9893219 -0.607755 -8.471867 -0.07996028 -0.060586426 0.19548286
0.039536357 0.2665058 -0.7038803 0.55287933 -0.18040672 0.6624062 0.09093069 -0.17164227
0.13479944 -0.9634198 -0.89728963 -0.5970534 -0.0899669 -0.1349244 -0.055928577 -0.07611411
0.33897457 -0.29994932 0.1205013 0.19652006 0.13597985 0.28923637 -0.042372633 0.07292502
-0.1262033 0.0040122 -0.22522606 0.94062245 -5.8367424 0.52384806 -0.4000533 0.5967506
0.7077943 -0.34688145 -0.2245803 -0.48432338 0.2520914 0.038206972 -0.08820316 0.050387118
00000000: decd b8be baf2 0c3e bdf5 4d3e 839d e83d
00000010: 7468 d63d 71bb c0bd b215 fbbe d8eb d03d
00000020: 7e96 253e eae7 443e 2613 ff3d d324 09bd
00000030: 9808 1f3f 1006 f73e b3f7 553f b152 9b3e
00000040: f0c8 9f3d cc7d 86be b1f6 923e f7f7 98bf
00000050: 8d31 4d3e f8fe e03e 15eb 9c3d 8ea3 8a3e
00000060: dd2e 813e ef25 1ebe 734b 82be e0fb c4be
00000070: f765 62be 63e3 c5be 6f0b f93f 52d8 0c3e
00000080: 0924 fd3d 1fe3 a13c 8419 ccbc 8a74 583e
00000090: 04eb 6dbf 12a5 0bbe 5753 f3be 6db9 41be
000000a0: 15c0 013e 4560 6b3d 955b 893e af22 bd3e
000000b0: d031 c83e bb23 10be 61bb 553e bde8 c6be
000000c0: 57b9 53bf c226 36bf ef0a 5fbf 881f 8abe
000000d0: 2482 873e e6ab babd 253c 8540 27fd ddbf
000000e0: b0dd 83bf 02fd 9f3e 0616 1c3d e665 84be
000000f0: 11ec 3dbf 7c79 7fbf e645 0ebf 5366 6c40
00000100: b78b 17be 316b 86bf 0663 3c3d e85e 6c3e
00000110: faa4 34be 147d 6f3f cb1a 4e3f cb65 593f
00000120: d0bc 003e 48b9 6bbc 384c b1be 2d20 973e
00000130: a593 c5bd 800e df3e 70b7 3dbe af1c 903d
00000140: 61fb 74be be53 233e 8e27 163e 2900 283e
00000150: 5a8b 95bd 1651 e33e f044 e33e 7bf2 af3d
00000160: bbdf 183d 2eee 0f3d 0e0f 4dbf bbc2 d7be
00000170: 6664 a5be db73 353e 4450 8b3e 56b0 b43c
00000180: bd04 c73f f972 073f f461 6dc1 e480 113e
00000190: 34ee b93d c424 b83e 847c 56c1 34b2 683f
000001a0: eac9 75bd 182d ef3d 3a36 823e 7e2a 783d
000001b0: e669 2a3f 8d0d 6d3e aa8f 073e 51fa 583e
000001c0: a61f cd3b ef51 b4bc 9ca3 aebe adce bfbd
000001d0: 8969 0e3d 7621 b03e 369c 343e 15f0 803e
000001e0: a59d b53c a988 8a3d cd09 5b3e 936e 1bc0
000001f0: 38d1 393f 3efb bcbe 225b 823f 876b cf3e
00000200: e620 0f3f cb66 833c 8f0c 643d 346f cfbd
00000210: de46 60bd 2b6b 0cbf 0155 34be fbcb 97bb
00000220: 4e8a 4ebb 27bf c83e 98fc 1a3f c9d4 e43e
00000230: 5704 943e da79 13bf 3300 adbd 6f20 0cbf
00000240: 82f4 1ebd 238d 873e 30d7 15be 918e 6b3d
00000250: abaf 303e b8a3 32bd f76e a0bf 7199 53c0
00000260: 511d 3a3c 7149 a1bd 04c2 063d 3af9 383d
00000270: b801 77be 6a16 9cbe 0b10 4cbd 7eba f03f
00000280: c175 3c3f ac4b 2e3f 5764 053f 433c 413f
00000290: 23b2 be3e 73f1 78bd 5152 ae3e 09a5 ce3d
000002a0: db53 1cbf 7047 133e af7f 9cbe 79ff 62bf
000002b0: cb5c 1abe 71f7 1abf cb2c 8b3d e1e1 99bc
000002c0: 52e0 58be dd35 f1ba c973 753c 9413 f23c
000002d0: cfd8 3dbc 265f d93d 1d39 a03e 2dae 0340
000002e0: c770 a73f 2f9d b3bf 5c6c 083f 0f92 e83d
000002f0: 25ff d23c ccf6 e3be c59f 5dbe acf5 fe3c
00000300: d239 d23d 8755 b5bd 7744 85bd 8137 a2be
00000310: 33fa 0cbd 2919 e1be 1134 90c0 a012 31be
00000320: b680 e63f a6fd f4be 2aea 27bf 45f3 83be
00000330: 9f8a febd ada9 613e 21a3 0f3e 5fd6 01bf
00000340: 2199 14bf cfbb 91bd 3344 7d3f d595 1bbf
00000350: c48c 07c1 37c2 a3bd 7929 78bd a92c 483e
00000360: e0f0 213d 7373 883e 8031 34bf 8089 0d3f
00000370: 8abc 38be 7493 293f df39 ba3d fec2 2fbe
00000380: dd08 0a3e aea2 76bf c6b4 65bf 7ed8 18bf
00000390: 9140 b8bd 9f29 0abe 5d15 65bd b7e1 9bbd
000003a0: 138e ad3e f592 99be 63c9 f63d 8e3c 493e
000003b0: 4d3e 0b3e ca16 943e ed8e 2dbd b659 953d
000003c0: 703b 01be c678 833b a9a1 66be a2cc 703f
000003d0: 98c6 bac0 e81a 063f c9d3 ccbe a6c4 183f
000003e0: 0232 353f 729a b1be 61f8 65be 3cf9 f7be
000003f0: 2012 813e ea7e 1c3d dca3 b4bd b962 4e3d

net.0.bias f4 [128]
-0.86631036 0.12440882 -0.43206474 0.41983238 0.56698674 0.62525547 -0.49020883 0.86031467
0.7444269 -0.009573389 0.6572911 0.72946304 -0.5748377 0.42861292 0.98679316 -0.5754009
-1.4762713 -0.12850729 6.5453515 -0.09762683 -1.2490562 5.8326936 0.22483177 0.8344214
-0.391266 -0.32641545 -1.2262496 0.325826 0.81473833 -0.13236058 -0.49407384 0.49569172
-4.9934783 0.09653988 -7.641672 -0.0959876 0.74424154 0.36138394 0.19063681 0.6504182
0.24199799 -2.075174 1.1667987 -0.06703201 -1.2783967 0.36992115 1.2397356 -0.8422085
-0.33987132 0.3255739 -1.9669569 -0.076583505 -0.19994013 1.3449595 2.1819925 0.54550815
-0.61638004 -1.1539849 0.81685734 -0.1756619 0.30359122 3.9389527 1.1067723 -0.63274735
0.060736522 0.16514866 -6.028234 -0.72529274 0.3772698 -1.153412 -3.6975572 -0.22533597
0.34977353 1.166308 0.3211003 -1.5970516 0.07232458 -0.011971255 0.2326243 0.47107497
-0.24773553 -3.2493231 0.7124572 -0.5482598 1.1292559 0.29657462 0.7406577 -0.12562875
-6.1340456 0.34240195 0.18518706 0.85100615 -0.07815262 0.0048206863 -0.123760745 -6.3164835
-0.4991756 1.1505827 0.2876544 -3.2372277 -3.7390993 -0.08228242 0.14923167 0.18914172
0.14263451 -0.20624061 -1.0582354 -1.1634469 -0.31193203 -0.054562323 1.4882978 -0.4584845
0.26152915 0.056749556 0.6137709 0.8656852 -0.957362 0.57820493 -0.76754624 3.235527
-0.90738076 0.40840253 0.23783022 -5.8507767 -0.09379682 0.23095405 -0.5301432 -0.5432685
00000000: 84c6 5dbf 0dca fe3d 9737 ddbe 45f4 d63e
00000010: 0b26 113f be10 203f a7fc fabe 953d 5c3f
00000020: c392 3e3f b4d9 1cbc 3b44 283f 17be 3a3f
00000030: 9028 13bf 2773 db3e 7a9e 7c3f 794d 13bf
00000040: 75f6 bcbf 6a97 03be 8573 d140 93f0 c7bd
00000050: 13e1 9fbf 6da5 ba40 4d3a 663e a49c 553f
00000060: 0454 c8be ed1f a7be bff5 9cbf aad2 a63e
00000070: b192 503f 8889 07be 3ff7 fcbe 4ecb fd3e
00000080: 93ca 9fc0 b3b6 c53d 9488 f4c0 2695 c4bd
00000090: 9d86 3e3f 5107 b93e 4c36 433e cf81 263f
000000a0: 52ce 773e a7cf 04c0 a959 953f 1448 89bd
000000b0: 81a2 a3bf 4e66 bd3e a8af 9e3f fa9a 57bf
000000c0: 9d03 aebe 9fb1 a63e 3ec5 fbbf d0d7 9cbd
000000d0: 1bbd 4cbe a227 ac3f c4a5 0b40 6ca6 0b3f
000000e0: 15cb 1dbf c7b5 93bf 901d 513f b7e0 33be
000000f0: 4f70 9b3e cd17 7c40 b7aa 8d3f bbfb 21bf
00000100: dcc6 783d bb1c 293e 4be7 c0c0 c9ac 39bf
00000110: 8229 c13e 01a3 93bf c7a4 6cc0 79be 66be
00000120: 8415 b33e 9549 953f 4267 a43e 306c ccbf
00000130: e91e 943d 1523 44bc 1135 6e3e bd30 f13e
00000140: 62ae 7dbe e9f4 4fc0 9863 363f c15a 0cbf
00000150: 758b 903f a1d8 973e be9b 3d3f d3a4 00be
00000160: 1a4a c4c0 4f4f af3e ada1 3d3e 8adb 593f
00000170: 7b0e a0bd d9f6 9d3b 4676 fdbd a220 cac0
00000180: f293 ffbe 4b46 933f 7047 933e bd2e 4fc0
00000190: 674d 6fc0 af83 a8bd 30d0 183e 5eae 413e
000001a0: c80e 123e bd30 53be 4274 87bf d4eb 94bf
000001b0: 8eb5 9fbe be7c 5fbd 8b80 be3f 7bbe eabe
000001c0: 26e7 853e 3972 683d 1720 1d3f 8c9d 5d3f
000001d0: ad15 75bf 3d05 143f e97d 44bf e012 4f40
000001e0: 1b4a 68bf 231a d13e c489 733e 9039 bbc0
000001f0: 8c18 c0bd 387f 6c3e 77b7 07bf a513 0bbf

net.2.weight f4 [64, 128]
-0.65387 0.6751747 -0.0051842947 0.300049 -0.22431824 0.7561466 0.31798342 -0.23797134
-0.7637718 0.10692865 -0.5358108 -0.81623834 0.20825839 0.091517195 -1.7150502 0.062197063
-0.7603845 -0.86833084 0.08645999 1.1109736 -0.47928333 0.034342412 -0.36184558 0.4249873
0.00066359324 0.7139508 0.74139214 -0.70230746 -0.16874346 1.202094 0.42824998 -0.17326903
2.5587652 0.21627954 0.10120151 0.098673284 -0.40613943 0.74044454 0.54019076 -0.26571727
-0.19389011 0.17401792 0.29260764 0.7067993 0.6366523 -0.510958 -1.1021335 -0.043987725
-0.27922574 -0.7794517 -0.3134407 -0.2841133 0.08309971 -0.7977728 -1.3156134 -0.09396052
-0.10886825 -0.8174391 -0.0068487255 0.8310711 -0.27729732 -0.2710927 0.8804472 0.2535345
0.4615005 -0.2603056 0.10127378 -0.16035724 -0.6261826 0.11000491 2.2248068 -1.0441623
-1.3641707 1.0975696 0.9171592 -0.33716762 -2.1298137 0.13639133 -1.8447444 0.87136686
-0.06438296 -0.18588303 -0.22418788 -0.15564647 1.3853748 0.960686 0.43862188 0.20644052
1.8199774 -0.35644212 0.094000645 0.9122214 0.30171245 1.0489495 -1.2137041 0.09343972
-0.34270322 1.1858786 1.1734782 -0.7664826 -0.36621857 -0.871402 -0.72749704 -0.011904431
-0.52389973 0.70905405 -0.179251 -0.092532575 -0.21376467 -0.12930647 0.5043271 -0.06630663
1.1003875 0.45422456 0.24193822 -1.6209754 -0.06241098 -0.3812818 -1.2562078 -0.46557128
1.2546633 0.0020573824 -1.8870364 0.8720421 0.2900542 0.6379186 -0.5654889 1.1563531
-0.80706024 1.0299435 -0.74208695 -0.075619616 0.12606783 0.9149578 0.61373055 -0.36994874
0.13026859 -0.30341282 -0.2863126 -0.3945857 -0.15658732 -0.46867293 0.717822 0.45694765
-0.30700406 -0.55839187 1.8711839 0.58231497 -0.5008995 1.2445382 -1.2541342 0.16429381
-0.75031066 0.22378665 -1.0155685 -0.94788295 -0.03559861 1.4169173 -1.4219806 0.00596176
-0.045622025 0.638328 -1.1152034 0.68092495 0.41817465 -0.91858137 -0.062206622 0.3826206
0.40863153 -0.7074281 -0.08902736 1.2784235 0.043489896 0.21678086 0.39657685 0.98113626
-0.39137352 -0.46795225 -0.3738376 2.2104886 -0.14454225 -0.4313912 -0.6514641 -0.3408275
-0.05596996 0.017591424 0.40846398 -0.50762093 -0.052183554 0.2095493 -0.40238726 -0.8815678
-0.752673 0.054377712 -0.92203784 -0.116938375 0.2749532 -0.14226921 -0.1746616 0.71536016
0.21646889 0.9731226 0.41500384 -0.46032387 -1.6186403 -0.48610795 0.47136217 0.054375116
-0.6306713 -0.062223017 -0.1511257 0.023556206 -0.40233105 0.8940016 0.4553165 1.2056623
-0.09328884 -0.31746468 0.30001408 -1.0579635 0.08843521 0.17492676 -0.6756361 -1.3904833
-1.6926153 -0.47099808 0.027629158 0.5032419 0.05746136 0.05372218 -0.31495667 -0.9973416
0.4106625 0.030135099 -0.20579603 -0.021817638 -0.7990685 1.1308744 0.47840545 -0.20799613
-0.2845049 -0.018666396 -1.1035483 0.05800291 -0.50879866 -0.006877546 0.11076271 0.25336674
0.5822164 -0.8645039 0.26774785 -0.4558417 -0.056098368 0.4877672 -0.29525504 -0.5632686
00000000: 0664 27bf 40d8 2c3f 04e1 a9bb 06a0 993e
00000010: aeb3 65be d392 413f b9ce a23e c2ae 73be
00000020: 8c86 43bf 68fd da3d e62a 09bf fff4 50bf
00000030: b041 553e 5e6d bb3d c486 dbbf 59c2 7e3d
00000040: 8fa8 42bf ee4a 5ebf ef11 b13d 6234 8e3f
00000050: a064 f5be a1aa 0c3d d343 b9be ef97 d93e
00000060: fdf4 2d3a 7bc5 363f e0cb 3d3f 6cca 33bf
00000070: 16cb 2cbe 37de 993f 9543 db3e 706d 31be
00000080: cfc2 2340 6278 5d3e bd42 cf3d 3815 ca3d
00000090: 82f1 cfbe c68d 3d3f f149 0a3f 180c 88be
000000a0: 218b 46be c131 323e abd0 953e cdf0 343f
000000b0: a5fb 223f 25ce 02bf b612 8dbf 792c 34bd
000000c0: adf6 8ebe 268a 47bf 4d7b a0be 4c77 91be
000000d0: 2e30 aa3d d73a 4cbf 0566 a8bf 606e c0bd
000000e0: 51f6 debd b043 51bf 466b e0bb 13c1 543f
000000f0: eaf9 8dbe aacc 8abe fd64 613f 46cf 813e
00000100: cb49 ec3e c746 85be a168 cf3d b034 24be
00000110: 814d 20bf 414a e13d 3c63 0e40 1ca7 85bf
00000120: 259d aebf 297d 8c3f f2ca 6a3f 3ca1 acbe
00000130: de4e 08c0 2baa 0b3e 9620 ecbf e611 5f3f
00000140: 37db 83bd 1f58 3ebe 8291 65be ca61 1fbe
00000150: f653 b13f 85ef 753f 0c93 e03e 2565 533e
00000160: 05f5 e83f 957f b6be 6983 c03d 5787 693f
00000170: 0e7a 9a3e fa43 863f a85a 9bbf 535d bf3d
00000180: cc76 afbe dfca 973f 8934 963f 3438 44bf
00000190: 0081 bbbe 3414 5fbf 3f3d 3abf cd0a 43bc
000001a0: 4b1e 06bf 9184 353f 938d 37be b881 bdbd
000001b0: 20e5 5abe ea68 04be 951b 013f c5cb 87bd
000001c0: 7fd9 8c3f 1f90 e83e a7be 773e 1f7c cfbf
000001d0: a8a2 7fbd 5e37 c3be 6bcb a0bf 5c5f eebe
000001e0: cf98 a03f 26d5 063b 698a f1bf 273e 5f3f
000001f0: fc81 943e a24e 233f e1c3 10bf 6103 943f
00000200: 809b 4ebf 30d5 833f 69f9 3dbf 75de 9abd
00000210: ed17 013e ad3a 6a3f 721d 1d3f ec69 bdbe
00000220: 2165 053e ed58 9bbe 9197 92be 2307 cabe
00000230: 6d58 20be e6f5 efbe 2fc3 373f 0bf5 e93e
00000240: a32f 9dbe c5f2 0ebf f482 ef3f 9812 153f
00000250: f33a 00bf 074d 9f3f 7887 a0bf a33c 283e
00000260: 5c14 40bf 5428 653e 26fe 81bf 75a8 72bf
00000270: d9cf 11bd 8c5d b53f 7603 b6bf de5a c33b
00000280: 29de 3abd 7769 233f fcbe 8ebf 1951 2e3f
00000290: fd1a d63e 2628 6bbf 5fcc 7ebd d9e6 c33e
000002a0: 2738 d13e 021a 35bf fa53 b6bd 62a3 a33f
000002b0: 7622 323d cdfb 5d3e 1f0c cb3e bf2b 7b3f
000002c0: 1c62 c8be 7097 efbe a467 bfbe a578 0d40
000002d0: e202 14be 4fdf dcbe 5ac6 26bf f180 aebe
000002e0: c240 65bd e41b 903c 3122 d13e 72f3 01bf
000002f0: 6cbe 55bd 1794 563e b405 cebe 6dae 61bf
00000300: 2daf 40bf 2abb 5e3d ac0a 6cbf 637d efbd
00000310: aac6 8c3e 05af 11be 7eda 32be d821 373f
00000320: 05aa 5d3e 901e 793f 627b d43e 92af ebbe
00000330: 9b2f cfbf 24e3 f8be 6256 f13e 71b8 5e3d
00000340: ad73 21bf 90dd 7ebd b2c0 1abe f2f8 c03c
00000350: 56fe cdbe 4add 643f 3f1f e93e 2453 9a3f
00000360: 380e bfbd bb8a a2be 729b 993e 596b 87bf
00000370: 851d b53d 0020 333e 7df6 2cbf 5bfb b1bf
00000380: 9ea7 d8bf a926 f1be 8b56 e23c 76d4 003f
00000390: 9a5c 6b3d ca0b 5c3d 0042 a1be c751 7fbf
000003a0: 5b42 d23e e2dd f63c 32bc 52be e7ba b2bc
000003b0: c18f 4cbf 7ec0 903f 8ff1 f43e f0fc 54be
000003c0: a0aa 91be 45ea 98bc 1241 8dbf 7694 6d3d
000003d0: a140 02bf 0a5d e1bb 8fd7 e23d 49b9 813e
000003e0: 220c 153f 2150 5dbf 3f16 893e 1564 e9be
000003f0: 67c7 65bd 9fbc f93e ab2b 97be 5f32 10bf

net.2.bias f4 [64]
-0.39341772 0.2541528 0.061252058 -0.5603229 -0.8905174 -0.29125956 0.24570854 -0.082620345
0.35757542 0.17232504 -0.25519973 -0.24366409 0.40520212 -0.1403571 0.2732824 0.34273338
0.08234196 0.17202325 -0.6431469 0.22526443 -0.27325213 -0.049493197 0.052119497 0.05367526
0.034892652 -0.22810337 0.41911626 0.1844626 -0.16871503 -0.054733034 -0.029543309 0.27448514
0.29832235 0.24244629 0.0652341 0.15256967 -0.12986723 0.24283604 -0.31758234 0.13469274
0.023102812 0.12787448 0.17305902 -0.18394028 0.058015347 -0.15177634 0.042940926 0.16581401
0.080454014 -0.00867527 0.59863937 0.4413607 -0.25353363 0.123390816 0.025759317 -0.11366848
-0.66948885 -0.49539155 0.15150045 -0.16237836 0.37845466 0.66037476 -0.15837833 0.57819927
00000000: 0c6e c9be 5120 823e 70e3 7a3d 5271 0fbf
00000010: f3f8 63bf f91f 95be 059b 7b3e db34 a9bd
00000020: 2014 b73e fa75 303e 8aa9 82be 1483 79be
00000030: a776 cf3e c6b9 0fbe aceb 8b3e c07a af3e
00000040: e7a2 a83d dd26 303e 46a5 24bf b8ab 663e
00000050: b4e7 8bbe 61b9 4abd 417b 553d 97da 5b3d
00000060: 99eb 0e3d ee93 69be 6896 d63e c4e3 3c3e
00000070: a2c3 2cbe bf2f 60bd cf04 f2bc 5189 8c3e
00000080: b5bd 983e d743 783e 7599 853d 393b 1c3e
00000090: eafb 04be 03aa 783e 279a a2be e5ec 093e
000000a0: 1c42 bd3c 87f1 023e 6236 313e d75a 3cbe
000000b0: 80a1 6d3d 426b 1bbe d3e2 2f3d 26cb 293e
000000c0: 13c5 a43d b822 0ebc 6e40 193f 08fa e13e
000000d0: 29cf 81be 53b4 fc3d 3405 d33c 05cb e8bd
000000e0: 9f63 2bbf f6a3 fdbe ef22 1b3e 8346 26be
000000f0: cfc4 c13e 520e 293f ee2d 22be de04 143f

net.4.weight f4 [64, 64]
-1.0253426 -0.4883983 -1.8643827 0.020273834 -0.68464035 2.7391639 -0.488274 -0.18388367
-0.618768 -0.5779878 0.073915 0.6770729 -1.997404 -1.6376597 0.92943877 -0.010653338
0.33338863 0.7190025 -0.55356604 -0.435955 0.17067045 2.3449242 0.37490454 2.0946257
-0.51580215 0.62732047 0.7620072 -0.59179914 -0.30695853 -0.39807615 -1.1054128 -0.36284572
-0.6271988 -3.6561906 -0.7834656 -0.23317143 0.5583595 -0.5485645 -1.0825418 -1.9166892
0.8468665 0.944988 -0.73104095 0.047598463 0.049640033 -0.55342275 -0.2654835 2.1147206
0.10309047 -0.69754314 0.064437665 -1.9146496 0.49042186 1.0757644 0.8176727 0.5375834
-2.156565 0.9299134 -1.2682372 -2.8806593 -0.26413134 -0.9704199 0.1006862 -0.06383137
-0.30018958 -0.8236862 -0.46892 0.48541206 0.407592 0.46635038 0.27584955 0.10658954
-0.8376948 -1.2608078 -0.23818941 -1.1882552 0.66350216 -3.5663164 -0.60864925 -0.28294274
-0.28521097 1.1872904 -3.1201267 -0.1746241 -3.7658193 0.10218909 0.62690127 0.27127844
0.50948995 -0.45016265 0.051563308 -0.3321565 -1.0646982 0.74123496 -0.7594443 -0.24863052
-0.977189 1.6687964 -0.66341615 1.8031336 -1.3372619 -0.12660201 -0.23655595 -0.027175795
-1.460897 2.0604749 -0.5844227 -1.064 -0.066267855 0.30651298 2.58991 1.8769512
2.3503964 -1.2260762 2.3369093 1.3130634 0.9457133 -0.14468949 -0.6592211 0.9758098
-0.3694304 -1.5209793 1.9768591 -0.11161135 0.38142154 1.126055 -0.033666365 0.83448434
-0.54300106 -1.1247392 2.2821455 0.07821808 -0.16520926 -0.4353698 -0.68141586 2.5217233
0.7796084 0.40175104 0.90545255 -0.5784243 -0.19786373 0.89399976 -0.39659792 -0.31915778
0.17898671 -0.72793317 0.69773823 -0.27948233 -0.064690925 0.10159074 0.49858266 -0.64593154
1.2146072 -5.624992 -0.6017335 -0.51695544 -0.054348983 -0.66835403 0.11427064 0.6302521
-0.124117136 -0.02895225 -0.9008095 -0.5469706 0.19947079 0.29527405 -0.121384606 1.854353
-0.6356667 -0.24683776 0.42291075 0.36518228 2.130195 -9.7770055e-05 -0.07214856 -0.36530542
-0.2587651 -0.0432762 -0.29687843 0.07186286 -2.008532 2.0721269 0.23997718 -0.26333275
-0.08866465 0.003589501 1.1910564 0.6437434 -0.049968183 0.023758288 -0.18742535 0.38536575
-1.82081 1.5184578 -0.14066319 -1.5069209 0.15850021 3.2028332 -1.9434208 -0.11552561
0.23714645 -0.23951133 -0.025505032 0.89359474 -1.7099346 0.8556358 -0.20658183 0.8846877
2.3016243 0.8125128 -0.4100921 0.19074792 -0.556553 -1.1356655 2.9058657 -0.5832344
-0.8127187 0.06631995 -0.8949953 0.50133055 -0.21144462 -0.7721115 -0.64165604 0.9029794
0.067223296 -0.36692226 0.15199226 0.33729348 -0.4121388 0.37608057 1.0104129 -0.074624516
-1.7436594 0.84574604 0.23512974 -0.6163446 0.17793053 -0.7099336 0.026220573 0.5813115
-0.3879674 -1.1052403 0.433839 -1.9531114 -1.9935911 0.013271325 0.08972224 0.9400525
0.04272364 0.85128886 -0.27908263 -1.3000578 -0.4196192 -0.34340414 0.4114049 -0.084196344
00000000: 6d3e 83bf 580f fabe 18a4 eebf 5015 a63c
00000010: 9744 2fbf 764e 2f40 0dff f9be 004c 3cbe
00000020: 9467 1ebf 02f7 13bf bf60 973d a654 2d3f
00000030: efaa ffbf d59e d1bf b3ef 6d3f 578b 2ebc
00000040: eab1 aa3e 8c10 383f 81b6 0dbf 7e35 dfbe
00000050: 3cc4 2e3e 3d13 1640 7df3 bf3e 590e 0640
00000060: 9c0b 04bf 1398 203f e712 433f 2680 17bf
00000070: ab29 9dbe a3d0 cbbe 2b7e 8dbf eac6 b9be
00000080: 1a90 20bf 07ff 69c0 3491 48bf 7ec4 6ebe
00000090: a6f0 0e3f b96e 0cbf bb90 8abf 1256 f5bf
000000a0: 3ecc 583f bcea 713f 8025 3bbf 9bf6 423d
000000b0: 5953 4b3d 1dad 0dbf 74ed 87be 9557 0740
000000c0: 1921 d33d 3092 32bf e5f7 833d 3d13 f5bf
000000d0: 9318 fb3e a6b2 893f 0053 513f 119f 093f
000000e0: 2905 0ac0 ce0e 6e3f 9955 a2bf b95c 38c0
000000f0: 393c 87be 706d 78bf 9134 ce3d 05ba 82bd
00000100: 73b2 99be 19dd 52bf 4816 f0be ee87 f83e
00000110: e6af d03e 7ac5 ee3e 273c 8d3e 9e4b da3d
00000120: 2b73 56bf 2662 a1bf ede7 73be bf18 98bf
00000130: 47db 293f 873e 64c0 70d0 1bbf dfdd 90be
00000140: 2c07 92be 22f9 973f 28b0 47c0 a9d0 32be
00000150: 2f03 71c0 8348 d13d 9a7c 203f 02e5 8a3e
00000160: ef6d 023f b87b e6be 0c34 533d 6b10 aabe
00000170: 0848 88bf 93c1 3d3f f16a 42bf 0099 7ebe
00000180: 0f29 7abf 1f9b d53f a4d5 29bf 15cd e63f
00000190: 662b abbf f5a3 01be b93b 72be c69f debc
000001a0: acfe babf d2de 0340 ba9c 15bf 2731 88bf
000001b0: 71b7 87bd 45ef 9c3e 16c1 2540 f03f f03f
000001c0: e56c 1640 11f0 9cbf ec8f 1540 7612 a83f
000001d0: 441a 723f 7b29 14be b7c2 28bf acce 793f
000001e0: fb25 bdbe 73af c2bf b809 fd3f 7e94 e4bd
000001f0: af49 c33e 9222 903f bee5 09bd c4a0 553f
00000200: 1e02 0bbf 74f7 8fbf ac0e 1240 cd30 a03d
00000210: 9e2c 29be cae8 debe 4571 2ebf ea63 2140
00000220: 6b94 473f 50b2 cd3e bdcb 673f 9d13 14bf
00000230: ca9c 4abe 2bdd 643f e20e cbbe a668 a3be
00000240: 4b48 373e d459 3abf f99e 323f 4f18 8fbe
00000250: ad7c 84bd ce0e d03d 3a46 ff3e c55b 25bf
00000260: 4078 9b3f efff b3c0 350b 1abf 3157 04bf
00000270: 0a9d 5ebd 4019 2bbf ba06 ea3d 3458 213f
00000280: 2031 febd 452d edbc 749b 66bf 4406 0cbf
00000290: 1242 4c3e 292e 973e 7e98 f8bd 705b ed3f
000002a0: 0ebb 22bf 0ac3 7cbe c287 d83e 2cf9 ba3e
000002b0: 1d55 0840 e609 cdb8 a0c2 93bd 5009 bbbe
000002c0: dc7c 84be 6242 31bd 7300 98be d62c 933d
000002d0: ca8b 00c0 ba9d 0440 94bc 753e 8dd3 86be
000002e0: d095 b5bd d53d 6b3b 8974 983f 5ecc 243f
000002f0: 70ab 4cbd bea0 c23c 6eec 3fbe a94e c53e
00000300: 4d10 e9bf d35c c23f 030a 10be c9e2 c0bf
00000310: e14d 223e 38fb 4c40 03c2 f8bf b198 ecbd
00000320: 85d6 723e 7542 75be eeef d0bc a0c2 643f
00000330: 23df dabf f30a 5b3f 308a 53be e57a 623f
00000340: d04d 1340 d700 503f 97f7 d1be 6c53 433e
00000350: 427a 0ebf 7d5d 91bf b4f9 3940 da4e 15bf
00000360: 550e 50bf c1d2 873d 691e 65bf 3357 003f
00000370: f084 58be 19a9 45bf 9243 24bf a829 673f
00000380: 5eac 893d 3cdd bbbe dca3 1b3e bbb1 ac3e
00000390: db03 d3be a28d c03e 3655 813f bdd4 98bd
000003a0: 3b30 dfbf d082 583f dac5 703e c2c8 1dbf
000003b0: 6c33 363e 35be 35bf 87cc d63c d5d0 143f
000003c0: aaa3 c6be 8478 8dbf 2520 de3e 8eff f9bf
000003d0: fe2d ffbf f96f 593c 4bc0 b73d 48a7 703f
000003e0: fcfe 2e3d 11ee 593f ebe3 8ebe 4b68 a6bf
000003f0: 54d8 d6be abd2 afbe aaa3 d23e 226f acbd

net.4.bias f4 [64]
0.08784449 -0.1834509 0.057587154 0.0798696 -0.019141681 -0.27156323 0.13949345 -0.164035
-0.38457382 0.22225209 -0.8411026 0.236924 -0.3146758 -0.09951231 -0.018535031 -0.16918226
-0.3180381 -0.008365482 -0.0206201 0.031929895 0.44747955 0.38945994 -0.049323533 0.2671866
0.068694286 -0.17437701 0.3132752 -0.2835043 0.2033368 0.16326794 -0.50427145 0.79117006
-0.05154572 0.028369641 0.14021428 -0.2507748 0.33307934 -0.432193 0.20179763 0.36429098
0.67269653 -0.16203374 -0.034040347 0.19648339 -0.38205317 0.47570404 0.41762704 -0.11018074
-0.27878347 -0.24838857 -0.04118388 -0.608975 -0.4519646 -0.24013968 0.14790837 0.076419614
-0.2430418 0.7978823 -0.21710153 0.46750787 0.47802654 -0.0050369175 -0.19829619 0.21780077
00000000: d0e7 b33d 8dda 3bbe 82e0 6b3d ac92 a33d
00000010: 04cf 9cbc 560a 8bbe 5fd7 0e3e cbf8 27be
00000020: dce6 c4be 0d96 633e 8052 57bf 349c 723e
00000030: 301d a1be 1ccd cbbd c7d6 97bc 1d3e 2dbe
00000040: e4d5 a2be 600f 09bc 7ceb a8bc ecc8 023d
00000050: 0a1c e53e 4b67 c73e 7907 4abd afcc 883e
00000060: 97af 8c3d e38f 32be 9b65 a03e 7a27 91be
00000070: 8637 503e b62f 273e ef17 01bf 1f8a 4a3f
00000080: 9b21 53bd 7367 e83c 5594 0f3e 8e65 80be
00000090: 6089 aa3e 6748 ddbe 0aa4 4e3e 5984 ba3e
000000a0: d735 2c3f 2cec 25be e46d 0bbd f132 493e
000000b0: 799c c3be 7b8f f33e 36d3 d53e 71a6 e1bd
000000c0: b5bc 8ebe 9359 7ebe 6eb0 28bd c9e5 1bbf
000000d0: e767 e7be 2de7 75be 4b75 173e e381 9c3d
000000e0: f3df 78be 0442 4c3f dd4f 5ebe 315d ef3e
000000f0: e5bf f43e ba0c a5bb 280e 4bbe 2a07 5f3e

action_head.0.weight f4 [3, 64]
0.4004388 -0.6419446 -0.55635494 0.41776288 -0.60437196 -0.3569271 0.62836456 0.56412435
-0.39909884 0.38796988 -0.47877225 -0.5582772 0.5365438 -0.5481832 0.617595 0.27642906
-0.3789201 -0.4139393 0.40705985 0.35742435 -0.4855003 0.16452047 -0.5910103 0.47035915
0.5274684 -0.40062535 0.69446546 -0.6729457 -0.4231947 -0.286973 -0.4354606 0.22631314
0.47184658 0.5210989 0.6620617 -0.4120915 0.40777472 -0.4125098 0.4219488 0.34275457
0.69778496 0.6355438 0.74889576 -0.30858856 0.4479233 -0.457624 0.77970207 0.34444293
-0.5548753 -0.5299932 -0.3501269 -0.4997966 -0.2378576 -0.41122922 0.2557261 -0.57525164
-0.67942107 0.56974083 0.46689495 0.49734297 0.4294469 -0.74144393 -0.713813 -0.45332962
0.4455161 -0.63611776 -0.46681637 0.47689152 -0.51541203 -0.32102796 0.6662748 0.5776853
-0.35244063 0.5252163 -0.5847663 -0.54342794 0.42091227 -0.6128989 0.56160545 0.32367787
-0.5072948 -0.4342454 0.35894775 0.30665058 -0.3799728 0.12222525 -0.6519411 0.5365593
0.5850507 -0.38082275 0.59993213 -0.655193 -0.45410067 -0.26070544 -0.46352577 0.39327288
0.40568307 0.5058323 0.54767627 -0.4992159 0.31080288 -0.42307332 0.3935647 0.48280942
0.43724644 0.5620936 0.63979304 -0.3680563 0.36702296 -0.70694315 0.7822197 0.3589596
-0.5534158 -0.3736776 -0.6797375 -0.6012796 -0.21557014 -0.3961963 0.4340905 -0.53989094
-0.52477324 0.46132332 0.5136674 0.20058903 0.38481236 -0.37610197 -0.741883 -0.43020064
0.37664935 -0.5347614 -0.5368757 0.4711861 -0.35900655 -0.3601556 0.64045566 0.5514029
-0.41520044 0.4477759 -0.64078605 -0.44701296 0.6509387 -0.58431137 0.5483838 0.33781317
-0.43782786 -0.39125586 0.37452316 0.34353292 -0.42868027 0.21889046 -0.5404122 0.5190917
0.5842983 -0.34324366 0.5998257 -0.6598965 -0.38289076 -0.27463 -0.36510268 0.33094802
0.4306721 0.4380629 0.6307421 -0.3256161 0.23609492 -0.3830369 0.4436967 0.5978106
0.6202309 0.56865424 0.75158346 -0.32523 0.23984519 -0.590211 0.84963566 0.37301457
-0.5382765 -0.20252937 -0.5099466 -0.38182542 -0.24690019 -0.3971736 0.4674815 -0.6418358
-0.78598756 0.5087966 0.46628386 0.37800118 0.41865507 -0.59145033 -0.71787864 -0.4301276
00000000: 5006 cd3e 7b56 24bf 476d 0ebf 04e5 d53e
00000010: 1fb8 1abf 26bf b6be 80dc 203f 746a 103f
00000020: af56 ccbe fda3 c63e a321 f5be 41eb 0ebf
00000030: ef5a 093f bc55 0cbf b51a 1e3f 1c88 8d3e
00000040: d101 c2be daef d3be 266a d03e 5300 b73e
00000050: 7f93 f8be 0e78 283e 734c 17bf ead2 f03e
00000060: 2b08 073f c41e cdbe 7dc8 313f 2b46 2cbf
00000070: faac d8be 20ee 92be b1f4 debe a2be 673e
00000080: e095 f13e bd66 053f e07c 293f a8fd d2be
00000090: d9c7 d03e 7c34 d3be ac09 d83e 877d af3e
000000a0: 09a2 323f 00b3 223f a2b7 3f3f 52ff 9dbe
000000b0: 3456 e53e b14d eabe 8e9a 473f d35a b03e
000000c0: 4f0c 0ebf a2ad 07bf d543 b3be 57e5 ffbe
000000d0: f190 73be a38c d2be 88ee 823e b143 13bf
000000e0: 8aee 2dbf 89da 113f db0c ef3e bda3 fe3e
000000f0: 77e0 db3e 45cf 3dbf 73bc 36bf d21a e8be
00000100: b01a e43e 9dd8 22bf 8e02 efbe 202b f43e
00000110: 0bf2 03bf c75d a4be fc90 2a3f 2fe3 133f
00000120: 1973 b4be 9374 063f 3fb3 15bf 181e 0bbf
00000130: d081 d73e f1e6 1cbf 60c5 0f3f 1bb9 a53e
00000140: 12de 01bf 6a55 debe 00c8 b73e 4e01 9d3e
00000150: cb8b c2be 3b51 fa3d 9de5 26bf f35b 093f
00000160: e2c5 153f 33fb c2be 2795 193f baba 27bf
00000170: e27f e8be 2f7b 85be 4053 edbe 105b c93e
00000180: b1b5 cf3e 3a7e 013f 8334 0c3f 3a99 ffbe
00000190: 8e21 9f3e 119d d8be 5081 c93e cc32 f73e
000001a0: c4de df3e 5ee5 0f3f 7ac9 233f e071 bcbe
000001b0: 6fea bb3e 3afa 34bf 8d3f 483f 8dc9 b73e
000001c0: a8ac 0dbf ac52 bfbe 4703 2ebf 76ed 19bf
000001d0: 6bbe 5cbe 3eda cabe 1c41 de3e 4b36 0abf
000001e0: 8a57 06bf 9232 ec3e b57f 033f 3667 4d3e
000001f0: 2006 c53e 7090 c0be 0bec 3dbf 4243 dcbe
00000200: 2fd8 c03e 20e6 08bf b070 09bf 4e3f f13e
00000210: b5cf b7be 5166 b8be e7f4 233f be28 0d3f
00000220: 2795 d4be e242 e53e 8e0a 24bf e2de e4be
00000230: eba3 263f 6e95 15bf e162 0c3f d9f5 ac3e
00000240: f92a e0be b052 c8be 80c1 bf3e 8ce3 af3e
00000250: fb7b dbbe d224 603e 7458 0abf 32e3 043f
00000260: 9394 153f a2bd afbe 2d8e 193f faee 28bf
00000270: 420a c4be 4e9c 8cbe bdee babe 0572 a93e
00000280: 0e81 dc3e c849 e03e 5078 213f 27b7 a6be
00000290: dec2 713e 6a1d c4be 372c e33e 1e0a 193f
000002a0: 74c7 1e3f 5393 113f c667 403f 8c84 a6be
000002b0: fa99 753e 1118 17bf b981 593f c4fb be3e
000002c0: 7dcc 09bf dc63 4fbe dc8b 02bf 9f7e c3be
000002d0: 67d3 7cbe 575a cbbe bc59 ef3e 5a4f 24bf
000002e0: 7b36 49bf 7e40 023f c2bc ee3e 5f89 c13e
000002f0: f559 d63e 4a69 17bf e5c6 37bf af39 dcbe

action_head.0.bias f4 [3]
0.30355468 0.51983523 0.41675508
00000000: 856b 9b3e ec13 053f ec60 d53e

value_head.weight f4 [1, 64]
432.5647 -432.6747 -432.5804 432.724 -432.90375 -432.85355 432.97058 432.55942
-433.13705 432.75494 -432.76816 -432.98337 432.31012 -432.63232 432.85092 432.96542
-432.98193 -432.74188 432.82184 432.99496 -432.67795 432.6153 -432.65863 433.0379
432.6318 -431.98276 432.69095 -432.71384 -432.76553 -432.64328 -432.63422 432.77756
432.73874 432.564 432.64893 -432.62137 432.80563 -432.69662 432.85773 432.7674
432.87964 433.0663 432.60324 -432.87018 432.7254 -432.45493 432.85437 432.91425
-432.69034 -432.7507 -432.85416 -432.89627 -432.79193 -432.57986 432.92847 -432.69318
-433.07346 432.87177 432.7823 432.7396 432.78955 -432.78574 -432.66464 -432.68817
00000000: 4848 d843 5d56 d8c3 4b4a d8c3 ac5c d843
00000010: ae73 d8c3 416d d8c3 3c7c d843 9b47 d843
00000020: 8b91 d8c3 a260 d843 5362 d8c3 df7d d8c3
00000030: b227 d843 f050 d8c3 eb6c d843 937b d843
00000040: b07d d8c3 f65e d8c3 3269 d843 5b7f d843
00000050: c756 d8c3 c24e d843 4e54 d8c3 da84 d843
00000060: df50 d843 cbfd d7c3 7158 d843 5f5b d8c3
00000070: fd61 d8c3 5752 d8c3 2e51 d8c3 8763 d843
00000080: 8f5e d843 3148 d843 1053 d843 894f d8c3
00000090: 1f67 d843 2b59 d8c3 ca6d d843 3a62 d843
000000a0: 9870 d843 7d88 d843 374d d843 626f d8c3
000000b0: da5c d843 3b3a d8c3 5c6d d843 0675 d843
000000c0: 5d58 d8c3 1760 d8c3 556d d8c3 b972 d8c3
000000d0: 5e65 d8c3 394a d8c3 d876 d843 ba58 d8c3
000000e0: 6789 d8c3 966f d843 2264 d843 ab5e d843
000000f0: 1065 d843 9364 d8c3 1355 d8c3 1658 d8c3

net.0.weight f4 [64, 3]
0.75422174 0.08185042 -0.1030329 -0.27763975 0.14343883 -1.008892 -0.30210406 -1.6228448
0.15439492 0.5495631 0.20038357 -0.12539898 0.060480796 -0.48163804 0.086263016 -0.36956725
0.48361602 -0.16134346 0.011405908 0.1430476 1.2765596 -0.23416324 -1.5628567 -0.061750595
-0.27015215 -0.74566066 0.15942615 0.10633413 -0.6263938 -0.16983442 0.14799608 0.8564905
-0.2840525 1.9481084 -1.4562294 -0.5212769 0.08141351 0.42864707 -0.3943956 -0.045380782
-0.6865948 0.4539421 -0.0606954 -0.78089875 0.02741813 0.20182279 -0.22578245 0.3550124
-0.0958733 -1.3133271 -0.22447126 0.117728904 -0.85164607 -0.044784203 -1.2244052 -0.16280979
-0.08544679 -2.1335878 -0.1578981 -0.20008597 -0.036547273 0.50270176 0.026108213 1.1230786
0.13471006 0.12187295 0.35597694 -0.5672366 -0.47385347 -0.29917756 0.86360824 0.70060605
-0.112690486 0.76086694 -0.056947682 0.06637794 -0.21401513 -0.09836124 -1.6407253 -0.3909155
-0.068279825 -0.12010266 0.06309494 0.6536849 -0.14790188 0.3700106 0.08927294 -0.22211953
-0.91168076 0.08429736 -0.0039746505 0.5550669 -0.18246633 0.26988935 1.3036429 0.07467627
0.06739047 -0.09146341 0.23588116 0.8787526 0.45580503 1.0211146 -0.9104397 -0.4950496
-0.36170384 0.02469064 -1.0091851 0.30035648 -0.38353184 -0.5485041 0.17247657 1.5121734
-0.006621943 -0.09744044 -0.39123362 0.21482657 0.013008228 0.24588019 0.17418046 0.974982
-0.65620065 -1.6564962 0.048727807 1.8832923 0.20530964 -0.11663163 0.14465873 0.24962683
0.49459213 -0.19024858 0.13405386 0.03237059 -1.7168713 -0.37864044 -0.025443627 -0.013196655
-0.24842888 -0.8529609 -0.020790078 -0.60827106 0.31023854 0.6454656 -0.21128295 -0.14477156
0.17810607 0.4999844 1.3032317 0.13235977 0.13106203 -0.023968168 -0.25767383 0.19298153
-0.47448322 -1.3366283 1.0273982 0.3509083 -0.20035473 0.49292406 -0.12115588 0.46140873
0.41261703 0.62550396 0.20598195 -0.3469078 -2.873809 0.19677971 0.14604686 -0.08479463
0.2845821 -0.2964017 0.8870061 1.3250103 0.23255959 0.037807956 -2.3287826 1.3142103
0.72853786 -0.01069357 -0.83693105 0.035442587 0.5637256 0.8156855 0.3187819 -0.108254716
1.060952 0.05132888 -0.23843454 0.19111757 0.07872073 0.092004895 0.7213077 0.17879762
00000000: ad14 413f 31a1 a73d ea02 d3bd cc26 8ebe
00000010: a1e1 123e 6023 81bf 62ad 9abe 61b9 cfbf
00000020: b419 1e3e 2bb0 0c3f 5a31 4d3e 9768 00be
00000030: b6ba 773d 4399 f6be aaaa b03d eb37 bdbe
00000040: 859c f73e 3837 25be d8df 3a3c 127b 123e
00000050: 4e66 a33f 7dc8 6fbe b00b c8bf 31ee 7cbd
00000060: 6251 8abe 9ee3 3ebf 9c40 233e b5c5 d93d
00000070: 585b 20bf 13e9 2dbe 498c 173e f642 5b3f
00000080: 546f 91be 9e5b f93f ba65 babf 6772 05bf
00000090: 20bc a63d a177 db3e 38ee c9be 33e1 39bd
000000a0: adc4 2fbf 196b e83e bd9b 78bd fbe8 47bf
000000b0: fc9b e03c a2aa 4e3e 8433 67be 2fc4 b53e
000000c0: 3959 c4bd 1a1b a8bf cbdb 65be da1b f13d
000000d0: 7a05 5abf a46f 37bd 4fb9 9cbf 9cb7 26be
000000e0: bafe aebd b48c 08c0 0ab0 21be 56e3 4cbe
000000f0: 98b2 15bd 10b1 003f e4e0 d53c 0ac1 8f3f
00000100: 6ff1 093e 8698 f93d 9c42 b63e 6b36 11bf
00000110: ec9c f2be cd2d 99be 6e15 5d3f eb5a 333f
00000120: 45ca e6bd 2dc8 423f f941 69bd 28f1 873d
00000130: c826 5bbe 9e71 c9bd 4903 d2bf 1426 c8be
00000140: 4bd6 8bbd 62f8 f5bd eb37 813d e557 273f
00000150: 9773 17be 0872 bd3e bbd4 b63d 4d73 63be
00000160: e963 69bf 18a4 ac3d c93d 82bb dd18 0e3f
00000170: 74d8 3abe f02e 8a3e c5dd a63f dfef 983d
00000180: 0404 8a3d 2b51 bbbd d58a 713e eef5 603f
00000190: 475f e93e e2b3 823f 9412 69bf 2477 fdbe
000001a0: 3f31 b9be 0644 ca3c fa2c 81bf 53c8 993e
000001b0: 495e c4be c46a 0cbf b39d 303e e68e c13f
000001c0: e2fc d8bb da8e c7bd c64f c8be 7ffb 5b3e
000001d0: 7620 553c 04c8 7b3e 5d5c 323e 6c98 793f
000001e0: c4fc 27bf 1108 d4bf cf96 473d b90f f13f
000001f0: b13c 523e 90dc eebd 6b21 143e 2d9e 7f3e
00000200: 2e3b fd3e 86d0 42be 6a45 093e 0697 043d
00000210: 70c2 dbbf 29dd c1be 276f d0bc c836 58bc
00000220: 2464 7ebe a55b 5abf f44f aabc a7b7 1bbf
00000230: 96d7 9e3e 3c3d 253f 8f5a 58be ff3e 14be
00000240: 7061 363e f5fd ff3e 4cd0 a63f 5289 073e
00000250: 2035 063e e458 c4bc d3ed 83be f39c 453e
00000260: 77ef f2be a316 abbf c981 833f 41aa b33e
00000270: ca29 4dbe 8b60 fc3e 9320 f8bd c43d ec3e
00000280: 8a42 d33e 0721 203f efec 523e e69d b1be
00000290: 7dec 37c0 9f80 493e 4f8d 153e cfa8 adbd
000002a0: bfb4 913e f7c1 97be d512 633f f099 a93f
000002b0: 1a24 6e3e 84dc 1a3d c60a 15c0 0b38 a83f
000002c0: 7581 3a3f 1534 2fbc 1d41 56bf 3f2c 113d
000002d0: 5250 103f c4d0 503f 6237 a33e a6b4 ddbd
000002e0: 46cd 873f 3b3e 523d 2f28 74be 53b4 433e
000002f0: 5638 a13d 106d bc3d 9fa7 383f b916 373e

net.0.bias f4 [64]
0.34143865 -0.63936704 -0.089339755 0.356993 0.17985488 -0.14748362 0.5128767 -0.22220685
-0.34975618 0.16034995 0.30897692 -0.4293852 -0.59895676 0.17706917 -0.08032391 0.6527716
0.18969136 -0.03260728 -0.6411281 -0.6911649 -0.042258874 0.6604058 -0.3699847 0.6953079
0.16006024 -0.17059718 -0.50691104 0.5431126 -0.05087821 0.15120815 0.13444245 0.12718137
0.18770257 0.4724175 -0.71457 0.20889562 -0.3332511 0.66330624 -0.23179719 0.54365957
-0.16608399 0.742251 0.49003288 0.35211015 -0.75327885 -0.56351537 0.2043261 0.3109805
0.4219362 0.40785283 -0.43822157 0.34939256 -0.11292158 0.44033253 -0.79243505 0.15348727
0.5335977 0.8149147 0.36887795 0.23395856 0.72720975 0.38832462 -0.18844284 0.16549964
00000000: 0cd1 ae3e 8fad 23bf c3f7 b6bd c9c7 b63e
00000010: e12b 383e f205 17be e34b 033f 318a 63be
00000020: 3e13 b3be c732 243e 3932 9e3e 60d8 dbbe
00000030: 3b55 19bf 9f51 353e dd80 a4bd 0a1c 273f
00000040: 743e 423e 368f 05bd f920 24bf 2ff0 30bf
00000050: a417 2dbd 5b10 293f a26e bdbe b3ff 313f
00000060: d5e6 233e 07b1 2ebe ecc4 01bf 6d09 0b3f
00000070: ac65 50bd 4fd6 1a3e 48ab 093e d53b 023e
00000080: 1a35 403e b5e0 f13e 0fee 36bf bce8 553e
00000090: e39f aabe 70ce 293f 3e5c 6dbe 462d 0b3f
000000a0: ec11 2abe 2904 3e3f 97e5 fa3e c847 b43e
000000b0: e2d6 40bf 8b42 10bf dc3a 513e d638 9f3e
000000c0: 0608 d83e 16d2 d03e 945e e0be 95e3 b23e
000000d0: 6e43 e7bd 4473 e13e 06dd 4abf c42b 1d3e
000000e0: dc99 083f 409e 503f 92dd bc3e d592 6f3e
000000f0: 6b2a 3a3f 7cd2 c63e 29f7 40be bd78 293e

net.2.weight f4 [32, 64]
0.49037743 -0.30220392 -0.20188494 0.1933688 -0.210011 -0.032130603 0.2679501 -0.23738578
-0.08370846 0.44933048 0.12070487 -0.42186418 -0.20195961 0.43632117 -0.20132561 0.5223402
0.08544485 -0.15298137 -0.18375191 -0.66963464 0.3626031 0.09325927 -0.5252288 -0.04803114
-0.14209947 0.10844673 -0.43212926 0.38076273 0.19262587 0.10323469 -0.11484391 -0.107710205
-0.32854167 1.0199071 -0.489284 0.10091758 -0.037159517 0.05046009 -0.52254415 0.3302919
-0.18331547 0.4252234 0.5340486 0.3950331 -0.60617816 -0.7687862 0.23214665 -0.3283601
0.59942687 -0.1529144 -0.47232315 0.48665434 0.2349678 0.4154793 -0.54146004 0.47432777
0.35859266 0.49647656 0.39805806 -0.036451615 0.45264873 -0.28649876 -0.004827911 0.16771294
-0.030151946 0.9177126 0.0323949 -0.36569524 0.09815823 -0.111248195 -0.866623 0.07435053
-0.16973612 0.20071362 0.44904622 0.25911546 0.33030164 -0.27984834 -0.31904274 -0.4939257
-0.14296322 0.34341475 0.050112817 0.30306476 -0.09919882 -0.5003681 0.58606756 -1.0407681
-0.06356672 0.057080995 0.29900643 -1.0594425 -0.12005808 0.017570816 0.063164055 0.3336083
0.21298385 -0.22955295 0.2890302 -0.3745991 -0.299491 0.13719541 0.13932006 -0.9176622
-0.08073742 -0.13721351 -0.60901904 -0.17067453 0.014822337 1.0555493 -0.43241844 0.40445894
-0.17114416 0.1363319 0.56391716 0.03422161 -0.18916318 -0.28349522 0.63163 0.14824262
-0.49386376 -0.47582224 -0.35159352 -0.057682168 0.16954531 -0.04416897 0.22725287 -0.19989462
-0.6651228 0.48127842 0.46582878 -0.5647996 0.168625 -0.31836468 -0.31088427 0.7237087
0.4997701 0.2746894 -0.2875311 0.69613564 -0.26078182 0.10432285 0.48185948 0.12061433
1.0285822 0.056563523 0.1024147 0.19176272 -0.3035212 0.54514265 0.16375834 -0.62175405
-0.5406668 0.34078693 0.18944553 0.3473502 -0.32869855 0.46212265 0.04016381 -0.7822733
0.10594019 0.05786996 0.09081934 0.5298974 0.841432 -0.40591547 0.05381763 0.13356298
0.3785884 -0.11771825 -0.0625678 -0.56397444 0.04278529 0.2348243 -0.042996965 -0.48924357
0.56637686 -0.21884531 -0.1124521 -0.6060164 -0.2650032 -0.4456392 0.1821049 -0.21072243
-0.07984716 -0.29458606 -0.39893094 0.34481865 -0.119354054 -0.44417927 0.07663689 -0.1780369
-0.02308236 0.33675817 0.40062746 0.035270732 0.3508449 -0.29027495 -0.41357368 0.50694793
0.19277284 0.02651422 -0.2549649 0.713646 -0.39663693 0.23953202 0.4051218 0.7446981
0.8369902 0.22943383 0.032694634 0.34693635 -0.1736566 -0.33515093 0.008929536 -0.3075236
-0.41127053 0.034947287 0.23701087 0.81889284 0.0016353654 0.36357155 -0.26976606 -0.28680375
0.29282448 -0.23440768 0.17405288 0.25164798 -0.05854631 -0.07518117 0.041788682 -0.43520096
0.69576156 -0.2601791 -0.2880583 -0.080287054 0.44627312 0.36413607 0.57616466 -0.09022576
-0.4572686 0.21929531 0.24045996 -0.6899528 -0.20464036 -0.34042844 0.013575065 -0.19858994
-0.40837657 -0.07755664 -0.049755104 0.62305707 -0.09418209 -0.68865365 0.10973045 -0.06537122
00000000: c012 fb3e 79ba 9abe edba 4ebe 7902 463e
00000010: 200d 57be 619b 03bd c130 893e 4215 73be
00000020: 576f abbd a50e e63e 1d34 f73d 95fe d7be
00000030: 80ce 4ebe 7d65 df3e 4d28 4ebe 16b8 053f
00000040: b6fd ae3d 26a7 1cbe 7629 3cbe 2d6d 2bbf
00000050: 1da7 b93e b7fe be3d 6575 06bf 4dbc 44bd
00000060: 8682 11be 5219 de3d 0c40 ddbe 55f3 c23e
00000070: b73f 453e b66c d33d 4933 ebbd 2b97 dcbd
00000080: 9d36 a8be 518c 823f 6f83 fabe e0ad ce3d
00000090: 9434 18bd 3daf 4e3d 74c5 05bf 051c a93e
000000a0: 0db7 3bbe e2b6 d93e 69b7 083f c741 ca3e
000000b0: 7e2e 1bbf 2ccf 44bf dab7 6d3e d11e a8be
000000c0: 0a74 193f 9895 1cbe 57d4 f1be c22a f93e
000000d0: 669b 703e b4b9 d43e 209d 0abf 17db f23e
000000e0: 7599 b73e 2d32 fe3e 44ce cb3e 4a4e 15bd
000000f0: 93c1 e73e f7af 92be 7433 9ebb f1bc 2b3e
00000100: 3701 f7bc 37ef 6a3f 84b0 043d 683c bbbe
00000110: 2f07 c93d 18d6 e3bd 01db 5dbf 1745 983d
00000120: 4ecf 2dbe df87 4d3e 63e9 e53e c8aa 843e
00000130: 4c1d a93e 4848 8fbe 9259 a3be d4e3 fcbe
00000140: f364 12be 0fd4 af3e 1943 4d3d 4e2b 9b3e
00000150: c028 cbbd 2018 00bf 8608 163f e437 85bf
00000160: 452f 82bd c3cd 693d 5f17 993e d09b 87bf
00000170: 03e1 f5bd acf0 8f3c 285c 813d b5ce aa3e
00000180: 7018 5a3e ee0f 6bbe c4fb 933e 74cb bfbe
00000190: e256 99be f47c 0c3e eba9 0e3e e9eb 6abf
000001a0: a959 a5bd b381 0cbe ace8 1bbf 4ec5 2ebe
000001b0: 63d9 723c 3d1c 873f f365 ddbe 3e15 cf3e
000001c0: 6a40 2fbe 979a 0b3e e05c 103f f52b 0c3d
000001d0: feb3 41be 4926 91be 81b2 213f eacc 173e
000001e0: b6db fcbe f99e f3be 1104 b4be 2344 6cbd
000001f0: 499d 2d3e 86ea 34bd fab4 683e 2db1 4cbe
00000200: 7d45 2abf 206a f63e 1c81 ee3e b596 10bf
00000210: 08ac 2c3e b200 a3be 392c 9fbe f944 393f
00000220: dee1 ff3e 17a4 8c3e 4737 93be f235 323f
00000230: 3285 85be 38a7 d53d 49b6 f63e a504 f73d
00000240: 95a8 833f 27af 673d ccbe d13d 725d 443e
00000250: 2167 9bbe 788e 0b3f 44b0 273e 462b 1fbf
00000260: 2469 0abf a07b ae3e 02fe 413e e3d7 b13e
00000270: 2d4b a8be 579b ec3e cf82 243d 1043 48bf
00000280: 2cf7 d83d 0d09 6d3d 7dff b93d 5ba7 073f
00000290: 1668 573f 27d4 cfbe e06f 5c3d bcc4 083e
000002a0: 57d6 c13e 4416 f1bd 8c23 80bd a160 10bf
000002b0: a13f 2f3d c875 703e 961d 30bd 227e fabe
000002c0: 13fe 103f fc18 60be 494d e6bd e423 1bbf
000002d0: 80ae 87be d22a e4be b579 3a3e 9fc7 57be
000002e0: e886 a3bd fcd3 96be ad40 ccbe 128c b03e
000002f0: e66f f4bd 776b e3be cdf3 9c3d 4e4f 36be
00000300: 3817 bdbc 916b ac3e 0b1f cd3e 0b78 103d
00000310: f1a1 b33e eb9e 94be eebf d3be 57c7 013f
00000320: 3e66 453e 5934 d93c c28a 82be 81b1 363f
00000330: ff13 cbbe e247 753e 206c cf3e 89a4 3e3f
00000340: fd44 563f b4f0 6a3e cfea 053d a4a1 b13e
00000350: 09d3 31be e798 abbe 304d 123c bc73 9dbe
00000360: 0d92 d2be e324 0f3d fab2 723e f6a2 513f
00000370: c259 d63a 0d26 ba3e c71e 8abe f1d7 92be
00000380: 17ed 953e 9108 70be eb3a 323e 01d8 803e
00000390: 41ce 6fbd 96f8 99bd 9c2a 2b3d a9d2 debe
000003a0: 6e1d 323f 3236 85be 617c 93be 8a6d a4bd
000003b0: e97d e43e 0b70 ba3e 877f 133f 49c8 b8bd
000003c0: 1c1f eabe f38e 603e 233b 763e bfa0 30bf
000003d0: 3e8d 51be a34c aebe f369 5e3c 295b 4bbe
000003e0: bc16 d1be 04d6 9ebd 02cc 4bbd ab80 1f3f
000003f0: 8ae2 c0bd 9b4b 30bf 5cba e03d 59e1 85bd

net.2.bias f4 [32]
0.16296352 -0.038987596 -0.04370906 -0.11615912 0.07365811 -0.013534739 -0.09445666 0.07811326
0.0004954281 -0.08504671 -0.12846245 -0.15337838 -0.0142170675 -0.0048203534 0.038929142 0.29781824
-0.029236568 -0.019678537 -0.032306317 -0.09319439 0.0287034 0.14776765 -0.15775111 0.25098693
0.030620242 0.013506036 0.03836408 -0.007074027 0.022109391 -0.21304601 -0.24287055 -0.17814803
00000000: e9df 263e 75b1 1fbd 4508 33bd d5e4 edbd
00000010: 10da 963d cfc0 5dbc 7e72 c1bd d8f9 9f3d
00000020: 9edf 013a f82c aebd a98b 03be 390f 1dbe
00000030: b4ee 68bc 0ef4 9dbb 2a74 1f3d a27b 983e
00000040: 8781 efbc e234 a1bc a153 04bd b3dc bebd
00000050: 6523 eb3c 6750 173e 8289 21be 5c81 803e
00000060: 4dd7 fa3c 6c48 5d3c a723 1d3d 3dcd e7bb
00000070: c11e b53c bc28 5abe 0fb3 78be 706c 36be

net.4.weight f4 [8, 32]
0.46964428 -0.31776118 -0.25158465 -0.6515718 0.8122725 0.57358015 0.2058929 0.48994964
-1.0370331 0.12713964 0.6980133 -0.26099414 0.306104 1.2382991 -0.96990645 -0.19573799
-0.087033205 -0.35589153 0.51495177 1.4951216 0.7774469 0.16747448 0.5315282 -0.066366956
-0.39490527 1.4933928 -0.9196563 0.46859676 -1.2552158 -0.10067422 -0.0830539 0.41973862
-0.14647491 0.5268146 0.08362189 0.5228174 -0.24238236 -0.26900843 0.7726589 -0.14108457
0.15135077 0.3354817 -0.21287331 0.21930063 0.030437842 -0.46734506 0.5690526 -0.106413566
0.36199686 0.61454237 -0.48496327 -0.22600564 0.48446414 -0.8464767 0.6491776 -0.66878146
-0.19940037 -0.35673422 0.59540576 -0.66765785 0.4373594 0.7214099 0.23506379 0.49260035
-0.046032175 0.26735222 1.0593054 0.55030036 -0.42150447 -0.1423168 -0.12142066 -0.85780317
0.5578728 0.07853264 0.051110946 1.0444858 -0.29393545 -0.012336584 0.617627 0.72226304
0.6083213 0.24999857 -1.0268153 -0.29359478 0.08555294 0.10396683 0.7905962 -0.28608897
0.5729443 -0.27225083 0.7247866 -0.7894416 0.2560859 0.44177806 0.18634006 0.23356014
0.3098361 -0.5758457 -1.1586224 -1.3547434 0.975358 0.37554055 -0.3358782 0.8585535
-0.33626226 -0.3031601 0.35832423 -0.8156972 -0.056544535 0.02366876 0.0039858557 -0.34360397
-0.20811044 0.1522212 0.56223464 0.38418257 -0.70234317 0.8636216 -0.548045 -0.1036398
0.086799055 -0.13256758 0.016053816 0.12835018 0.07909538 -1.1137758 -0.7076725 -0.6535092
-0.349088 0.43313834 0.25202385 -0.3830169 -0.6190627 -0.042619064 0.4526591 -0.18092696
0.43939072 0.6497017 -0.296666 0.52715397 -0.3471676 -0.4120392 0.13935347 0.460891
0.59469026 0.5387791 -0.3173661 -0.9523355 -0.5827895 -0.2598038 0.21846102 -1.476713
-0.060587056 -0.26732478 0.20210771 -0.21303192 0.18494254 -0.46740067 1.7453287 -0.23122658
0.94448817 -0.16555035 -0.5515366 -0.31110567 0.49161112 0.2554837 0.2074499 -0.15050586
-0.73111194 -0.64542633 0.7650956 -0.50817466 -0.755235 1.3269681 -0.32905248 -0.3861352
-0.15635109 -0.2311827 0.40022337 -0.14620683 -0.13313493 0.080651425 -0.19239911 0.54421276
-1.2313306 0.53650725 0.11033352 0.31126755 -1.1162905 -0.0005180684 -0.15783921 0.718147
0.31837496 0.047179766 -0.49543348 -0.39178196 0.46059364 0.5458045 -0.18673134 0.5884633
-0.52067816 -0.45818755 0.3571091 -0.4928741 -0.30908918 0.74909395 -0.15169904 -0.7709137
-0.7469145 -0.18833512 0.35728782 1.0779548 -0.16583727 0.37258288 0.19167633 0.7010585
-0.696891 0.48739684 -0.1801261 0.6235243 -0.7790509 0.5083979 -0.7372856 -0.11103844
-0.37660062 1.5758178 0.3932742 -0.10832525 -0.1937617 -1.1524869 0.22377585 -0.38174468
0.03861188 0.8158233 -0.60567963 -0.46542412 0.057771042 0.0948229 0.4392625 0.3324732
2.0070755 0.0007709942 -0.21690924 -0.48837718 -0.3832821 0.42076436 0.33249265 -0.6472293
0.5209111 -0.7117547 0.0046700914 -1.6190182 -0.11838561 0.23882313 0.4582565 0.081007294
00000000: 3775 f03e 98b1 a2be b4cf 80be 69cd 26bf
00000010: 17f1 4f3f 26d6 123f 97d5 523e aeda fa3e
00000020: 80bd 84bf e530 023e 00b1 323f 06a1 85be
00000030: aab9 9c3e 9680 9e3f ca4b 78bf 8a6f 48be
00000040: 773e b2bd 6a37 b6be e1d3 033f 2560 bf3f
00000050: c306 473f 6e7e 2b3e 3b12 083f 66eb 87bd
00000060: 0631 cabe 7f27 bf3f 986e 6bbf eaeb ef3e
00000070: e9aa a0bf 492e cebd 2a18 aabd fbe7 d63e
00000080: 85fd 15be 52dd 063f f441 ab3d 5cd7 053f
00000090: 1533 78be 79bb 89be f9cc 453f 7978 10be
000000a0: b2fb 1a3e 42c4 ab3e 76fb 59be 5890 603e
000000b0: c858 f93c da47 efbe 6ead 113f 5bef d9bd
000000c0: a757 b93e a652 1d3f 1b4d f8be 066e 67be
000000d0: af0b f83e b2b2 58bf 8130 263f 4335 2bbf
000000e0: 9c2f 4cbe dea5 b6be 836c 183f a0eb 2abf
000000f0: 92ed df3e 52ae 383f 90b4 703e 1d36 fc3e
00000100: 3c8c 3cbd 64e2 883e 5297 873f 7ce0 0c3f
00000110: 6fcf d7be 7fbb 11be 65ab f8bd fd98 5bbf
00000120: c0d0 0e3f b9d5 a03d b659 513d b6b1 853f
00000130: b57e 96be 621f 4abc ce1c 1e3f 3be6 383f
00000140: f2ba 1b3f a0ff 7f3e af6e 83bf 0e52 96be
00000150: 6136 af3d 90ec d43d 8364 4a3f 417a 92be
00000160: 7aac 123f 7664 8bbe 9d8b 393f d818 4abf
00000170: b11d 833e bc30 e23e eecf 3e3e 642a 6f3e
00000180: d6a2 9e3e a06a 13bf bd4d 94bf 3b68 adbf
00000190: 10b1 793f da46 c03e 3af8 abbe 2aca 5b3f
000001a0: 912a acbe cd37 9bbe 4676 b73e 88d1 50bf
000001b0: 3e9b 67bd fde4 c13c c89b 823b dcec afbe
000001c0: e71a 55be e0df 1b3e 9cee 0f3f 94b3 c43e
000001d0: c3cc 33bf 4e16 5d3f ad4c 0cbf 1a41 d4bd
000001e0: b4c3 b13d ccbf 07be 4b83 833c 3b6e 033e
000001f0: c2fc a13d 3590 8ebf 062a 35bf 614c 27bf
00000200: aabb b2be 4fc4 dd3e 4509 813e cb1a c4be
00000210: e57a 1ebf 5491 2ebd efc2 e73e eb44 39be
00000220: d2f7 e03e da52 263f 9be4 97be 90f3 063f
00000230: f4bf b1be cdf6 d2be adb2 0e3e e8f9 eb3e
00000240: 9f3d 183f 6ded 093f cf7d a2be 42cc 73bf
00000250: b131 15bf 0105 85be 3fb4 5f3e ee04 bdbf
00000260: 222a 78bd cbde 88be 53f5 4e3e 0a25 5abe
00000270: 9461 3d3e 244f efbe ee66 df3f a9c6 6cbe
00000280: fac9 713f 0886 29be 8131 0dbf 3e49 9fbe
00000290: 74b4 fb3e c2ce 823e bf6d 543e 351e 1abe
000002a0: 272a 3bbf a93a 25bf 4edd 433f bc17 02bf
000002b0: 1557 41bf 17da a93f 9179 a8be 83b3 c5be
000002c0: 801a 20be 28bb 6cbe 14ea cc3e 3eb7 15be
000002d0: 8654 08be 932c a53d 4604 45be 8751 0b3f
000002e0: 3e9c 9dbf 8a58 093f 8af6 e13d 765e 9f3e
000002f0: 9be2 8ebf fbce 07ba 9aa0 21be 7bd8 373f
00000300: 0b02 a33e 923f 413d 75a9 fdbe a597 c8be
00000310: eed2 eb3e d8b9 0b3f 8036 3fbe 88a5 163f
00000320: 2a4b 05bf 8f97 eabe 01d7 b63e fe59 fcbe
00000330: f040 9ebe 9fc4 3f3f fe56 1bbe 9a5a 45bf
00000340: ca35 3fbf ecda 40be 6eee b63e 6cfa 893f
00000350: 3fd1 29be 2fc3 be3e cd46 443e 9278 333f
00000360: 7367 32bf 148c f93e fa72 38be 4a9f 1f3f
00000370: e16f 47bf 5d26 023f c0be 3cbf 1f68 e3bd
00000380: ccd1 c0be 66b4 c93f 3c5b c93e a1d9 ddbd
00000390: 7869 46be b184 93bf 7f25 653e 0a74 c3be
000003a0: 7e27 1e3d ccd9 503f d20d 1bbf 124c eebe
000003b0: 54a1 6c3d 8232 c23d 04e7 e03e ed39 aa3e
000003c0: ed73 0040 8b1c 4a3a 751d 5ebe 930c fabe
000003d0: 8d3d c4be 6d6e d73e 7a3c aa3e d2b0 25bf
000003e0: 6e5a 053f 8e35 36bf 9107 993b fd3b cfbf
000003f0: 2874 f2bd 0d8e 743e 99a0 ea3e 27e7 a53d

net.4.bias f4 [8]
0.04053409 -0.11914343 -0.10855877 -0.012329262 -0.036669895 0.007980667 0.24855968 -0.10847615
00000000: 1307 263d 7801 f4bd 0f54 debd ac00 4abc
00000010: 2c33 16bd 58c1 023c 6e86 7e3e be28 debd

net.6.weight f4 [1, 8]
3118.6084 -3119.5942 -3118.5933 3119.2031 -3118.775 3118.8423 3119.3262 -3118.8813
00000000: bce9 4245 82f9 42c5 7ee9 42c5 40f3 4245
00000010: 66ec 42c5 7aed 4245 38f5 4245 1aee 42c5
