auto-iss-demo/orientation_agent/weights/orientation_net_1M.pt (torch, 68335 bytes, 16 tensors)

net.0.weight f4 [128, 3]
-1.5604635 0.47349206 4.9872684 -0.14614946 0.08008198 0.011008825 -0.18015403 0.08525095
-0.5315888 -0.023401171 -0.065313295 -0.23663071 -0.4388869 -0.058564797 -0.2418974 -0.05165357
-0.18306021 0.179853 0.25705945 0.27661532 -0.3326854 -0.069796376 -0.10216816 0.018238436
-0.18014365 -0.3301909 0.011990745 0.072511375 0.05253888 -0.17090225 -0.48092896 -0.9619292
-0.97015375 0.06003293 -0.08001295 -0.12657332 0.06951745 -0.12854517 -0.086280406 -0.33782235
-0.5173971 -0.6779112 -0.04803924 0.17108922 -0.16345614 0.08429435 0.48505983 1.0017881
-0.05953526 0.71050125 0.6165728 0.05252176 -0.0038740148 -0.0355583 0.08645222 0.065753095
0.021168347 -0.14293982 0.0047533647 0.029558854 0.04181817 0.008553793 -0.057488587 -0.06329704
-0.23906824 -0.19434334 0.057271816 -0.014000217 -0.018913139 -0.13037972 -0.0043517044 0.009146351
0.19944876 0.036092445 0.2163358 0.31437507 0.06853582 -3.6565197 0.15802582 -0.034475446
0.38622102 0.039910875 -0.017722646 -0.08537332 -0.16080523 -0.70714 0.15458801 0.1252384
0.20267269 0.44249338 0.13422456 -0.1924111 -0.15620947 0.05167459 -0.15077272 -0.062431473
3.9478288 -0.82876325 0.7291356 0.2576274 0.33166245 2.645325 -0.17982326 -0.41659555
-0.01237407 -0.04698537 0.26702434 0.75402284 0.119875364 -0.1439068 -0.06433947 -0.08066425
-0.063198425 -0.17271157 -4.970743 1.4022272 -0.52583194 5.477587 1.2694209 -0.9472
0.0028741362 1.2043532 -5.6769395 0.16038124 -0.06427118 -0.006024703 -0.12318236 -0.5247328
-0.038311947 -0.019876989 0.027998615 -0.17489527 -0.1213042 -0.587251 0.26271722 0.10359807
-0.005420357 0.14993031 -0.11260225 0.029028738 -0.017556995 -0.00015200804 0.16898218 0.13749622
-13.265806 1.551664 -0.24512263 -0.07402829 -0.12288805 -0.019146854 -0.19409472 -0.06576052
0.06253628 0.07192371 -0.014313986 -0.031225815 0.95621926 1.1622168 0.55992556 -0.008792552
-0.16144493 -0.1350706 0.14555505 -0.039733823 0.036859635 0.021892585 0.10711083 0.032054126
0.030185346 -0.0108220205 -0.32583526 0.1706774 0.1090585 -0.007348864 -0.19506538 0.11588072
0.055741824 -0.3231639 -0.1957547 -0.11321095 -0.00031560272 -0.067946926 -0.2012715 -0.092610225
0.17262742 -0.0493394 -0.08788463 -0.05543179 -0.22996537 -0.00053560117 0.05578982 -0.16237053
-0.048944723 0.159079 0.08394157 -0.16136873 0.049460463 -0.08210585 -0.11808289 0.023097187
0.07916049 0.024375338 -0.07730748 -0.1989642 -0.118663244 -0.071545646 -0.02303732 0.29689702
-0.5961882 -1.4390136 -0.044416327 0.25946605 0.38261607 -0.06920989 -0.023302801 -0.05097034
-0.085766986 -0.08884324 -0.4085212 -0.028264523 -0.274977 -0.07326315 -0.09684246 -0.045890898
-0.21019563 0.04648123 -0.2818338 -0.033447824 -0.16298117 -0.018397287 0.10624014 -0.029684806
-0.029509755 -0.036808297 0.22617444 -0.20065084 0.31342065 0.051768523 0.09086438 -0.22675647
-0.16850509 -0.0013431517 0.008152659 1.1777939 0.63697505 0.62618816 0.052079853 0.13394974
0.3591776 -0.29708484 0.015535596 -0.078048274 0.009466754 0.17789954 0.11830053 -0.84135896
00000000: 45bd c7bf 8d6d f23e b497 9f40 34a8 15be
00000010: 0502 a43d 5c5e 343c 4c7a 38be 0d98 ae3d
00000020: 3416 08bf d0b3 bfbc fac2 85bd 524f 72be
00000030: c9b5 e0be a4e1 6fbd f4b3 77be b292 53bd
00000040: 2374 3bbe 632b 383e 4c9d 833e 86a0 8d3e
00000050: be55 aabe 67f1 8ebd 8a3d d1bd c668 953c
00000060: 9477 38be c80e a9be d474 443c d880 943d
00000070: 0233 573d 0001 2fbe 523c f6be fe40 76bf
00000080: ff5b 78bf 17e5 753d d4dd a3bd 709c 01be
00000090: 2a5f 8e3d 58a1 03be c8b3 b0bd 0df7 acbe
000000a0: 2374 04bf 978b 2dbf cbc4 44bd 0332 2f3e
000000b0: 0c61 27be 84a2 ac3d c359 f83e 983a 803f
000000c0: 3fdb 73bd 69e3 353f b7d7 1d3f 0f21 573d
000000d0: 2fe3 7dbb 94a5 11bd dd0d b13d 8fa9 863d
000000e0: 3e69 ad3c d15e 12be 1dc2 9b3b 6925 f23c
000000f0: 8849 2b3d 3525 0c3c 2779 6bbd e1a1 81bd
00000100: 4ece 74be f101 47be da95 6a3d 2b61 65bc
00000110: baef 9abc 4382 05be be98 8ebb 94da 153c
00000120: 4c3c 4c3e acd5 133d 2287 5d3e c5f5 a03e
00000130: 825c 8c3d 6b04 6ac0 85d1 213e 2036 0dbd
00000140: c3be c53e 9679 233d 152f 91bc 35d8 aebd
00000150: 20aa 24be 2107 35bf 524c 1e3e 7f3e 003e
00000160: 6e89 4f3e 7e8e e23e 2a72 093e 6a07 45be
00000170: 60f5 1fbe bca8 533d 2a64 1abe 25b8 7fbd
00000180: 3aa9 7c40 d429 54bf a1a8 3a3f bde7 833e
00000190: a9cf a93e 014d 2940 9723 38be 034c d5be
000001a0: 9cbc 4abc bb73 40bd 6ab7 883e a407 413f
000001b0: 3781 f53d 4e5c 13be 69c4 83bd 4c33 a5bd
000001c0: 2d6e 81bd 4ddb 30be 5410 9fc0 2e7c b33f
000001d0: ec9c 06bf 6548 af40 627c a23f b37b 72bf
000001e0: 015c 3c3b 3f28 9a3f 7da9 b5c0 fb3a 243e
000001f0: 9ca0 83bd df6a c5bb 0847 fcbd e454 06bf
00000200: fdec 1cbd 11d5 a2bc 5a5d e53c bf17 33be
00000210: 566e f8bd 1556 16bf df82 863e 3a2b d43d
00000220: 409d b1bb 5587 193e 029c e6bd adcd ed3c
00000230: b0d3 8fbc 5964 1fb9 aa09 2d3e cfcb 0c3e
00000240: be40 54c1 ed9c c63f 6d01 7bbe 259c 97bd
00000250: bbac fbbd ddd9 9cbc c4c0 46be 74ad 86bd
00000260: 0513 803d bd4c 933d 3585 6abc 48cd ffbc
00000270: c9ca 743f 85c3 943f 4857 0f3f a30e 10bc
00000280: d251 25be f34f 0abe 620c 153e efbf 22bd
00000290: 21fa 163d 1458 b33c ec5c db3d 304b 033d
000002a0: 4247 f73c d84e 31bc e1d3 a6be 0ec6 2e3e
000002b0: 105a df3d bdce f0bb 38bf 47be df52 ed3d
000002c0: 8a51 643d bd75 a5be ec73 48be 24db e7bd
000002d0: 7b77 a5b9 c227 8bbd 1e1a 4ebe 6eaa bdbd
000002e0: 3ec5 303e 1c18 4abd dbfc b3bd 720c 63bd
000002f0: 0b7c 6bbe 9667 0cba de83 643d 7644 26be
00000300: 437a 48bd 9be5 223e 8fe9 ab3d d83d 25be
00000310: 0e97 4a3d 1d27 a8bd 71d5 f1bd 5036 bd3c
00000320: e51e a23d caae c73c 6253 9ebd 45bd 4bbe
00000330: b705 f3bd 8686 92bd c3b8 bcbc e302 983e
00000340: ca9f 18bf 9931 b8bf e5ed 35bd bcd8 843e
00000350: 41e6 c33e eabd 8dbd 84e5 bebc 46c6 50bd
00000360: 9aa6 afbd 72f3 b5bd b129 d1be 008b e7bc
00000370: c9c9 8cbe fe0a 96bd 5755 c6bd 18f8 3bbd
00000380: 863d 57be 1a63 3e3d 854c 90be 9600 09bd
00000390: 89e4 26be e8b5 96bc 6e94 d93d 8d2d f3bc
000003a0: 71be f1bc 4cc4 16bd 469a 673e 6a77 4dbe
000003b0: ac78 a03e 3b0b 543d 1b17 ba3d d932 68be
000003c0: 998c 2cbe b10c b0ba bb92 053c f3c1 963f
000003d0: cc10 233f de4d 203f af51 553d 1f2a 093e
000003e0: 20e6 b73e 811b 98be 0389 7e3c c6d7 9fbd
000003f0: 721a 1b3c 4c2b 363e 8c47 f23d 4d63 57bf

net.0.bias f4 [128]
2.9810078 -0.011560244 -0.44696233 -0.1788796 -0.3118298 0.19646165 0.75451493 0.13747618
-0.45190236 -0.2784937 -1.6336749 0.331818 -0.3228989 -0.8308826 0.11470918 -0.11805748
0.6973 -0.072436154 -0.18868022 0.2219529 0.39471337 1.0289932 0.2951869 0.49405205
0.008172476 -1.8851247 0.4823943 -0.23429172 0.0331168 0.26575202 -0.3613536 0.9071449
2.7567327 1.0421615 -0.684857 0.41925344 -0.06745321 0.3766848 -3.276233 3.155151
-3.8719702 0.13497977 -0.423402 -0.3239442 -0.638088 0.08681476 -0.43842995 0.16382292
-4.1124196 0.20031032 -0.5470064 -0.1071403 1.7528753 -0.014724342 0.2658544 -0.37291965
-0.6538609 -0.18631996 0.36300766 0.59291327 -0.084840655 -0.10621379 0.14871384 0.02351278
0.13083813 -0.1076791 0.09383165 -0.11664847 -0.44550604 -1.3323278 0.02699747 -0.16124542
-0.93784136 -0.370932 -0.51229656 -0.5617011 -0.09249268 -0.03242687 0.29064527 -0.08488263
0.40898228 0.836608 0.078270055 -0.09984329 -0.30255982 2.377189 0.79570454 -0.6307343
-0.7958599 0.0070523643 2.0460758 0.047687434 3.028351 0.13734828 -0.3159799 -0.032555453
0.049732916 -0.29736948 -0.048048474 -0.011549624 0.0605814 0.73109096 3.1168544 -0.050943688
-0.197996 -0.014843438 0.08948325 0.08815627 0.12972677 -0.2309895 -0.015860613 -0.14176056
-0.17432217 0.10068752 -0.09587063 0.045229994 -0.14502954 -0.2850001 -0.08335518 -0.038335662
0.2953824 -0.14202406 0.081264734 1.188916 0.4976392 -0.0607626 -0.5803402 0.1774141
00000000: d5c8 3e40 2d67 3dbc 3fd8 e4be 372c 37be
00000010: 28a8 9fbe 3e2d 493e e427 413f 8ec6 0c3e
00000020: bf5f e7be ba96 8ebe 421c d1bf 0de4 a93e
00000030: 0153 a5be b9b4 54bf a6ec ea3d 1fc8 f1bd
00000040: 4182 323f 6859 94bd 6335 41be 9f47 633e
00000050: df17 ca3e 0db6 833f bd22 973e 64f4 fc3e
00000060: d9e5 053c c44b f1bf 63fc f63e 2bea 6fbe
00000070: 7ba5 073d a610 883e 5703 b9be a63a 683f
00000080: 4f6e 3040 8c65 853f ca52 2fbf 63a8 d63e
00000090: e924 8abd d5dc c03e cdad 51c0 feed 4940
000000a0: 5cce 77c0 2338 0a3e 26c8 d8be 04dc a5be
000000b0: bc59 23bf f0cb b13d e479 e0be 32c1 273e
000000c0: f198 83c0 261e 4d3e 9d08 0cbf 606c dbbd
000000d0: 385e e03f 5e3e 71bc 111e 883e 53ef bebe
000000e0: 6e63 27bf a9ca 3ebe 24dc b93e 2ac9 173f
000000f0: f0c0 adbd 9e86 d9bd 7148 183e e09d c03c
00000100: 6efa 053e dc86 dcbd cf2a c03d 65e5 eebd
00000110: 5e19 e4be b889 aabf cc29 dd3c 851d 25be
00000120: 5f16 70bf cdea bdbe de25 03bf a5cb 0fbf
00000130: cd6c bdbd 0ad2 04bd 75cf 943e f2d6 adbd
00000140: 2066 d13e f12b 563f 0d4c a03d a47a ccbd
00000150: 1fe9 9abe dd23 1840 4bb3 4b3f ce77 21bf
00000160: 79bd 4bbf 8517 e73b e8f2 0240 e653 433d
00000170: 81d0 4140 07a5 0c3e 1ec8 a1be de58 05bd
00000180: beb4 4b3d d040 98be 7ace 44bd a23a 3dbc
00000190: 3424 783d c728 3b3f 8b7a 4740 54aa 50bd
000001a0: 77bf 4abe e431 73bc ff42 b73d 468b b43d
000001b0: 18d7 043e 8388 6cbe 1eee 81bc ae29 11be
000001c0: 8381 32be 4235 ce3d d257 c4bd 1643 393d
000001d0: a082 14be 88eb 91be 1fb6 aabd db05 1dbd
000001e0: 5d3c 973e c16e 11be 206e a63d 662e 983f
000001f0: 91ca fe3e 34e2 78bd 2d91 14bf 0bac 353e

net.2.weight f4 [64, 128]
-0.95476735 0.077378 -0.41238236 -0.12997004 0.34152147 0.34267563 0.21708828 -0.24009985
0.058875427 0.24066176 0.39012384 -0.3379747 0.6149048 0.19375178 0.55962926 -0.6044775
0.40900484 -0.9195112 -0.2911813 -0.42614895 -0.41260105 -0.6480147 -0.014983231 -0.15724583
-0.40617475 1.3252777 0.14220777 0.70820403 0.26556423 -0.747116 -0.2927681 -0.19075087
-0.2729553 -1.2069736 0.8437181 0.3145288 -1.2013009 0.48872164 0.5664264 -0.093806446
0.8275207 -0.651251 -0.40396863 0.25641936 0.16150752 0.09406231 -0.92684966 0.49841723
0.23621161 0.59528035 0.42642254 -0.6576495 0.1769918 -0.2755854 -0.29655436 0.07858895
0.5376088 0.2807841 0.122993626 -0.34578967 -0.31969708 0.21892451 0.34963483 -0.012233269
-0.019309562 -0.13624044 1.1157322 0.10430271 -0.16333666 0.22419252 -0.61601335 -0.28812677
-1.1952869 -0.075060695 0.5699292 -0.342537 0.7374297 0.25899982 -0.34507158 0.037748955
-0.015651131 -0.32954943 -0.01827615 0.47215897 -0.35669136 0.12463232 -0.25954482 0.21379311
-0.0033527073 0.51764804 0.008267452 0.055383444 -0.17996125 -0.7490223 0.28174704 0.5608971
-0.18688643 0.90724325 0.2182643 -0.9687989 -0.76241964 0.8947079 0.20920943 -0.19632824
-0.11197543 0.34885678 0.12931958 -0.218625 -0.36900625 0.7113859 0.6773473 0.49340636
0.20703496 0.27604914 0.48805445 -0.83894557 0.66441125 -0.08165139 -0.20625132 0.16995472
0.19186686 -0.021377068 -0.18434788 -0.0019918256 0.6857773 0.759146 0.30400947 -0.100162335
0.35111552 -0.2713501 -0.48856616 -0.14071152 -0.033825956 0.5629577 0.3911598 -0.082281336
0.21675488 -0.4183249 -0.26756376 0.21280313 -0.36089045 -0.5285063 -0.14616995 0.062700406
0.36154085 0.06252079 0.13528562 0.45096368 0.15494998 0.56062967 0.9020038 0.37674698
0.009892765 -0.08649783 0.32446414 -0.9582847 -0.3330284 0.39929184 0.63681704 0.4499069
0.42158094 0.27152386 -0.5304332 -0.08039106 0.5957475 -0.20420812 -0.008767669 0.06988732
-0.049482577 -0.11129125 -0.24019359 0.027204419 -0.18284543 0.0037853846 -0.5011184 -0.44053686
-0.21081766 0.14719953 -0.63170254 0.118798114 0.5575829 0.14550427 0.0650082 0.24064507
-0.020041194 0.15502125 -0.1619354 0.22404155 -0.0616436 -0.2802313 0.260825 -0.26823807
0.28102958 -0.23398888 0.0413148 -0.07187603 -0.45607018 -0.41001055 -0.5789575 -0.05495703
0.19313887 -0.3004998 -0.54871935 -0.4990169 0.049114414 0.20368193 0.3032566 0.24895474
0.11917152 0.55039537 -0.043508057 -0.03985137 -0.30304375 0.42944318 0.58251655 -0.11310053
-0.32011968 -0.12301009 0.6633044 -0.01258301 0.16242312 0.51345813 -0.18389426 -0.3826461
0.56935203 0.037715353 -0.35353065 -0.14196865 -0.025769487 0.11009752 0.1341653 0.032351535
0.1302866 -0.4030559 0.13564374 0.1991547 -0.16551232 -0.92548364 0.4453169 -0.5894263
-0.10375421 0.3854424 0.08542363 0.34656623 -0.315523 0.20142171 -0.3106217 -0.13074957
0.3167697 -0.09938166 0.26823983 0.20461345 -0.02273547 -0.65546584 0.029416787 0.43625414
00000000: a26b 74bf 5b78 9e3d c823 d3be de16 05be
00000010: e7db ae3e 2e73 af3e 644c 5e3e bcdc 75be
00000020: 5c27 713d 0970 763e 50be c73e 050b adbe
00000030: 676a 1d3f de66 463e dd43 0f3f 0abf 1abf
00000040: 1569 d13e 1665 6bbf b715 95be 3230 dabe
00000050: 7240 d3be 4be4 25bf 3a7c 75bc 0d05 21be
00000060: 23f6 cfbe b3a2 a93f ea9e 113e dc4c 353f
00000070: 09f8 873e ff42 3fbf b3e5 95be 3254 43be
00000080: ccc0 8bbe 1c7e 9abf e9fd 573f eb09 a13e
00000090: 3ac4 99bf b939 fa3e 5201 113f 981d c0bd
000000a0: 66d8 533f 63b8 26bf fad4 cebe 6649 833e
000000b0: 3a62 253e bea3 c03d 0546 6dbf 8b30 ff3e
000000c0: 75e1 713e 4b64 183f 0e54 da3e b85b 28bf
000000d0: 573d 353e 8819 8dbe f9d5 97be 3ef3 a03d
000000e0: bba0 093f efc2 8f3e 15e4 fb3d 580b b1be
000000f0: 56af a3be bf2d 603e 5603 b33e 0d6e 48bc
00000100: 162f 9ebc 9d82 0bbe 50d0 8e3f a99c d53d
00000110: ba41 27be b992 653e 0db3 1dbf 5a85 93be
00000120: 29ff 98bf 6cb9 99bd e1e6 113f 0261 afbe
00000130: 31c8 3c3f a09b 843e 39ad b0be a69e 1a3d
00000140: cd36 80bc b4ba a8be ddb7 95bc d2be f13e
00000150: 40a0 b6be 3b3f ff3d 0fe3 84be 95ec 5a3e
00000160: 18b9 5bbb 9584 043f 3574 073c c0d9 623d
00000170: c347 38be edbf 3fbf 2641 903e f496 0f3f
00000180: 285f 3fbe 1841 683f ad80 5f3e 3403 78bf
00000190: ef2d 43bf 940b 653f ff3a 563e 450a 49be
000001a0: 6053 e5bd 5b9d b23e 5a6c 043e 3bdf 5fbe
000001b0: 63ee bcbe 631d 363f a266 2d3f c29f fc3e
000001c0: f900 543e 5056 8d3e 46e2 f93e 23c5 56bf
000001d0: db16 2a3f d838 a7bd 8c33 53be 9c08 2e3e
000001e0: bf78 443e f61e afbc b1c5 3cbe 4a89 02bb
000001f0: 1a8f 2f3f 6457 423f 21a7 9b3e e921 cdbd
00000200: 6ac5 b33e 66ee 8abe 5825 fabe ae16 10be
00000210: 168d 0abd ff1d 103f 1946 c83e 1e83 a8bd
00000220: fef4 5d3e ae2e d6be 1efe 88be 10e9 593e
00000230: a2c6 b8be 304c 07bf 93ad 15be 1269 803d
00000240: e21b b93e e60a 803d 5088 0a3e b6e4 e63e
00000250: 35ab 1e3e 6d85 0f3f b9e9 663f fbe4 c03e
00000260: 4415 223c c625 b1bd 2a20 a63e 2552 75bf
00000270: b382 aabe fb6f cc3e 7106 233f 325a e63e
00000280: 75d9 d73e 2d05 8b3e 78ca 07bf 11a4 a4bd
00000290: e882 183f ef1b 51be 45a6 0fbc 1521 8f3d
000002a0: 3eae 4abd abec e3bd 4ff5 75be cddb de3c
000002b0: d53b 3bbe 3714 783b 4c49 00bf 0c8e e1be
000002c0: 96e0 57be 79bb 163e 42b7 21bf 6d4c f33d
000002d0: c1bd 0e3f 12ff 143e 0523 853d a96b 763e
000002e0: 6e2d a4bc e4bd 1e3e 65d2 25be 266b 653e
000002f0: 007e 7cbd 7a7a 8fbe db8a 853e 8056 89be
00000300: 1ce3 8f3e c89a 6fbe b539 293d bd33 93bd
00000310: 0882 e9be e7ec d1be 8f36 14bf 9f1a 61bd
00000320: 32c6 453e 1cdb 99be df78 0cbf 257f ffbe
00000330: 322c 493d ff91 503e 7344 9b3e feed 7e3e
00000340: 3310 f43d b6e6 0c3f 8135 32bd 313b 23bd
00000350: 8d28 9bbe fadf db3e ce1f 153f 40a1 e7bd
00000360: bae6 a3be b7ec fbbd 51ce 293f f828 4ebc
00000370: 3f52 263e fe71 033f c74e 3cbe 31ea c3be
00000380: 0ec1 113f 6a7b 1a3d f801 b5be 3b60 11be
00000390: 881a d3bc cf7a e13d a162 093e 0b83 043d
000003a0: da69 053e 585d cebe 31e6 0a3e 36ef 4b3e
000003b0: 107c 29be 7fec 6cbf 9400 e43e a4e4 16bf
000003c0: 167d d4bd b558 c53e 96f2 ae3d 2171 b13e
000003d0: 3b8c a1be 7e41 4e3e cf09 9fbe 37e3 05be
000003e0: a32f a23e 9d88 cbbd bb56 893e 3086 513e
000003f0: bd3f babc 9ccc 27bf 79fb f03c b45c df3e

net.2.bias f4 [64]
-0.047326833 0.15548052 -0.20996477 0.22237794 -0.22991344 0.10635985 -0.059733436 -0.08113491
-0.1365073 -0.13200127 -0.1717572 0.1139387 -0.0829792 -0.0023823234 0.04997516 0.4102014
0.005927196 -0.10051094 -0.0992058 0.23503014 -0.19936453 -0.09254319 0.07779684 0.14179257
-0.21583098 -0.102642745 -0.08178418 0.24878912 -0.08774146 0.08238002 0.040012974 -0.30461115
-0.2736459 -0.040969625 0.016564861 0.02146449 0.116317004 -0.22581661 -0.08694115 -0.16103637
0.33900952 0.058309034 -0.12644239 0.07536597 -0.14257966 0.09189057 -0.13171959 -0.09957583
-0.023850514 -0.018268822 0.11836824 -0.070401825 0.0766184 -0.12273529 -0.18106501 0.05438144
-0.01138932 0.13482307 -0.11339122 0.12062171 0.21656813 0.1776869 -0.10146266 -0.17116567
00000000: c8d9 41bd 4936 1f3e 0101 57be 0bb7 633e
00000010: 6e6e 6bbe 31d3 d93d 0cab 74bd 0f2a a6bd
00000020: 92c8 0bbe 572b 07be 1fe1 2fbe b158 e93d
00000030: 00f1 a9bd c120 1cbb c1b2 4c3d eb05 d23e
00000040: ec38 c23b aed8 cdbd 692c cbbd beab 703e
00000050: 3726 4cbe 4987 bdbd f353 9f3d 1232 113e
00000060: cc02 5dbe 5c36 d2bd 777e a7bd 93c2 7e3e
00000070: cbb1 b3bd dbb6 a83d a5e4 233d fef5 9bbe
00000080: 511b 8cbe c4cf 27bd 08b3 873c 4cd6 af3c
00000090: 9c37 ee3d 783c 67be 340e b2bd b8e6 24be
000000a0: a892 ad3e 74d5 6e3d 1d7a 01be 7959 9a3d
000000b0: 6700 12be 2031 bc3d 80e1 06be 6aee cbbd
000000c0: 2762 c3bc 7fa8 95bc 0c6b f23d d52e 90bd
000000d0: 1cea 9c3d a45c fbbd 1b69 39be 13bf 5e3d
000000e0: 459a 3abc 0f0f 0a3e a839 e8bd 8408 f73d
000000f0: 09c4 5d3e 8ef3 353e a8cb cfbd 0e46 2fbe

net.4.weight f4 [64, 64]
-0.18314296 1.0047941 0.15258516 -1.2026203 0.23068713 1.3163503 -1.098583 0.936474
0.123576336 0.24615483 -0.74228555 -0.33045816 0.25555944 0.25449833 -0.67193246 -0.015090688
0.37682623 1.6956425 -0.09654064 0.34344676 -1.4304447 -0.44002223 0.28439304 -0.039887257
-1.4031216 -1.3607059 -0.1276514 0.739716 -0.24743786 -0.019070733 -0.3187957 -0.5142098
-2.5259273 -1.2387056 0.024753477 -0.6295596 0.053975113 -0.42869174 -0.043108687 -0.70730335
0.239074 0.1549737 0.49016806 0.2474528 0.32175797 0.10474866 -0.59932584 0.87182397
0.07376916 0.41058722 0.4680098 -1.3620998 -0.5490984 -0.052192073 0.25088173 0.2198774
0.050192118 -0.28687093 -0.819474 -0.39376915 0.76946604 0.1439024 -0.49241862 0.99992055
-0.090281725 0.92908454 -0.36628914 0.8829549 -0.8304979 0.0963479 0.61031896 0.4856894
-0.13112201 0.27596837 0.08899704 0.38412777 0.9930365 -0.85489917 0.049987227 0.451361
0.1388047 1.2602755 0.6050975 -0.916096 -0.7417783 -0.39200044 1.1829911 0.56085765
-1.5648836 -1.1123984 -0.81665 -0.05938288 -0.16663468 -0.12584671 -0.54487723 -0.29093212
-2.1702287 0.72014934 0.18616778 -0.9727553 0.13806787 -0.14299336 0.24288198 0.62261903
0.02491198 -0.88129425 -0.10385928 -0.29069388 -0.41103828 0.3286142 -0.22529331 -0.33058998
-0.25615454 -0.28103456 0.27748746 -0.3317206 -0.037328657 -0.2979524 -0.0699013 1.1456623
-0.4786749 1.4424562 0.60546964 -0.3851378 0.25879875 -1.1103162 -0.07299743 -0.6984467
-0.31938937 -0.22364326 -0.3087978 0.34376758 -0.07075613 0.0026137424 -0.25940412 -0.55786544
0.8510095 -0.094204076 1.3670146 0.102680154 -0.59315604 -0.36119926 -0.2627902 1.2337588
0.7840119 0.7873877 0.46400696 0.6225226 0.083770625 0.12312681 0.102249466 0.31593785
-1.0954717 0.28498214 -0.30061576 1.5449396 -0.5890125 -0.23049472 0.26717064 -0.90377563
-0.6127545 -0.29850504 1.2878355 0.17958583 0.55057496 -0.64897144 -0.14682485 -0.6743956
0.9305328 -0.8226509 -0.017289927 0.26730654 1.6389923 0.050004277 0.34536505 0.5803543
0.306017 -0.77389526 0.4703318 0.14224648 -0.5849584 0.034340423 0.38748756 0.24026722
-0.028669674 -0.4417982 -0.010256471 0.07549754 0.40992662 0.13111264 -0.0919249 -0.053993665
1.1650186 0.324811 0.13207884 0.8722466 0.2861277 1.2467567 0.45377228 -1.6024283
-0.23387961 0.31854898 0.11739513 -0.82456756 0.37097314 0.73765475 0.2545974 -0.036252037
0.2832307 0.90153027 0.74030954 -0.10981632 -0.4941249 -0.2124753 -0.06183152 -0.062342286
-0.4257878 0.2436931 -0.10207776 0.7539491 -0.23243108 0.2903872 -0.5144216 -0.32520753
-0.7786396 -0.22854576 -0.1669778 -0.45476866 -0.42786577 -1.117397 -0.07270734 0.15594277
0.68958396 -1.1637739 0.4563679 0.61885667 -0.33593282 -0.2059138 0.5540755 -0.12143416
-0.3026444 -0.2141821 -0.3399898 1.0352974 0.16112354 -0.19423841 0.13060042 -0.118641995
0.084702 -0.5381262 0.19022353 0.22360289 0.9856809 0.5306177 -0.25202858 -0.39352185
00000000: d489 3bbe 189d 803f 493f 1c3e 76ef 99bf
00000010: 3f39 6c3e 2b7e a83f 5e9e 8cbf c3bc 6f3f
00000020: 9715 fd3d 0310 7c3e 6d06 3ebf d031 a9be
00000030: b0d8 823e 9b4d 823e c403 2cbf ef3e 77bc
00000040: 5eef c03e d00a d93f 19b7 c5bd 41d8 af3e
00000050: d018 b7bf 984a e1be f79b 913e d260 23bd
00000060: 7d99 b3bf 9c2b aebf 0cb7 02be 075e 3d3f
00000070: 5a60 7dbe 3a3a 9cbc 3139 a3be 41a3 03bf
00000080: cba8 21c0 e88d 9ebf cec7 ca3c d12a 21bf
00000090: 0215 5d3d 7c7d dbbe bc92 30bd d511 35bf
000000a0: d1cf 743e 6db1 1e3e 4ff7 fa3e 4464 7d3e
000000b0: 76bd a43e 7786 d63d 6b6d 19bf db2f 5f3f
000000c0: 4914 973d 7d38 d23e fb9e ef3e 4959 aebf
000000d0: b691 0cbf 5bc7 55bd 9273 803e 8b27 613e
000000e0: 4096 4d3d bfe0 92be 0cc9 51bf 1c9c c9be
000000f0: bafb 443f 275b 133e 4b1e fcbe cbfa 7f3f
00000100: a0e5 b8bd 7cd8 6d3f 408a bbbe 5509 623f
00000110: 839b 54bf 0c52 c53d dd3d 1c3f 48ac f83e
00000120: d944 06be ba4b 8d3e 1544 b63d 65ac c43e
00000130: a437 7e3f acda 5abf 68bf 4c3d ca18 e73e
00000140: d222 0e3e b550 a13f abe7 1a3f 4485 6abf
00000150: 2fe5 3dbf 48b4 c8be 416c 973f 5e94 0f3f
00000160: 1b4e c8bf 1263 8ebf f90f 51bf 763b 73bd
00000170: 48a2 2abe f6dd 00be 137d 0bbf 0ef5 94be
00000180: 07e5 0ac0 b55b 383f c4a2 3e3e 7e06 79bf
00000190: aa61 0d3e da6c 12be 0eb6 783e f663 1f3f
000001a0: 3514 cc3c 809c 61bf 2db4 d4bd d4d5 94be
000001b0: 9c73 d2be 1f40 a83e 4ab3 66be 1743 a9be
000001c0: b026 83be c3e3 8fbe d612 8e3e 48d7 a9be
000001d0: efe5 18bd 388d 98be 6a28 8fbd 10a5 923f
000001e0: e014 f5be 68a2 b83f 0f00 1b3f c830 c5be
000001f0: 4581 843e d71e 8ebf ad7f 95bd 67cd 32bf
00000200: 0187 a3be bd02 65be bf1a 9ebe 4e02 b03e
00000210: 97e8 90bd 524b 2b3b 9ed0 84be 45d0 0ebf
00000220: c2db 593f 11ee c0bd 56fa ae3f f949 d23d
00000230: 13d9 17bf 1cef b8be 708c 86be cfeb 9d3f
00000240: 01b5 483f 3e92 493f 5292 ed3e a45d 1f3f
00000250: ef8f ab3d e929 fc3d 2b68 d13d 9bc2 a13e
00000260: 6b38 8cbf 2ee9 913e 4fea 99be 95c0 c53f
00000270: 86c9 16bf cf06 6cbe 97ca 883e d75d 67bf
00000280: 7bdd 1cbf a7d5 98be cbd7 a43f 59e5 373e
00000290: 7bf2 0c3f fe22 26bf 4159 16be 31a5 2cbf
000002a0: 6637 6e3f 4099 52bf 9ba3 8dbc 67dc 883e
000002b0: 80ca d13f 49d1 4c3d b0d3 b03e 1992 143f
000002c0: 43ae 9c3e 001e 46bf 54cf f03e 10a9 113e
000002d0: d5bf 15bf 8ba8 0c3d c564 c63e 9c08 763e
000002e0: aadc eabc 6033 e2be c20a 28bc 749e 9a3d
000002f0: e7e1 d13e 6442 063e 1f43 bcbd 7628 5dbd
00000300: 541f 953f a14d a63e ad3f 073e 8e4b 5f3f
00000310: 547f 923e b995 9f3f d754 e83e 5f1c cdbf
00000320: 237e 6fbe da18 a33e dc6c f03d dc16 53bf
00000330: 31f0 bd3e f1d6 3c3f 975a 823e 047d 14bd
00000340: 9d03 913e b0ca 663f ed84 3d3f 61e7 e0bd
00000350: f0fd fcbe 2093 59be 0c43 7dbd a05a 7fbd
00000360: dc00 dabe af8a 793e 250e d1bd cf02 413f
00000370: 6a02 6ebe a2ad 943e 22b1 03bf 9a81 a6be
00000380: ed54 47bf e607 6abe 3afc 2abe 70d7 e8be
00000390: 3911 dbbe dd06 8fbf 96e7 94bd 76af 1f3e
000003a0: 9388 303f 8bf6 94bf 0ea9 e93e 646d 1e3f
000003b0: 63ff abbe 11db 52be e4d7 0d3f 79b2 f8bd
000003c0: 35f4 9abe 8d52 5bbe 2513 aebe a084 843f
000003d0: 92fd 243e 6fe6 46be 1ebc 053e 93fa f2bd
000003e0: 3e78 ad3d a3c2 09bf f5c9 423e 28f8 643e
000003f0: 9555 7c3f 90d6 073f e409 81be b27b c9be

net.4.bias f4 [64]
0.13376819 0.046373013 0.034670997 0.13117349 -0.07465335 -0.0022220765 -0.03739138 -0.19802417
-0.1446125 -0.07336688 -0.28553295 0.15384236 0.021857979 0.042756695 -0.28470868 0.16043998
-0.07362405 -0.096930064 -0.033714466 0.32524267 -0.19982266 -0.26403943 0.075733095 0.20626846
-0.004592215 0.14859676 -0.120265305 -0.35515755 0.20986022 0.16018327 -0.09114369 -0.032846685
-0.026633501 -0.11539275 -0.022772504 0.08924317 0.044456042 -0.07196217 0.2002102 0.052381713
-0.08939141 -0.06100782 -0.3983882 0.35001096 0.04372011 0.12535875 0.13580246 -0.033543162
-0.002737085 0.021783892 0.4059361 0.0109339245 -0.14046998 0.0013711826 0.04206982 -0.059186317
0.07334001 -0.25655833 -0.042764336 0.11441657 -0.05947002 0.095034964 0.18106414 -0.044339016
00000000: 87fa 083e a1f1 3d3d 2d03 0e3d 5852 063e
00000010: dbe3 98bd 42a0 11bb b427 19bd d9c6 4abe
00000020: 4d15 14be 6041 96bd 6031 92be da88 1d3e
00000030: 810f b33c a521 2f3d 56c5 91be 614a 243e
00000040: 35c8 96bd 4583 c6bd 2e18 0abd 3586 a63e
00000050: 509e 4cbe 2d30 87be f419 9b3d 0a38 533e
00000060: 4b7a 96bb c029 183e a84d f6bd 36d7 b5be
00000070: 99e5 563e 1507 243e 8ba9 babd 3f8a 06bd
00000080: 802e dabc 0953 ecbd 678d babc 20c5 b63d
00000090: 8a17 363d e760 93bd e703 4d3e 358e 563d
000000a0: d812 b7bd 56e3 79bd 8af9 cbbe a334 b33e
000000b0: dc13 333d 0b5e 003e cd0f 0b3e 8e64 09bd
000000c0: ab60 33bb 2274 b23c dbd6 cf3e 3424 333c
000000d0: 5dd7 0fbe 41b9 b33a 6751 2c3d 5a6d 72bd
000000e0: 4a33 963d 9d5b 83be a829 2fbd 3c53 ea3d
000000f0: d696 73bd b1a1 c23d e168 393e d49c 35bd

action_head.0.weight f4 [3, 64]
-0.1574711 -0.2260213 -0.1742377 -0.12909259 0.26855847 0.32454124 -0.188503 0.29102403
-0.21750145 0.010652544 0.13017842 -0.28074294 0.069070615 -0.11636137 0.48427418 -0.12719545
-0.04670448 -0.052874263 -0.31320542 -0.37263763 0.31550166 0.13412052 -0.01409622 -0.36862564
-0.0653091 -0.25988245 0.383401 0.10771562 -0.061424945 -0.10770751 -0.25517216 0.22613265
-0.10477637 -0.2414082 -0.024422439 0.14106266 0.0036377732 0.4651639 -0.27653852 0.15204844
0.16999273 0.27006096 -0.23034483 0.38166723 -0.16075845 0.04839221 -0.32644543 0.1683716
-0.03545051 -0.07761191 -0.35080785 -0.24155538 0.12172594 -0.18340813 0.122911245 0.11054374
0.15378033 0.11040258 0.2239447 -0.20634262 -0.03265498 -0.014197332 -0.23072997 0.07643159
-0.2001141 -0.49395114 -0.29964352 -0.1539567 0.2986468 0.35518616 -0.04582505 0.24601027
-0.3368397 -0.23794109 0.29235032 -0.25483894 0.0902975 -0.015850307 0.39694923 -0.30046022
-0.124454945 0.021314891 -0.35794824 -0.342793 0.22847804 0.14934808 -0.21677695 -0.31305265
-0.13458851 -0.30962223 0.34643802 0.07849889 -0.030943805 -0.08749553 -0.053340234 0.28697416
-0.20427085 -0.22606923 -0.049120825 0.20935945 -0.05217201 0.46017927 -0.19868894 0.39152786
0.24387637 0.2825871 -0.24126339 0.23988575 -0.38034362 0.056522924 -0.21186727 0.19798669
-0.005615053 -0.026359396 -0.40829775 -0.29198232 0.15005389 -0.09911365 0.2298286 0.07331904
0.15370338 0.113593936 0.14726761 -0.045156896 -0.094949365 0.102599256 -0.23147066 0.164509
-0.092727356 -0.4662014 -0.17180449 -0.13243933 0.2683745 0.27975368 -0.28796422 0.3258039
-0.21792924 -0.024646387 0.5501649 -0.076824285 0.043963753 -0.002020568 0.4520082 -0.23790091
-0.16251622 -0.07913414 -0.34890398 -0.29998136 0.2335975 0.053664368 -0.098949894 -0.19299892
-0.0047214306 -0.25365046 0.42507008 0.11557561 -0.044701587 -0.13866161 -0.16980465 0.28766677
-0.26104745 -0.21950953 -0.118251 0.019821148 -0.0029526558 0.47559106 -0.1544908 0.25378728
0.08396349 0.31745932 -0.21619521 0.31641054 -0.3268494 0.045756545 -0.2606809 0.07331378
-0.018686041 -0.05342453 -0.4796064 -0.35684714 0.16872774 -0.27091238 0.05549943 -0.013635697
0.13006589 0.19496909 0.18056801 -0.19605896 -0.07760276 -0.049523313 -0.1670648 0.17991076
00000000: 1b40 21be 2172 67be 5e6b 32be d930 04be
00000010: 7f80 893e 452a a63e ee06 41be 1a01 953e
00000020: b3b8 5ebe 0288 2e3c 7e4d 053e 8abd 8fbe
00000030: e574 8d3d df4e eebd c9f2 f73e 863f 02be
00000040: 324d 3fbd af92 58bd 765c a0be 5cca bebe
00000050: 6f89 a13e e456 093e d5f3 66bc 80bc bcbe
00000060: c7c0 85bd 500f 85be 234d c43e 029a dc3d
00000070: b998 7bbd c195 dcbd eda5 82be 518f 673e
00000080: fe94 d6bd b633 77be 9111 c8bc bb72 103e
00000090: b567 6e3b f629 ee3e 7596 8dbe 96b2 1b3e
000000a0: 9312 2e3e 6e45 8a3e 84df 6bbe e369 c33e
000000b0: dd9d 24be e936 463d db23 a7be 9b69 2c3e
000000c0: 8e34 11bd fef2 9ebd 169d b3be 4b5a 77be
000000d0: 734b f93d 57cf 3bbe e4b8 fb3d c264 e23d
000000e0: 9778 1d3e bf1a e23d c251 653e 7b4b 53be
000000f0: 3ac1 05bd ed9b 68bc 7a44 6cbe 2a88 9c3d
00000100: b6ea 4cbe 2ae7 fcbe e06a 99be d3a6 1dbe
00000110: 3ce8 983e f6da b53e 0cb3 3bbd 1eea 7b3e
00000120: 4176 acbe d4a6 73be f1ae 953e 407a 82be
00000130: e5ed b83d 81d8 81bc ee3c cb3e ecd5 99be
00000140: 3ce2 febd 919c ae3c fe44 b7be 9082 afbe
00000150: 26f6 693e b4ee 183e c7fa 5dbe 7048 a0be
00000160: 92d1 09be ce86 9ebe 5360 b13e 07c4 a03d
00000170: dd7d fdbc db30 b3bd 4a7b 5abd 47ee 923e
00000180: 612c 51be b17e 67be eb32 49bd 5362 563e
00000190: 51b2 55bd 9e9c eb3e 1d75 4bbe 5776 c83e
000001a0: baba 793e 42af 903e c00d 77be 9ca4 753e
000001b0: 66bc c2be 9584 673d bcf3 58be 06bd 4a3e
000001c0: 7bfe b7bb a9ef d7bc 670c d1be b57e 95be
000001d0: baa7 193e 19fc cabd 3058 6b3e 4b28 963d
000001e0: 6b64 1d3e f0a3 e83d 52cd 163e 70f6 38bd
000001f0: d074 c2bd 8f1f d23d a506 6dbe 0c75 283e
00000200: d7e7 bdbd f3b1 eebe 84ed 2fbe 2d9e 07be
00000210: 6268 893e e03b 8f3e 0c70 93be c5cf a63e
00000220: d828 5fbe 38e7 c9bc 9bd7 0c3f 0d56 9dbd
00000230: 5613 343d 816b 04bb 9e6d e73e 4c9c 73be
00000240: a76a 26be 1411 a2bd 8ba3 b2be 2897 99be
00000250: 2f34 6f3e 2bcf 5b3d 3ea6 cabd 82a1 45be
00000260: 3bb6 9abb 79de 81be c9a2 d93e e8b2 ec3d
00000270: 0319 37bd 4ffd 0dbe 45e1 2dbe 0f49 933e
00000280: 03a8 85be 1bc7 60be 952d f2bd f65f a23c
00000290: 5881 41bb ac80 f33e d632 1ebe 68f0 813e
000002a0: 0df5 ab3d 078a a23e 4762 5dbe 9000 a23e
000002b0: ce58 a7be 376b 3b3d f877 85be 8925 963d
000002c0: 7813 99bc aed3 5abd f88e f5be abb4 b6be
000002d0: f7c6 2c3e 07b5 8abe 5f53 633d 4268 5fbc
000002e0: fe2f 053e faa5 473e d2e6 383e aec3 48be
000002f0: 32ee 9ebd f5d8 4abd 0913 2bbe 873a 383e

action_head.0.bias f4 [3]
0.077434115 0.21908988 0.1572843
00000000: c795 9e3d 1959 603e 230f 213e

value_head.weight f4 [1, 64]
-144.25963 -144.18288 -144.30177 -144.32387 144.56198 144.34679 -144.3222 144.33789
-144.10918 144.23567 144.28227 -144.14133 144.32288 -144.2718 144.2873 -144.20755
-144.24344 -144.1626 -144.2709 -144.3822 144.2206 144.42923 -144.23839 -144.3339
-144.3833 -144.48396 144.18529 144.61478 -144.59601 -144.49707 -144.18141 144.294
-144.36734 -144.21558 -144.41605 144.63475 -144.41461 144.3754 -144.49477 144.49945
144.17592 144.32832 -144.15994 144.34482 -144.30336 144.40198 -144.2863 144.19525
-144.21461 -144.42639 -144.51158 -144.18398 144.19626 -144.62161 144.25397 -144.18991
144.3304 144.24059 144.20468 -144.178 -144.53519 -144.25554 -144.3777 144.12297
00000000: 7742 10c3 d12e 10c3 414d 10c3 e952 10c3
00000010: de8f 1043 c758 1043 7c52 10c3 8056 1043
00000020: f31b 10c3 553c 1043 4348 1043 2e24 10c3
00000030: a852 1043 9545 10c3 8c49 1043 2235 10c3
00000040: 523e 10c3 a029 10c3 5a45 10c3 d861 10c3
00000050: 7938 1043 e26d 1043 073d 10c3 7a55 10c3
00000060: 2062 10c3 e57b 10c3 6f2f 1043 629d 1043
00000070: 9498 10c3 407f 10c3 712e 10c3 444b 1043
00000080: 0a5e 10c3 3037 10c3 826a 10c3 7fa2 1043
00000090: 246a 10c3 1a60 1043 a97e 10c3 dc7f 1043
000000a0: 092d 1043 0d54 1043 f228 10c3 4658 1043
000000b0: a94d 10c3 e866 1043 4b49 10c3 fc31 1043
000000c0: f136 10c3 286d 10c3 f782 10c3 192f 10c3
000000d0: 3e32 1043 229f 10c3 0441 1043 9e30 10c3
000000e0: 9554 1043 973d 1043 6634 1043 912d 10c3
000000f0: 0289 10c3 6b41 10c3 b160 10c3 7b1f 1043

net.0.weight f4 [64, 3]
0.07108657 2.1118052 -0.21393123 0.27348426 -0.27219287 -0.15723786 -0.028013758 -0.07237584
0.17420983 0.64093244 0.0760032 -0.045124616 -0.5843574 0.23873492 -0.17290978 -0.049641825
-0.0708777 0.013506033 -0.12657122 0.095296554 0.19453338 0.44422168 -0.40686214 0.23022029
0.029148486 1.1887642 -0.004065093 -0.074669406 0.11956962 0.10138785 -0.6655993 0.104799606
0.07852011 0.021895126 0.08706357 0.08675953 -0.0038694153 0.019563423 0.6218682 0.7447012
0.23530696 -0.03227287 -0.5582171 0.07972172 -0.0053061224 0.11872978 0.46586698 -0.08093286
0.15790346 0.121621065 -0.011840645 -0.06775638 0.068790354 0.40907723 -0.22293013 0.18348378
-0.032294676 -0.7965893 -0.27987862 0.12032207 -0.13966711 0.061228447 0.8522866 0.04587198
-0.11705874 -0.8934432 0.039044145 0.11879075 -0.20638041 -0.3513634 -3.1785264 0.12939644
-0.32680622 -2.0313497 0.0018655456 0.107563406 0.31647357 0.17984061 0.41083837 -0.19500029
0.7837626 0.90068424 0.53910136 -0.1594602 -0.07966153 -0.33854732 -0.013192746 -0.28386465
0.17581287 -0.33731475 0.16266668 -0.16961843 0.22695155 -0.18452719 -0.01663638 -0.26126942
-0.17262076 -0.4713012 0.09153567 0.1882814 0.550361 -0.042462036 -0.7946296 -0.0075908774
-0.07290342 0.17232732 0.17706001 0.10630725 0.24324854 -0.123233855 0.6885966 -0.46578458
-0.010801676 -0.012283734 0.33264613 -0.36397642 0.055262122 0.18339986 0.03725584 0.37784767
-0.62890637 0.07362303 -0.16557255 -0.13885304 1.2059401 0.25538424 0.08574847 -0.25950134
-0.12207088 0.018873764 0.047316667 0.748799 -0.24119611 -0.0045238947 0.024153013 -0.20190775
0.016113268 -0.67192525 0.003793998 0.17685762 0.18103708 0.23501188 0.013098845 0.49852818
0.02727044 -0.2596799 0.2497923 -0.36895493 -0.12640625 0.11579238 0.44518703 -0.11589578
0.30667874 -0.009484873 0.20296913 -0.111305736 -0.19103783 0.49188903 0.16355719 -0.2633535
-0.4641544 -0.042002082 -0.2591198 0.10286063 0.0028637475 0.3865901 -0.11281597 1.2017101
-0.44789982 -0.25553858 -0.013028668 -0.3364717 0.39818195 0.21454589 -0.020429619 -0.054424923
0.080513 0.23042716 0.21835668 0.19024107 -0.099140525 0.16756062 0.110029876 -0.7419684
-0.7505409 0.50404954 0.45393714 0.022166392 -0.019208489 -0.37259036 -0.20621137 0.20985188
00000000: d695 913d d127 0740 ca10 5bbe 2106 8c3e
00000010: dd5c 8bbe f602 21be 1c7d e5bc c939 94bd
00000020: 1064 323e 2614 243f 91a7 9b3d 97d4 38bd
00000030: 7298 15bf ed76 743e 430f 31be 3a55 4bbd
00000040: 5428 91bd 6948 5d3c e39b 01be d72a c33d
00000050: c233 473e 0671 e33e 3c50 d0be debe 6b3e
00000060: cec8 ee3c 6d29 983f 7934 85bb 46ec 98bd
00000070: ebe0 f43d 6fa4 cf3d b764 2abf 2da1 d63d
00000080: 27cf a03d 685d b33c 634e b23d fbae b13d
00000090: 0496 7dbb 7943 a03c c132 1f3f bda4 3e3f
000000a0: 4ff4 703e 8f30 04bd 51e7 0ebf 2445 a33d
000000b0: fbde adbb 9928 f33d 1e86 ee3e 21c0 a5bd
000000c0: 72b1 213e 7714 f93d 44ff 41bc dbc3 8abd
000000d0: f5e1 8c3d 9272 d13e cc47 64be 2ce3 3b3e
000000e0: 6c47 04bd 47ed 4bbf 404c 8fbe 6b6b f63d
000000f0: e504 0fbe aeca 7a3d 742f 5a3f 42e4 3b3d
00000100: 7ebc efbd b2b8 64bf c1ec 1f3d 9148 f33d
00000110: 6355 53be e7e5 b3be fa6c 4bc0 8080 043e
00000120: 2553 a7be a201 02c0 5385 f43a 344a dc3d
00000130: d308 a23e 2328 383e 6859 d23e 28ae 47be
00000140: aaa4 483f 3e93 663f 8c02 0a3f 8949 23be
00000150: 9625 a3bd 1356 adbe 6326 58bc b556 91be
00000160: 4a08 343e 85b4 acbe 1892 263e 74b0 2dbe
00000170: fd65 683e b2f4 3cbe 0549 88bc 1bc5 85be
00000180: 7fc3 30be 644e f1be 0e77 bb3d d7cc 403e
00000190: 75e4 0c3f acec 2dbd d86c 4bbf e5bc f8bb
000001a0: 634e 95bd 9376 303e 384f 353e 9eb7 d93d
000001b0: 2516 793e 0862 fcbd de47 303f 517b eebe
000001c0: 83f9 30bc b741 49bc 9850 aa3e 1e5b babe
000001d0: 895a 623d 2ccd 3b3e 9499 183d 4075 c13e
000001e0: 0200 21bf acc7 963d da8b 29be 7e2f 0ebe
000001f0: 3f5c 9a3f b9c1 823e e59c af3d 5cdd 84be
00000200: 4c00 fabd 279d 9a3c 1fcf 413d 4bb1 3f3f
00000210: 1dfc 76be 2e3d 94bb 8adc c53c e8c0 4ebe
00000220: f9ff 833c 4b03 2cbf b9a4 783b 2a1a 353e
00000230: c961 393e f4a6 703e 8a9c 563c 163f ff3e
00000240: 4266 df3c c4f4 84be 8dc9 7f3e a9e7 bcbe
00000250: a470 01be 8e24 ed3d 8eef e33e c45a edbd
00000260: ff04 9d3e 7166 1bbc 24d7 4f3e 43f4 e3bd
00000270: 6c9f 43be e1d8 fb3e 897b 273e 45d6 86be
00000280: a5a5 edbe 600a 2cbd 5aab 84be 98a8 d23d
00000290: b6ad 3b3b 23ef c53e 0f0c e7bd a3d1 993f
000002a0: 2053 e5be f4d5 82be 3276 55bc 0546 acbe
000002b0: 81de cb3e ebb1 5b3e 045c a7bc abec 5ebd
000002c0: 00e4 a43d 19f5 6b3e e598 5f3e 8ece 423e
000002d0: 300a cbbd 0395 2b3e 5857 e13d a4f1 3dbf
000002e0: 7323 40bf 6409 013f 736a e83e 4b96 b53c
000002f0: 1f5b 9dbc 2ac4 bebe 1329 53be 69e3 563e

net.0.bias f4 [64]
0.31781787 0.22080086 0.20978802 -0.21789825 -0.39016291 -0.2524844 -0.26456124 0.29320514
0.18132615 -0.28717625 -0.30510208 0.5461074 0.2231333 0.13532026 -0.30162176 0.2972219
0.4896717 0.19841854 0.23520221 0.0038116912 0.17401037 -0.071234696 -0.4407053 -0.23240945
-0.23365009 0.28774613 0.29584312 0.16241936 0.1727169 -0.4168117 0.37679136 -0.124042965
0.024634477 0.22622453 -0.14059281 0.27684885 0.20322102 -0.36405715 -0.25829905 0.13791135
-0.2189717 0.18329611 0.20845014 0.059400186 0.19965056 -0.36570266 0.40974507 0.15602022
-0.16606444 -0.19073999 0.19276685 0.23047164 0.5084449 -0.19252649 0.3133954 0.27288365
-0.09788794 0.21273215 -0.2707181 0.36944515 0.42512822 -0.21888743 -0.23874031 0.12573761
00000000: 06b9 a23e 9f19 623e acd2 563e b820 5fbe
00000010: 6fc3 c7be a345 81be 9274 87be fc1e 963e
00000020: 90ad 393e c408 93be 5736 9cbe b2cd 0b3f
00000030: 0e7d 643e 6591 0a3e 2b6e 9abe 782d 983e
00000040: 40b6 fa3e 3b2e 4b3e d9d8 703e 91cd 793b
00000050: c62f 323e 7fe3 91bd 20a4 e1be befc 6dbe
00000060: f841 6fbe 7653 933e c078 973e 4351 263e
00000070: b3dc 303e 5868 d5be ccea c03e 3d0a febd
00000080: 3ece c93c 67a7 673e 90f7 0fbe 22bf 8d3e
00000090: 2c19 503e b365 babe c63f 84be a238 0d3e
000000a0: 1e3a 60be fab1 3b3e f473 553e 9c4d 733d
000000b0: 3271 4c3e 613d bbbe 1bca d13e c4c3 1f3e
000000c0: cc0c 2abe 5851 43be ac64 453e c200 6c3e
000000d0: 7229 023f aa25 45be 5d75 a03e 68b7 8b3e
000000e0: 7979 c8bd 75d6 593e 909b 8abe ea27 bd3e
000000f0: 68aa d93e 0724 60be 5778 74be 5cc1 003e

net.2.weight f4 [32, 64]
0.12279349 -0.016979616 0.24196593 -0.011667982 -0.38914484 -0.24813294 -0.13313012 0.05335352
1.005755 -0.16026156 -0.14848812 0.29799724 0.18232572 -0.24044828 0.48314548 0.31034017
0.24491175 0.2148709 0.39614403 0.065740615 0.15802972 -0.17710342 -0.07663 0.49867418
-0.756201 0.15200567 -0.18575366 0.33215344 -0.19779907 0.11676388 0.261807 -0.0646193
-0.010932742 0.2967573 -0.12581338 0.2227926 -0.011028982 0.22775325 -0.78998524 -0.23368345
0.24541546 0.5905179 -0.10192636 0.18244159 0.22935286 -0.1282065 0.5979683 0.017146481
-0.49266785 0.3636874 0.2495877 0.5964762 0.2025148 -0.3055995 0.3965369 -0.20706111
0.101656385 -0.008403194 -0.18129395 0.2931823 0.50109816 -0.8342843 -0.054885957 0.2291707
0.33044446 -0.08056926 0.09899602 0.16323817 0.010055837 -0.2910712 -0.2922637 0.13967879
0.28254798 0.13227814 -0.02760884 0.6415975 0.018563958 0.19309607 -0.21929748 0.18316333
0.56390154 -0.21412605 0.24052152 0.13067725 -0.041585676 -0.21365897 -0.44992548 -0.550415
-0.7593601 -0.17837171 -0.08179985 0.3176648 -0.10069299 0.13828193 -0.06406162 0.120685466
-0.004454233 0.10689257 -0.09096711 0.28514168 0.036785904 0.2495349 -0.13859801 0.1762917
0.20314853 0.13809925 -0.32236412 0.066173956 -0.020289967 -0.21030381 0.32560718 -0.3922557
-0.4372416 -0.10799207 -0.28251278 0.159542 0.67229456 -0.23467278 -0.08087059 0.5555944
-0.37795925 0.15728188 -0.26623103 0.24434072 0.7227387 -0.29834455 0.11590208 0.17728934
-0.19001114 -0.1744827 -0.23897336 -0.28788403 -0.01876585 0.12509556 0.37431785 0.20576063
-0.16488007 0.32210037 -0.21421783 0.2140025 0.70264864 0.09218621 -0.61290324 -0.5347619
0.19435179 0.8058038 -0.49401355 -0.27313405 1.3953968 -0.6504295 -0.04467889 0.3214213
-0.1628886 0.09297029 0.61307377 0.014416501 0.15696695 -0.09060491 -0.06071613 -0.15324923
0.5287301 0.31203517 0.2459927 0.11468223 0.87349355 0.12565064 0.1301117 0.48524314
0.005504927 0.062377885 -0.046205025 0.81523395 -0.0029815263 -0.5436747 0.31740016 -0.11230752
0.06052753 -0.26522645 0.47845098 -0.010026553 0.11276668 0.116714455 0.2673485 0.6284889
-0.007209603 0.22781798 -0.14883392 0.30965477 -0.23174565 -0.13953047 -0.017226439 0.2669256
-0.18358791 0.50089926 0.19840603 0.3743247 -0.65902364 0.36666718 0.09678392 0.08909947
0.20049667 -0.14380549 -0.6888903 -0.2706105 0.3037647 0.7450197 -1.2154602 0.27454612
0.2662729 0.022993919 -0.18189803 -0.2086311 -0.020466028 0.03642473 0.3259672 0.16002378
-0.30125916 0.054084353 0.5973127 0.021626625 0.0078040487 -0.27903295 0.103213966 -0.058871254
0.06368222 -0.043016218 -0.41249686 0.04239625 0.39858678 -0.31616026 0.43040603 -0.2785407
-0.09724714 0.17577252 0.14753243 -0.027565671 -0.044473212 0.03492477 0.09789863 0.083569415
-0.1460562 -0.31645605 0.29831487 -0.2892732 0.08858373 -0.20180155 -0.32562196 0.4167924
-0.79665446 0.22583951 -0.33383417 0.1842802 -0.16575906 -0.34754503 0.29099247 -0.34002963
00000000: 277b fb3d d618 8bbc ebc5 773e 102b 3fbc
00000010: fe3d c7be 9016 7ebe 4353 08be 3889 5a3d
00000020: 94bc 803f 9b1b 24be 450d 18be 1893 983e
00000030: 98b3 3a3e 1338 76be d85e f73e e8e4 9e3e
00000040: 25ca 7a3e 1e07 5c3e 64d3 ca3e 04a3 863d
00000050: 8bd2 213e 995a 35be 30f0 9cbd 3952 ff3e
00000060: 6496 41bf 60a7 1b3e 3536 3ebe 0410 aa3e
00000070: d78b 4abe e721 ef3d 910b 863e 2057 84bd
00000080: 3e1f 33bc 93f0 973e 39d5 00be be23 643e
00000090: e7b2 34bc 2638 693e 793c 4abf b74a 6fbe
000000a0: 314e 7b3e 2e2c 173f c4be d0bd f8d1 3a3e
000000b0: 7adb 6a3e 9148 03be 7314 193f c776 8c3c
000000c0: f63e fcbe 3c35 ba3e eb93 7f3e aab2 183f
000000d0: 0a60 4f3e 8a77 9cbe e206 cb3e d407 54be
000000e0: 3931 d03d 8dad 09bc 1fa5 39be fe1b 963e
000000f0: f847 003f a893 55bf 19d0 60bd b9ab 6a3e
00000100: 0430 a93e 7f01 a5bd 6dbe ca3d e827 273e
00000110: 3dc1 243c 4907 95be 96a3 95be f507 0f3e
00000120: 21aa 903e ec73 073e ef2b e2bc bc3f 243f
00000130: 7113 983c faba 453e 858f 60be 2b8f 3b3e
00000140: da5b 103f dc43 5bbe 464b 763e 42d0 053e
00000150: be55 2abd 6bc9 5abe a25c e6be ffe7 0cbf
00000160: 6c65 42bf 13a7 36be ae86 a7bd f6a4 a23e
00000170: 2038 cebd c799 0d3e bd32 83bd f129 f73d
00000180: d1f4 91bb 7eea da3d f74c babd 17fe 913e
00000190: d1ac 163d 1486 7f3e a3ec 0dbe d085 343e
000001a0: 2b06 503e e469 0d3e e90c a5be 3686 873d
000001b0: 2537 a6bc e259 57be fcb5 a63e bdd5 c8be
000001c0: 22de dfbe f22a ddbd 84a5 90be fa5e 233e
000001d0: 7f1b 2c3f 104e 70be 7b9f a5bd 6f3b 0e3f
000001e0: e083 c1be 800e 213e 6f4f 88be 7434 7a3e
000001f0: 6705 393f 9ec0 98be 125e ed3d 568b 353e
00000200: 4892 42be 98ab 32be 6fb5 74be 8965 93be
00000210: d7ba 99bc 0d19 003e 97a6 bf3e eab2 523e
00000220: 52d6 28be 57ea a43e eb5b 5bbe 7923 5b3e
00000230: c8e0 333f 20cc bc3d 3ae7 1cbf 28e6 08bf
00000240: 2804 473e 2849 4e3f 58ef fcbe 3ad8 8bbe
00000250: 5d9c b23f 8c82 26bf 3601 37bd 5591 a43e
00000260: 45cc 26be 3567 be3d 67f2 1c3f 3033 6c3c
00000270: f2bb 203e 118f b9bd 7ab1 78bd 5eed 1cbe
00000280: db5a 073f 13c3 9f3e 83e5 7b3e 84de ea3d
00000290: 469d 5f3f 90aa 003e 003c 053e ca71 f83e
000002a0: ad62 b43b f47f 7f3d 7b41 3dbd 2cb3 503f
000002b0: b665 43bb 442e 0bbf 4682 a23e 7c01 e6bd
000002c0: b7eb 773d c3cb 87be 87f7 f43e 6946 24bc
000002d0: 38f2 e63d fd07 ef3d e7e1 883e a6e4 203f
000002e0: 893e ecbb 1e49 693e eb67 18be 128b 9e3e
000002f0: bb4e 6dbe 13e1 0ebe 761e 8dbc 79aa 883e
00000300: 78fe 3bbe ef3a 003f f32a 4b3e 7da7 bf3e
00000310: c6b5 28bf cdbb bb3e a636 c63d c879 b63d
00000320: 004f 4d3e bf41 13be 1d5b 30bf 768d 8abe
00000330: 0c87 9b3e 9cb9 3e3f 3394 9bbf 4f91 8c3e
00000340: ec54 883e be5d bc3c 7a43 3abe 64a3 55be
00000350: 5fa8 a7bc 1932 153d 2ce5 a63e 46dd 233e
00000360: a43e 9abe 8e87 5d3d 7ce9 183f 522a b13c
00000370: 1bb9 ff3b 68dd 8ebe d861 d33d fc22 71bd
00000380: d36b 823d c631 30bd ca32 d3be b1a7 2d3d
00000390: 9113 cc3e c2df a1be 2e5e dc3e e39c 8ebe
000003a0: 8229 c7bd b6fd 333e be12 173e 67d1 e1bc
000003b0: 8b29 36bd 470d 0f3d 147f c83d 7126 ab3d
000003c0: c28f 15be 8706 a2be babc 983e 9e1b 94be
000003d0: 636b b53d 11a5 4ebe ecb7 a6be d065 d53e
000003e0: 8cf1 4bbf 7942 673e 50ec aabe f3b3 3c3e
000003f0: bebc 29be 6cf1 b1be f7fc 943e 5d18 aebe

net.2.bias f4 [32]
0.08430441 0.18132617 0.03680623 0.09071172 0.105088614 0.052197184 -0.08505379 -0.10950062
-0.23112133 -0.11776103 0.23566602 0.12859485 0.16172111 0.14695857 -0.07847622 -0.073048495
-0.010587833 -0.28093725 -0.12162365 0.12751806 0.21511932 -0.2312562 0.041072287 0.17514098
-0.100015104 0.20670688 -0.04403082 0.15527599 -0.11044599 0.051129065 0.11089874 0.15299566
00000000: caa7 ac3d 91ad 393e 21c2 163d 11c7 b93d
00000010: b338 d73d b7cc 553d ae30 aebd dc41 e0bd
00000020: 12ab 6cbe b22c f1bd 6f52 713e 5eae 033e
00000030: 389a 253e 4f7c 163e 24b8 a0bd 739a 95bd
00000040: 9778 2dbc 02d7 8fbe d215 f9bd 1894 023e
00000050: 3d48 5c3e 6dce 6cbe 6a3b 283d 2858 333e
00000060: b8d4 ccbd f8aa 533e a959 34bd ab00 1f3e
00000070: 8231 e2bd b66c 513d e11e e33d e5aa 1c3e

net.4.weight f4 [8, 32]
-0.0068371673 0.6022575 0.44007868 0.4710767 0.22757278 -0.0033145405 -0.1959714 -0.921357
-0.74387294 -0.99353886 0.21964428 0.18674052 0.6542904 0.68870527 -0.6321817 0.3069479
0.041121844 -0.16152112 -0.6055113 -0.021871451 0.25582263 -0.22788481 0.085221075 0.78438854
-0.11245951 0.62973136 -0.022140274 0.47861058 -0.32946736 -0.005123145 0.33338073 0.6099638
0.27726743 0.22227474 0.1847683 -0.02946909 0.20224741 -0.09929664 -0.36346453 -0.07797871
-0.30016622 -0.32824585 0.5209607 0.07547113 0.06867407 0.80228585 -0.5100472 0.8675516
-0.24841294 -0.061817754 -0.24196933 0.44586733 0.68386257 -0.11130528 -0.15072513 0.115768716
-1.2720352 0.54989797 -0.5224693 0.2681928 -0.319708 0.4313155 0.29142344 0.7604374
0.30159387 0.46829805 0.74807566 0.190668 0.54077876 -0.84320045 -0.37289634 0.28562483
-0.26914942 -0.18440987 0.07636891 0.60333353 0.097555645 -0.27824837 -1.2691473 0.2655396
-0.62180454 -0.4042055 -0.462125 1.1143247 0.16890985 -0.2987162 1.0319257 0.12093726
-0.46615797 -0.08693042 -0.6722686 0.9443517 0.497088 -0.2016229 -0.11630946 -0.058109693
0.95647544 0.44879752 0.31849638 0.57499987 0.05100616 -0.3681188 -0.30502614 -0.20806485
0.13606292 -0.6323254 0.66647136 0.4090585 0.5596754 0.53049654 -0.19773412 0.18932638
-0.3857255 0.6632483 -0.345473 0.39857197 0.16145755 -0.94722784 0.6903024 0.5108725
-0.7670879 0.28680953 -0.021522013 0.03767058 -0.69504935 0.54391485 -0.019990046 0.20002435
-0.09090237 0.20903917 0.71680254 0.41324362 0.63372976 -0.33482888 -1.1410999 -0.078523755
-0.64734566 -0.37098834 -0.08672313 0.3053109 0.31096214 -0.12215129 -0.90223867 0.23538212
-1.1401545 0.20648505 -0.09775954 0.06006625 0.24503535 -0.36950374 0.7295818 0.21084611
0.07660263 -0.07916262 -0.70888036 0.4829214 -0.217423 0.622503 0.15606453 0.071087696
-0.3833195 -0.51588184 -0.6414774 -1.6760294 0.16651978 1.8672704 0.24931785 0.21591584
0.51607436 -0.06416683 -0.1167105 -0.16753872 -0.33717152 0.077927575 -0.024229763 -0.3358074
0.067627184 -1.1094071 0.3452866 -0.031233035 -0.4192346 0.7703846 0.6603396 0.2571094
0.10258043 0.39032808 0.11613866 -0.815662 0.39396167 -0.7123603 -2.849901 0.31168687
0.51625127 1.0711163 0.29970765 0.55595475 0.009816275 -1.2669444 0.0075735142 -0.57496494
-0.29692784 -0.28138125 0.24273638 -0.0712421 0.08576758 0.28982538 -0.4407417 0.48924577
-0.83994555 0.14773035 0.22562084 0.6149496 -0.098348595 -0.10913188 0.027531778 0.6069491
-0.49957806 0.6323663 -0.3371709 0.555664 -0.6303433 0.38543126 0.23556726 0.64579064
0.74343944 1.0148404 0.16358165 0.18045834 -0.05803495 0.05909483 -0.2778458 -0.33937937
-0.49000376 -0.25873134 0.25354952 1.2158371 0.49225086 1.1647521 -0.40170318 0.97511995
-0.0997698 -0.36672258 -0.26106396 0.36408314 -0.5227917 0.11386927 0.37160668 0.47510067
-0.65465134 0.5736248 -0.001414115 -0.095575035 -0.006009778 0.63885593 0.17037116 1.132417
00000000: 510a e0bb 8c2d 1a3f fe51 e13e f730 f13e
00000010: d708 693e c338 59bb baac 48be 0dde 6bbf
00000020: 756e 3ebf 9058 7ebf 6eea 603e e838 3f3e
00000030: 937f 273f fd4e 303f a9d6 21bf 4628 9d3e
00000040: 616f 283d cb65 25be ca02 1bbf c22b b3bc
00000050: 2ffb 823e a35a 69be 6388 ae3d b0cd 483f
00000060: 2c51 e6bd 1336 213f 855f b5bc 720c f53e
00000070: f2af a8be 0ee0 a7bb e1b0 aa3e 9626 1c3f
00000080: fff5 8d3e fd9b 633e e733 3d3e 2969 f1bc
00000090: f219 4f3e 095c cbbd 0618 babe 4db3 9fbd
000000a0: 63af 99be d70f a8be ae5d 053f 9c90 9a3d
000000b0: fea4 8c3d 9b62 4d3f 7492 02bf dd17 5e3f
000000c0: f65f 7ebe 9d34 7dbd cfc6 77be b948 e43e
000000d0: 9e11 2f3f 06f4 e3bd b057 1abe 2618 ed3d
000000e0: 0dd2 a2bf 1dc6 0c3f 8cc0 05bf 9150 893e
000000f0: c4b0 a3be 63d5 dc3e 7435 953e 07ac 423f
00000100: 836a 9a3e c3c4 ef3e e381 3f3f 793e 433e
00000110: 7a70 0a3f fcdb 57bf 45ec bebe 6b3d 923e
00000120: f4cd 89be f1d5 3cbe 4e67 9c3d 1174 1a3f
00000130: 41cb c73d 9276 8ebe 6b73 a2bf cef4 873e
00000140: 952e 1fbf 06f4 cebe a69b ecbe 31a2 8e3f
00000150: b4f6 2c3e 54f1 98be 2416 843f f4ad f73d
00000160: 42ac eebe 9308 b2bd cc19 2cbf 08c1 713f
00000170: 5182 fe3e 3c76 4ebe a733 eebd 6e04 6ebd
00000180: 93db 743f cac8 e53e f511 a33e 3133 133f
00000190: d6eb 503d 117a bcbe 632c 9cbe f40e 55be
000001a0: 1454 0b3e 14e0 21bf de9d 2a3f 1e70 d13e
000001b0: e346 0f3f 9fce 073f d07a 4abe c6de 413e
000001c0: d07d c5be a4ca 293f d6e1 b0be a011 cc3e
000001d0: 2155 253e 867d 72bf a8b7 303f 8ac8 023f
000001e0: df5f 44bf b3d8 923e ef4e b0bc 774c 1a3d
000001f0: c1ee 31bf 013e 0b3f 2ac2 a3bc 2fd3 4c3e
00000200: 062b babd 5d0e 563e 5f80 373f ab94 d33e
00000210: 1d3c 223f b16e abbe 900f 92bf 10d1 a0bd
00000220: 72b8 25bf 2ff2 bdbe e59b b1bd b651 9c3e
00000230: 6e36 9f3e 752a fabd 1df9 66bf 0308 713e
00000240: 95f0 91bf d170 533e 2736 c8bd 0708 763d
00000250: 8cea 7a3e 982f bdbe dfc5 3a3f 0be8 573e
00000260: d7e1 9c3d 0320 a2bd 2f79 35bf 7941 f73e
00000270: 23a4 5ebe 5b5c 1f3f 61cf 1f3e 6d96 913d
00000280: 7442 c4be d510 04bf dd37 24bf 2288 d6bf
00000290: 2984 2a3e b702 ef3f 2e4d 7f3e 0b19 5d3e
000002a0: 731d 043f e669 83bd ea05 efbd 458f 2bbe
000002b0: bfa1 acbe 7e98 9f3d 7f7d c6bc f3ee abbe
000002c0: 1f80 8a3d 0d01 8ebf 68c9 b03e 6cdc ffbc
000002d0: eba5 d6be ed37 453f 040c 293f d8a3 833e
000002e0: b015 d23d 15d9 c73e 1bda ed3d 3acf 50bf
000002f0: 58b5 c93e 3f5d 36bf c764 36c0 6c95 9f3e
00000300: 0b29 043f 571a 893f 4873 993e 0d53 0e3f
00000310: 71d4 203c 3c2b a2bf 3e2b f83b e730 13bf
00000320: ed06 98be 3411 90be e38f 783e 61e7 91bd
00000330: eaa6 af3d fe63 943e e5a8 e1be 6c7e fa3e
00000340: ac06 57bf a046 173e 2609 673e 566d 1d3f
00000350: fd6a c9bd 8980 dfbd 538a e13c 0461 1b3f
00000360: b2c8 ffbe c2e2 213f aaa1 acbe ff3f 0e3f
00000370: 2e5e 21bf 3f57 c53e 8b38 713e 8952 253f
00000380: 0c52 3e3f 4ae6 813f f381 273e 12ca 383e
00000390: 0eb6 6dbd 6c0d 723d ce41 8ebe 22c3 adbe
000003a0: c6e1 fabe 6f78 84be 3ed1 813e 8da0 9b3f
000003b0: 4e08 fc3e 9916 953f 0aac cdbe 76a1 793f
000003c0: 1c54 ccbd 10c3 bbbe 2daa 85be 1b69 ba3e
000003d0: add5 05bf 4b34 e93d 3b43 be3e 6540 f33e
000003e0: 3b97 27bf 13d9 123f d359 b9ba d8bc c3bd
000003f0: aced c4bb 108c 233f c775 2e3e 0af3 903f

net.4.bias f4 [8]
0.16711254 0.103840314 -0.0042420737 0.2098301 0.07385271 -0.14474268 0.23145688 0.09764649
00000000: 8d1f 2b3e 3baa d43d 1801 8bbb b4dd 563e
00000010: 1740 973d 6d37 14be 0803 6d3e e2fa c73d
