auto-iss-demo/orientation_agent/weights/orientation_net_50K.pt (torch, 68335 bytes, 16 tensors)

net.0.weight f4 [128, 3]
-0.01805363 0.24084172 0.2199844 0.14955713 -0.5290885 -0.18157187 0.14922097 -0.22655626
0.16470191 -0.24938372 0.48896894 -0.09431778 -0.16371693 0.135151 -0.1690314 -0.035304233
-1.0397172 -0.39820948 -0.38917854 0.5737719 -0.27556723 -0.12466472 -0.32902396 0.12753922
-0.14409943 0.25654808 -0.29235652 -0.26368055 -0.6043198 0.1602829 0.11127625 0.5814724
0.13815628 -0.086537 0.30081984 0.019671332 0.04697407 -0.3237418 0.10111588 0.10972617
-0.23460959 -0.2242882 -0.011533337 0.4064665 0.02312138 0.10875689 -0.23562787 0.02046061
0.0063639656 -0.12634997 0.11776036 0.085577175 -0.097599775 0.13293657 -0.034501456 0.0046666004
-0.20869768 0.14545229 -0.18380673 0.04524016 0.2547111 -0.29688764 -0.07988091 -0.17202155
-0.53943837 0.042086493 0.14160801 0.33449528 0.15684049 -0.118792415 -0.23188546 -0.11192709
0.017910302 0.41405794 -0.13534689 -0.20021404 -0.8026381 -0.040648416 0.06110993 0.12724426
-0.14316504 -0.25335097 0.12406396 -0.0781442 -0.06275809 0.3626692 -0.033486336 -0.01020351
-0.011658906 -0.16771941 -0.04507516 0.40813932 0.13161848 -0.02017375 -0.18799509 -0.107747376
0.0051849396 -0.1463792 -0.038956583 0.019129768 0.0733228 -0.13266416 -0.06700214 -0.5171329
-0.04255613 0.2538043 -0.17511663 0.04860545 -0.060188133 0.26394272 0.10709117 0.049454954
0.036732364 -0.07658172 0.17685261 0.08985647 -0.34538934 0.06221112 0.29432547 0.109680556
-0.15457076 0.26195192 0.064518824 -0.06708394 -0.0836804 -0.2335669 -0.1661737 0.3502552
0.13047908 -0.19445388 0.40791273 0.09998813 -0.14763246 -0.3805897 0.062091347 0.2656106
0.4384143 -0.16705672 -0.22031246 0.04725195 0.015504798 0.08110103 -0.08363841 0.12378163
-0.19379514 0.55769104 -0.11074576 -0.089658156 -0.211733 0.07296158 0.052423403 -0.2032362
0.23810266 0.023312243 -0.28985196 -0.054838922 0.1597436 -0.28573102 0.007170648 -0.010636783
0.78301686 -0.045699026 -0.1165145 0.11048338 0.13262995 -0.046537474 0.2110246 -0.0022200851
-0.041028585 0.30545473 0.15298606 -0.132263 0.06786547 0.028891878 -0.034645673 -0.34407067
-0.17709614 0.092428826 0.34225142 -0.12440357 -0.0537358 0.50131035 0.27792737 -0.13172187
0.17788537 -0.07814795 -0.21914011 -0.5301562 0.06893156 0.29135498 0.19152656 -0.049434006
-0.19321817 0.3323958 0.2814916 0.06024814 -0.28929844 -0.07417896 -0.008364563 0.09885848
0.27504632 0.030259978 0.44129646 -0.04882078 -0.05325969 0.07597191 -0.088683166 -0.10378756
-0.17394388 0.20055388 0.36228177 0.36124912 -0.17796324 0.011847878 -0.23534249 0.0030184234
-0.13464148 -0.42422685 0.028694008 -0.03532143 0.5129957 0.034029234 0.096042104 0.111979246
0.08645367 -0.042612478 -0.07762663 -0.07398339 0.3865238 -0.21924797 0.37206283 0.009967089
0.3482845 -0.19681922 0.01821456 -0.28923517 -0.12433407 -0.12702742 -0.22334693 -0.09324544
-0.21826437 0.5869987 -0.08881743 0.03477938 -0.3281308 0.15538518 0.048809964 -0.5767011
0.091910444 -0.01999309 -0.42527854 0.15262336 0.0999658 -0.15715817 0.0023097096 -0.18721478
00000000: 35e5 93bc 369f 763e 9743 613e 8125 193e
00000010: 5872 07bf faed 39be 62cd 183e 5dfe 67be
00000020: 9ea7 283e 725e 7fbe 235a fa3e ae29 c1bd
00000030: 69a5 27be 0665 0a3e 9116 2dbe 2c9b 10bd
00000040: 7415 85bf 1de2 cbbe 6942 c7be b7e2 123f
00000050: 2617 8dbe 3750 ffbd d475 a8be a499 023e
00000060: cd8e 13be 455a 833e c1af 95be 2301 87be
00000070: b4b4 1abf 3321 243e cde4 e33d 60db 143f
00000080: d778 0d3e 503a b1bd 0f05 9a3e c625 a13c
00000090: e267 403d 7cc1 a5be d815 cf3d 1db8 e03d
000000a0: 7f3d 70be ceab 65be 52f6 3cbc 611c d03e
000000b0: 0c69 bd3c efbb de3d 6f48 71be 029d a73c
000000c0: d088 d03b e361 01be 582c f13d 1643 af3d
000000d0: 64e2 c7bd 8620 083e 6651 0dbd 48ea 983b
000000e0: d8b4 55be 72f1 143e d537 3cbe bf4d 393d
000000f0: 7e69 823e a801 98be 9a98 a3bd 6b26 30be
00000100: a218 0abf e362 2c3d b101 113e f742 ab3e
00000110: cb9a 203e 7049 f3bd 6273 6dbe 083a e5bd
00000120: a0b8 923c 67ff d33e 6098 0abe e904 4dbe
00000130: b179 4dbf f47e 26bd 684e 7a3d 524c 023e
00000140: db99 12be 38b7 81be 3f15 fe3d 110a a0bd
00000150: 5087 80bd c7af b93e f828 09bd 9f2c 27bc
00000160: ff04 3fbc a3be 2bbe bba0 38bd a3f7 d03e
00000170: ffc6 063e 6c43 a5bc c981 40be a8aa dcbd
00000180: 6de6 a93b 6ee4 15be f090 1fbd 08b6 9c3c
00000190: 442a 963d 1dd9 07be 6b38 89bd d262 04bf
000001a0: 564f 2ebd a3f2 813e c651 33be 8216 473d
000001b0: d587 76bd 8023 873e 9e52 db3d 4791 4a3d
000001c0: ad74 163d e0d6 9cbd da18 353e ab06 b83d
000001d0: dfd6 b0be 16d1 7e3d d4b1 963e 33a0 e03d
000001e0: cc47 1ebe 901e 863e 7222 843d 4e63 89bd
000001f0: a160 abbd 292c 6fbe 7029 2abe a654 b33e
00000200: 4f9c 053e eb1e 47be f0d9 d03e 94c6 cc3d
00000210: f72c 17be a7dc c2be 7f53 7e3d 1dfe 873e
00000220: d777 e03e eb10 2bbe 9799 61be 438b 413d
00000230: d607 7e3c 4c18 a63d 9d4a abbd 3981 fd3d
00000240: 3c72 46be d7c4 0e3f acce e2bd b29e b7bd
00000250: 89d0 58be e16c 953d ecb9 563d 271d 50be
00000260: 2fd1 733e 51f9 be3c 7a67 94be c79e 60bd
00000270: d493 233e 564b 92be c1f7 ea3b e745 2ebc
00000280: cb73 483f e72e 3bbd 279f eebd 1c45 e23d
00000290: 25d0 073e 149e 3ebd d516 583e d97e 11bb
000002a0: 970d 28bd 9064 9c3e 61a8 1c3e f46f 07be
000002b0: 0dfd 8a3d a9ae ec3c 9fe8 0dbd 082a b0be
000002c0: b158 35be 534b bd3d 943b af3e 4dc7 febd
000002d0: 121a 5cbd e055 003f 7f4c 8e3e 19e2 06be
000002e0: 9527 363e 080c a0bd 4466 60be 51b8 07bf
000002f0: fd2b 8d3d 7b2c 953e 8a1f 443e 507b 4abd
00000300: fcda 45be c82f aa3e ab1f 903e c1c6 763d
00000310: ed1e 94be 23eb 97bd 850b 09bc 5176 ca3d
00000320: dfd2 8c3e c6e3 f73c 9cf1 e13e 4cf8 47bd
00000330: d526 5abd 2997 9b3d 859f b5bd 928e d4bd
00000340: 581e 32be ff5d 4d3e ff7c b93e a5f5 b83e
00000350: ff3b 36be 9a1d 423c 9ffd 70be bed0 453b
00000360: 75df 09be 4334 d9be b20f eb3c 34ad 10bd
00000370: b053 033f 3d62 0b3d b9b1 c43d 6055 e53d
00000380: 9f0e b13d 6c8a 2ebd b6fa 9ebd 9b84 97bd
00000390: 73e6 c53e 8a82 60be 057f be3e 004d 233c
000003a0: 5952 b23e fa8a 49be b336 953c a216 94be
000003b0: dca2 febd 7a13 02be 0fb5 64be 77f7 bebd
000003c0: b280 5fbe 8c45 163f eae5 b5bd d374 0e3d
000003d0: c300 a8be 4b1d 1f3e f5ec 473d afa2 13bf
000003e0: 8b3b bc3d 8cc8 a3bc 1cbe d9be 4c49 1c3e
000003f0: dfba cc3d 12ee 20be 7f5e 173b 3bb5 3fbe

net.0.bias f4 [128]
0.09459961 -0.2052457 -0.21634401 0.14875789 0.016250655 -0.15898947 -0.05630131 -0.10663729
-0.040034134 -0.15598087 0.18110089 -0.10838698 -0.011573704 -0.09139288 0.11046076 -0.1887873
-0.08307263 -0.08468815 0.048743036 -0.11686416 0.093275376 -0.078324914 0.23227438 -0.16631518
0.198308 -0.1924005 0.12889169 -0.032414407 0.030969363 0.036577906 0.26784265 -0.1364549
-0.24882184 0.2532947 -0.22352144 -0.18121958 0.27403775 0.08839321 0.1018756 0.1015204
-0.15668695 -0.19379573 0.27281952 0.085450895 -0.31598923 0.06610262 -0.043120213 0.19900331
-0.044856183 -0.21382669 -0.009221743 0.0069834227 -0.2554926 0.40828633 0.30538467 0.19038881
-0.0686345 -0.15738352 -0.23538494 0.21579753 0.3013159 0.17970836 -0.2499391 -0.06954164
0.3918745 0.06531942 0.16763453 0.4014681 0.19819523 -0.22677973 0.1334766 -0.39824346
-0.16387089 0.3901435 0.25336206 -0.017554117 0.11802541 0.16190529 -0.08122083 -0.21587071
0.13203189 0.026636343 -0.21001592 -0.111646906 -0.19629225 0.24742045 -0.25890395 0.122196406
-0.002040902 0.12969847 -0.034238897 -0.19844417 -0.18643653 0.2495501 -0.20076619 0.15985821
0.19128984 -0.04408903 0.2395525 0.09092219 -0.065248 -0.0031844566 -0.25041702 0.226918
0.25785604 -0.063603766 0.30842033 0.07857749 0.01532683 -0.21651112 0.1953788 0.12594196
0.4663495 0.09175204 -0.08939374 -0.2096821 -0.23621355 -0.3205513 0.29494968 -0.20379776
-0.23235986 0.023488734 -0.03505361 -0.18138506 0.02938034 -0.20520839 0.3015925 -0.27690643
00000000: 71bd c13d ee2b 52be 4989 5dbe fd53 183e
00000010: 1820 853c 23ce 22be 349c 66bd a764 dabd
00000020: d5fa 23bd 73b9 1fbe 8372 393e fef9 ddbd
00000030: a29f 3dbc 312c bbbd 4039 e23d 7551 41be
00000040: fc21 aabd fb70 adbd c7a6 473d 7a56 efbd
00000050: 2907 bf3d d068 a0bd 56d9 6d3e 874e 2abe
00000060: 4111 4b3e a304 45be 2ffc 033e f8c4 04bd
00000070: 76b3 fd3c b7d2 153d ac22 893e d5ba 0bbe
00000080: 27cb 7ebe d8af 813e cee2 64be a091 39be
00000090: ad4e 8c3e 8007 b53d 28a4 d03d ede9 cf3d
000000a0: 8b72 20be 6372 46be 00af 8b3e e100 af3d
000000b0: 57c9 a1be cf60 873d d29e 30bd 86c7 4b3e
000000c0: 1ebb 37bd 62f5 5abe cb16 17bc 32d5 e43b
000000d0: edcf 82be e80a d13e 615b 9c3e 49f5 423e
000000e0: 3f90 8cbd 2529 21be c008 71be 07fa 5c3e
000000f0: 1446 9a3e 7805 383e 09f0 7fbe d96b 8ebd
00000100: c6a3 c83e 30c6 853d 63a8 2b3e 3a8d cd3e
00000110: b1f3 4a3e f238 68be 17ae 083e 91e6 cbbe
00000120: c5cd 27be e4c0 c73e acb8 813e a7cd 8fbc
00000130: 4eb7 f13d 80ca 253e 1b57 a6bd 360d 5dbe
00000140: 5e33 073e 7634 da3c 6a0e 57be 22a7 e4bd
00000150: d600 49be c95b 7d3e 0f8f 84be 1c42 fa3d
00000160: a7c0 05bb adcf 043e 163e 0cbd f334 4bbe
00000170: 38e9 3ebe 108a 7f3e a795 4dbe dfb1 233e
00000180: 7ce1 433e b396 34bd 404d 753e 6a35 ba3d
00000190: bea0 85bd 51b2 50bb a936 80be 315d 683e
000001a0: b505 843e b142 82bd 45e9 9d3e 3ced a03d
000001b0: 621d 7b3c 17b5 5dbe 6111 483e eef6 003e
000001c0: 5dc5 ee3e 7ee8 bb3d 1114 b7bd e8b6 56be
000001d0: f7e1 71be 4d1f a4be a503 973e 5cb0 50be
000001e0: beef 6dbe 726b c03c 6094 0fbd 01bd 39be
000001f0: 0aaf f03c 2622 52be 556a 9a3e aec6 8dbe

net.2.weight f4 [64, 128]
0.2422133 -0.09720752 -0.23126078 0.033908878 0.084447555 -0.15197718 -0.15454611 -0.20545599
0.097879715 -0.17159191 0.14334786 0.038104042 -0.17173906 0.03857292 0.015896983 0.29154548
-0.08773944 -0.15902977 -0.12438247 0.05814856 0.2364903 -0.2671511 0.0997395 -0.06502952
0.11246463 -0.032921076 -0.10698488 0.213275 -0.080479175 -0.16771759 0.33931872 -0.2840559
-0.12034161 0.24614117 -0.07513822 -0.059430365 0.3129328 0.15739836 -0.23679924 0.2062452
-0.06672153 -0.028021162 0.20019077 0.108136356 -0.0595604 0.31304136 -0.31148615 -0.037953537
0.043425027 -0.3266254 -0.0046747257 -0.3857515 0.015960548 0.16616696 -0.015119033 -0.08653943
0.16850632 -0.12499397 -0.3971593 0.107170746 -0.12388752 -0.062155575 -0.17420283 0.018587403
0.24619702 -0.067407265 0.29692897 0.19486156 0.56878835 -0.12089428 0.35093832 -0.085486725
-0.23907036 0.34118035 0.052563764 -0.03914421 0.17207462 0.07755414 -0.11535734 -0.109447524
0.22976671 -0.089411154 -0.24354607 0.0007746191 -0.26109388 0.31601596 -0.25630492 0.2799457
0.17194425 0.10341366 -0.10859321 -0.022951895 -0.40977356 0.19160017 -0.40782306 0.16516533
-0.23311792 -0.08544893 0.14486063 0.23133545 0.038850375 -0.15583658 -0.1813555 0.1507296
0.0961616 -0.022284433 0.41614315 -0.040292267 0.24975686 -0.238479 0.046384737 0.12443457
0.31516576 0.010621778 -0.22365277 0.056851927 -0.40899342 -0.037806086 0.25969 -0.29782894
-0.39055467 0.10178073 -0.19099736 -0.36837587 -0.010321052 -0.055104803 -0.0026480653 -0.37232128
0.16443402 0.026588893 -0.09501126 0.08178751 -0.013283182 -0.30084625 0.050615247 -0.30243638
-0.11046227 -0.1871496 0.23098615 -0.19257459 -0.015973618 -0.24602099 0.10771804 0.057366733
0.017171632 -0.093175136 -0.03383709 -0.0006165883 -0.05291363 -0.39456934 0.14155602 0.042185795
0.2705774 -0.16762877 0.075185 -0.24295281 -0.0028232571 -0.030828938 0.22030646 -0.013418427
-0.05892 0.2215053 0.028540064 -0.22837944 0.10421544 -0.30791044 0.11558873 0.17144407
-0.1636887 -0.40509227 0.11167547 0.26638848 -0.2730434 0.25908083 -0.015068022 -0.042320326
-0.24751487 -0.22942716 0.1755638 -0.31408653 -0.06514657 0.3266129 0.07834844 0.07038853
-0.027506704 -0.1887073 -0.23262095 0.27030736 0.15467513 -0.021113284 -0.12565905 -0.3682252
0.106244974 0.16939563 0.4077668 0.08720494 0.051022284 -0.048115272 0.23231365 -0.043724332
-0.123481385 0.20737289 0.18837872 -0.052724686 0.077597655 0.1833576 -0.28149182 -0.076948166
0.015324656 0.36423907 -0.20403282 -0.19136052 0.07346615 0.37189475 -0.08263132 -0.39398962
-0.3085347 0.022539888 0.09365317 -0.2849055 0.12296929 0.12877043 0.0023061335 0.3549132
0.08809082 -0.06667935 0.19510318 -0.007155518 0.22639306 0.2925664 -0.23277594 0.25742146
0.12507457 0.43486705 0.30200976 0.092064455 0.069337025 0.004472853 -0.036119547 0.07968367
0.29444647 0.13214438 0.002500203 0.08613023 -0.16522475 0.07342812 -0.044730905 -0.14207487
-0.12776707 0.023746528 0.013583075 -0.12427926 0.33515778 0.0101051945 0.20844881 -0.22189659
00000000: c306 783e bc14 c7bd a0cf 6cbe 09e4 0a3d
00000010: d7f2 ac3d e89f 1bbe 5641 1ebe 0e63 52be
00000020: 2975 c83d cab5 2fbe c8c9 123e fc12 1c3d
00000030: 5ddc 2fbe a3fe 1d3d 643a 823c 7345 953e
00000040: bcb0 b3bd b3d8 22be 3dbc febd 2f2d 6e3d
00000050: 832a 723e 07c8 88be 3944 cc3d 322e 85bd
00000060: db53 e63d 40d8 06bd e41a dbbd c364 5a3e
00000070: 44d2 a4bd 29be 2bbe 2fbb ad3e c66f 91be
00000080: a975 f6bd 6e0c 7c3e 11e2 99bd 416d 73bd
00000090: ba38 a03e 092d 213e 807b 72be f131 533e
000000a0: 4ca5 88bd a38c e5bc cffe 4c3e 9876 dd3d
000000b0: 9bf5 73bd f546 a03e 1d7b 9fbe 2b75 1bbd
000000c0: 71de 313d 723b a7be 712e 99bb 3881 c5be
000000d0: b2bf 823c ac27 2a3e d2b5 77bc 963b b1bd
000000e0: ec8c 2c3e d7fc ffbd 7758 cbbe 567c db3d
000000f0: bdb8 fdbd d896 7ebd 3a62 32be 9c44 983c
00000100: 121b 7c3e d20c 8abd 1307 983e ca89 473e
00000110: 1d9c 113f 6c97 f7bd 30ae b33e aa13 afbd
00000120: dcce 74be 31af ae3e 1a4d 573d ae55 20bd
00000130: 5434 303e b4d4 9e3d 7840 ecbd 0626 e0bd
00000140: f747 6b3e 321d b7bd 2464 79be cf0f 4b3a
00000150: 19ae 85be d8cc a13e 663a 83be 0b55 8f3e
00000160: 2712 303e 8aca d33d 1e66 debd 9d05 bcbc
00000170: d7cd d1be d632 443e 2fce d0be 1a21 293e
00000180: 77b6 6ebe d9ff aebd 5856 143e 33e3 6c3e
00000190: 9221 1f3d a093 1fbe 42b5 39be dc58 1a3e
000001a0: 5ff0 c43d d88d b6bc b710 d53e 8109 25bd
000001b0: 43c0 7f3e d733 74be ecfd 3d3d 8dd7 fe3d
000001c0: 685d a13e f706 2e3c 3b05 65be 91dd 683d
000001d0: 9667 d1be 8eda 1abd 16f6 843e 097d 98be
000001e0: c8f6 c7be 6a72 d03d d094 43be c39b bcbe
000001f0: a119 29bc 93b5 61bd 2a8b 2dbb e5a0 bebe
00000200: 6461 283e f3d0 d93c 4395 c2bd 3680 a73d
00000210: b4a1 59bc 8508 9abe ef51 4f3d f1d8 9abe
00000220: 0b3a e2bd 25a4 3fbe a287 6c3e 4632 45be
00000230: 1bdb 82bc edec 7bbe 479b dc3d 61f9 6a3d
00000240: 86ab 8c3c 9bd2 bebd c398 0abd 8aa2 21ba
00000250: f6bb 58bd fe04 cabe 10f4 103e 03cb 2c3d
00000260: 1f89 8a3e e0a6 2bbe 98fa 993d 9fc8 78be
00000270: 6506 39bb f88c fcbc 0498 613e f6d8 5bbc
00000280: 1956 71bd 49d2 623e dacc e93c 4ddc 69be
00000290: e86e d53d 70a6 9dbe c9b9 ec3d 098f 2f3e
000002a0: 039e 27be 4168 cfbe 1cb6 e43d 1264 883e
000002b0: 58cc 8bbe 3ea6 843e dddf 76bc 1458 2dbd
000002c0: 8a74 7dbe f4ee 6abe ffc6 333e f3cf a0be
000002d0: 916b 85bd ce39 a73e 2675 a03d dd27 903d
000002e0: bd55 e1bc 7d3c 41be 3034 6ebe ba65 8a3e
000002f0: 2863 1e3e c4f5 acbc c4ac 00be 0388 bcbe
00000300: f796 d93d 0c76 2d3e cfc6 d03e 8198 b23d
00000310: befc 503d 8514 45bd a1e3 6d3e 4918 33bd
00000320: cfe3 fcbd 8f59 543e 5ae6 403e d7f5 57bd
00000330: 85eb 9e3d 18c2 3b3e b21f 90be 0097 9dbd
00000340: 4414 7b3c 8b7d ba3e fbed 50be 03f4 43be
00000350: 6c75 963d fd68 be3e 9c3a a9bd 02b9 c9be
00000360: 43f8 9dbe 92a5 b83c 3ccd bf3d 22df 91be
00000370: 53d7 fb3d 65dc 033e 8022 173b 2fb7 b53e
00000380: f668 b43d 2f8f 88bd 21c9 473e d678 eabb
00000390: 95d3 673e 43cb 953e d15c 6ebe bfcc 833e
000003a0: 8c13 003e e5a6 de3e 06a1 9a3e 4a8c bc3d
000003b0: 9200 8e3d 0391 923b 17f2 13bd 3131 a33d
000003c0: b0c1 963e db50 073e 72da 233b 0c65 b03d
000003d0: ad30 29be 7b61 963d c137 37bd 137c 11be
000003e0: 5fd5 02be 1488 c23c 8c8b 5e3c 2086 febd
000003f0: cd99 ab3e 4290 253c 9b73 553e dc38 63be

net.2.bias f4 [64]
0.1880397 0.16729677 -0.058085218 0.117154144 -0.11064394 -0.109722994 0.22458948 -0.0048641018
0.24601221 0.24955045 0.36925238 0.23926885 -0.07450605 0.05468835 -0.18446499 0.09543776
0.0998229 -0.26022476 0.20323414 -0.021529261 -0.030425642 -0.11290544 0.1988275 -0.096648656
0.113573804 -0.16380061 -0.2629769 0.16972268 -0.044889007 -0.0717977 -0.3283409 -0.23415807
-0.028321376 0.14139754 -0.08248351 0.025077594 -0.20429216 0.15382208 -0.25985646 0.25514746
-0.15196694 0.19469668 -0.1807859 0.18529135 0.2556064 0.17301534 -0.26477695 0.12027854
0.22812557 0.13551836 0.07748608 -0.0430058 0.036005937 0.22965017 -0.34398124 0.05766035
-0.009371801 -0.064925544 0.06808657 0.060813073 -0.2365263 0.16432251 -0.24045435 -0.013836881
00000000: 7b8d 403e d84f 2b3e c4ea 6dbd 83ee ef3d
00000010: 4a99 e2bd 73b6 e0bd c9fa 653e 0b63 9fbb
00000020: a0ea 7b3e 278a 7f3e a60e bd3e e502 753e
00000030: a196 98bd e400 603d 64e4 3cbe df74 c33d
00000040: f36f cc3d 2e3c 85be 9c1c 503e 225e b0bc
00000050: 323f f9bc f83a e7bd 7099 4b3e bbef c5bd
00000060: 6299 e83d 59bb 27be e9a4 86be c8cb 2d3e
00000070: 89dd 37bd ac0a 93bd 4c1c a8be 22c7 6fbe
00000080: 3b02 e8bc 84ca 103e 1ded a8bd 876f cd3c
00000090: f731 51be 8983 1d3e e80b 85be b0a2 823e
000000a0: 399d 1bbe 915e 473e f01f 39be 04bd 3d3e
000000b0: d8de 823e ef2a 313e d890 87be 9854 f63d
000000c0: c099 693e 53c5 0a3e 06b1 9e3d da26 30bd
000000d0: f67a 133d 6a29 6b3e 4f1e b0be 422d 6c3d
000000e0: 2f8c 19bc aff7 84bd f970 8b3d 2117 793d
000000f0: f333 72be 2944 283e aa39 76be 16b4 62bc

net.4.weight f4 [64, 64]
0.2602265 -0.18996745 0.25003904 -0.006658111 -0.45539722 0.5013424 -0.113038115 0.014555922
0.113827966 -0.6927453 -0.7951574 0.118029244 0.22185466 -0.25083318 0.00078467524 -0.59580415
-0.7965323 0.9556 0.2784018 -0.08937979 0.14238524 -0.25577834 0.16127111 -0.090803005
-0.01392969 -0.18884026 0.44279423 -0.41067457 -0.215041 0.033949655 0.70350647 0.41590875
0.20536335 -0.06625049 0.5660475 -0.14575739 -0.13077155 -0.033166867 0.27513793 0.46392253
0.09063522 -0.80327535 -0.09444534 -0.39559382 0.45049605 -0.011093679 0.5262452 0.09105213
0.2102734 0.1524939 -0.49859673 -0.21881525 0.42558005 -0.046240803 0.4329035 0.33720005
0.050623413 -0.45548463 0.42773998 0.25252426 0.7683375 -0.2803406 -0.060347028 -0.47234237
0.19941801 0.19939281 -0.2436044 0.17030421 0.51675045 -0.7182167 0.0022758718 0.2524474
0.23620355 0.20653279 0.60484505 -0.20235361 -0.10703867 -0.07664418 0.14153606 0.5411324
0.14009641 -0.37439483 -0.40745047 -0.11639721 -0.47709563 0.57720613 -0.06099115 -0.10903885
0.2573531 0.0708151 -0.45565403 0.4901808 -0.38850012 0.50754094 -0.54662085 -0.15349932
-0.21464387 0.030800695 0.13723046 0.42530486 -0.23631391 -0.033467107 -0.29061475 -0.055340823
-0.66328067 -0.129704 -0.13091646 0.6900935 -0.2792017 0.1992219 -0.4391573 0.34645182
-0.21699135 -0.16672896 0.5982524 -0.025924943 -0.119573414 0.11933885 -0.43850753 -0.25472033
0.007349927 0.029968949 0.30282944 0.12732743 -0.80523366 0.5525272 -0.4719382 0.2078863
-0.020471107 0.11160181 0.23180811 0.010157043 -0.1484229 0.7772114 0.40822402 0.08708217
0.2949004 -0.802473 -0.6002297 0.056998137 -0.046784837 0.07113777 0.024022654 -0.6554342
-0.5244877 0.902491 0.31229192 -0.37749106 -0.3097774 -0.04540904 -0.047418937 -0.071815014
0.21187747 -0.29852772 0.48085335 -0.68315387 0.5180353 0.24072543 0.27845854 0.62746894
0.36370772 -0.13056514 0.22948474 -0.2349366 -0.03869139 -0.2209988 0.44337156 0.25125235
0.15594055 -0.61175644 0.31127146 -0.3557516 0.19088054 -0.091170296 0.25269076 -0.4509625
-0.19423029 0.166441 -0.2966112 0.11828261 -0.1441947 -0.04114946 0.7641904 0.004800249
0.2617426 0.34863666 -0.11194386 -0.28229296 0.7443828 -0.7183099 0.7466977 0.012039016
-0.3073088 -0.9008401 -0.13832286 -0.23220389 0.59108096 -0.36430097 -0.44184512 -0.15546285
-0.42831132 -0.66145784 -0.2338744 -0.07342822 0.3318332 0.060926568 0.00024063414 -0.06095181
0.35947213 0.04951291 -0.22685736 0.13774815 0.11704859 0.12563975 -0.24425039 -0.44393727
0.18982832 0.8203249 0.37539598 0.077326216 -0.13304204 -0.24547546 -0.025153583 0.23548335
-0.4129529 0.0520597 0.32759014 0.049806587 0.17669219 0.0304505 0.1516177 -0.95619285
0.2057961 0.021582093 0.48536122 0.4465289 -0.79666424 -0.12899412 0.2909987 -0.25585353
-0.4041962 -0.5858123 0.19562219 0.6199098 -0.22842853 0.047137517 -0.25128248 -0.54328424
0.3315607 -0.012899105 -0.20783712 -0.1093017 -0.014491448 0.09422869 0.28800997 0.09286483
00000000: 683c 853e d486 42be 1e05 803e 482c dabb
00000010: d329 e9be fa57 003f 8780 e7bd f67b 6e3c
00000020: a31e e93d c257 31bf 6f8f 4bbf 51b9 f13d
00000030: de2d 633e 356d 80be aab2 4d3a 9f86 18bf
00000040: 8ae9 4bbf 34a2 743f ae8a 8e3e c00c b7bd
00000050: 70cd 113e 61f5 82be 4124 253e edf6 b9bd
00000060: 5b39 64bc 575f 41be edb5 e23e f043 d2be
00000070: b533 5cbe cb0e 0b3d 0019 343f fef1 d43e
00000080: c54a 523e 56ae 87bd 7de8 103f 6d41 15be
00000090: fae8 05be fbd9 07bd e1de 8c3e 4187 ed3e
000000a0: f59e b93d 74a3 4dbf 8f6c c1bd 468b cabe
000000b0: 6ba7 e63e 43c2 35bc 01b8 063f 8a79 ba3d
000000c0: e951 573e 5c27 1c3e 1248 ffbe 1b11 60be
000000d0: a1e5 d93e ff66 3dbd 87a5 dd3e 7ca5 ac3e
000000e0: 7f5a 4f3d 4835 e9be bc00 db3e dc4a 813e
000000f0: c4b1 443f ce88 8fbe 722e 77bd dcd6 f1be
00000100: 3c34 4c3e a12d 4c3e 6f73 79be 3a64 2e3e
00000110: c249 043f 0ddd 37bf cb26 153b c940 813e
00000120: 58df 713e 557d 533e 20d7 1a3f c935 4fbe
00000130: 1737 dbbd a0f7 9cbd d4ee 103e a787 0a3f
00000140: 6f75 0f3e aeb0 bfbe 599d d0be a961 eebd
00000150: e145 f4be c8c3 133f dbd1 79bd c34f dfbd
00000160: c9c3 833e 8207 913d 7c4b e9be faf8 fa3e
00000170: 7de9 c6be 34ee 013f 58ef 0bbf ed2e 1dbe
00000180: 9acb 5bbe bd51 fc3c 2486 0c3e 8fc1 d93e
00000190: 46fc 71be ce14 09bd 75cb 94be 0fad 62bd
000001a0: c3cc 29bf 20d1 04be f70e 06be f8a9 303f
000001b0: 86f3 8ebe d300 4c3e 3ad9 e0be 2262 b13e
000001c0: fb32 5ebe ffba 2abe 1227 193f 8c60 d4bc
000001d0: e8e2 f4bd ed67 f43d 0f84 e0be b46a 82be
000001e0: a8d7 f03b 7181 f53c 760c 9b3e 1f62 023e
000001f0: cb23 4ebf 6c72 0d3f e2a1 f1be 25e0 543e
00000200: 06b3 a7bc 7d8f e43d 1b5f 6d3e ba69 263c
00000210: 2cfc 17be 54f7 463f bd02 d13e 2358 b23d
00000220: 2ffd 963e df6e 4dbf a7a8 19bf e176 693d
00000230: 75a1 3fbd aeb0 913d 28cb c43c 89ca 27bf
00000240: d344 06bf a609 673f bae4 9f3e 8246 c1be
00000250: 259b 9ebe d4fe 39bd 5c3a 42bd c013 93bd
00000260: 68f6 583e a0d8 98be 6932 f63e 2ce3 2ebf
00000270: f69d 043f ba80 763e 1e92 8e3e cea1 203f
00000280: e637 ba3e deb2 05be 0cfe 6a3e 3893 70be
00000290: dd7a 1ebd 824d 62be 9901 e33e 26a4 803e
000002a0: e1ae 1f3e 129c 1cbf f95e 9f3e 1325 b6be
000002b0: 3076 433e 7eb7 babd af60 813e 8fe4 e6be
000002c0: 4ee4 46be 826f 2a3e 6cdd 97be 273e f23d
000002d0: c7a7 13be 568c 28bd fba1 433f 684b 9d3b
000002e0: 2003 863e 8180 b23e d342 e5bd b488 90be
000002f0: df8f 3e3f 28e3 37bf 9527 3f3f 4b3f 453c
00000300: 9457 9dbe 759d 66bf 82a4 0dbe dbc6 6dbe
00000310: 1551 173f a885 babe 8639 e2be a731 1fbe
00000320: 9f4b dbbe 4d55 29bf c57c 6fbe 8961 96bd
00000330: 0be6 a93e 238e 793d bc52 7c39 9ba8 79bd
00000340: bb0c b83e 0dce 4a3d 4c4d 68be da0d 0d3e
00000350: 2cb7 ef3d b5a7 003e c61c 7abe bf4b e3be
00000360: 5b62 423e d000 523f e733 c03e 355d 9e3d
00000370: 2c3c 08be eb5d 7bbe e30e cebc 8c22 713e
00000380: 906e d3be 8d3c 553d e5b9 a73e fe01 4c3d
00000390: ccee 343e 5473 f93c ac41 1b3e 0ec9 74bf
000003a0: 36bc 523e eecc b03c 4481 f83e 709f e43e
000003b0: 30f2 4bbf 0917 04be c8fd 943e 3cff 82be
000003c0: cef2 cebe cbf7 15bf 2f51 483e 69b2 1e3f
000003d0: 2be9 69be 4513 413d 19a8 80be ad14 0bbf
000003e0: 53c2 a93e c556 53bc 41d3 54be 92d9 dfbd
000003f0: 8a6d 6dbc f9fa c03d 0b76 933e ea2f be3d

net.4.bias f4 [64]
-0.56619215 0.7162255 -0.7675788 -0.022738993 -0.60503846 0.05831669 -0.17678618 0.6834671
-0.71808034 0.044725843 -0.63479054 -0.14046313 -0.6610513 -0.18583177 0.013545111 -0.6672826
0.7019143 -0.6933248 0.73194927 0.7344525 -0.72988725 0.6464486 0.6900881 0.73847836
-0.6425075 -0.7517154 -0.0067164972 0.74873334 0.664368 0.6377144 -0.77814233 -0.7386471
-0.24882759 0.71124506 0.6637208 -0.66142076 -0.6822717 -0.5408864 -0.70046514 -0.5571854
0.61539245 0.02092389 0.2690573 -0.555952 0.013273406 -0.04955037 0.5889077 -0.66629833
-0.1784937 0.6235925 0.4655544 0.6017649 0.004483523 -0.33514512 -0.08319851 -0.57850975
-0.071034074 -0.007678016 -0.6480134 0.66069096 -0.5729232 0.010762317 0.70047784 -0.67968273
00000000: f8f1 10bf 8e5a 373f 0b80 44bf 2047 babc
00000010: cde3 1abf 7bdd 6e3d 7007 35be b3f7 2e3f
00000020: 1dd4 37bf 7232 373d a281 22bf 91d5 0fbe
00000030: a83a 29bf af4a 3ebe 50ec 5d3c 08d3 2abf
00000040: a8b0 333f bc7d 31bf 0761 3b3f 1405 3c3f
00000050: e4d9 3abf a87d 253f 9da9 303f eb0c 3d3f
00000060: 5f7b 24bf 6c70 40bf 1016 dcbb fdac 3f3f
00000070: 0514 2a3f 4041 233f 5634 47bf fa17 3dbf
00000080: a9cc 7ebe 2814 363f 9be9 293f df52 29bf
00000090: 5ca9 2ebf 8877 0abf af51 33bf b4a3 0ebf
000000a0: 5c8a 1d3f 9468 ab3c e1c1 893e df52 0ebf
000000b0: b378 593c 54f5 4abd a8c2 163f 8792 2abf
000000c0: 0dc7 36be c2a3 1f3f 255d ee3e 440d 1a3f
000000d0: 84ea 923b 2498 abbe fb63 aabd 3719 14bf
000000e0: 507a 91bd de97 fbbb 35e4 25bf 0b23 293f
000000f0: 18ab 12bf 6e54 303c 8452 333f b0ff 2dbf

action_head.0.weight f4 [3, 64]
0.26034984 -0.22351713 -0.34770313 -0.07804963 0.258478 0.28751764 -0.027500294 0.13195515
0.119841225 -0.06799153 0.0016652785 -0.18500292 0.40164533 0.2280545 -0.2013981 -0.073787816
-0.024761442 0.15452987 0.27999848 0.0956222 0.33463833 -0.20663667 -0.12452659 -0.3184404
0.033613566 0.19925082 0.115100354 0.18580751 0.21824564 -0.314607 0.14808944 -0.0018274181
0.17761585 -0.33813527 -0.23193613 -0.094393186 -0.10030985 -0.23949425 0.013031496 0.00808488
0.22523867 -0.14764921 0.21546769 -0.0324008 0.1382496 -0.18725935 0.2884026 -0.13887775
0.15512726 0.2659258 -0.03911669 0.05955172 -0.2644425 -0.0419883 0.031040987 -0.27444547
0.043495685 0.21488538 -0.055773627 -0.037246253 -0.15984972 0.006331565 0.159101 0.16795652
-0.05475701 0.046248358 0.093696095 -0.1120493 -0.18542185 0.13403139 0.2850446 0.1301698
-0.17302546 -0.23509574 -0.0337712 -0.34662735 -0.05842075 -0.06446868 -0.032957423 0.11125377
-0.019285914 0.3997482 0.04533291 0.31820083 0.14720455 0.4276451 -0.38816872 0.1958988
0.13010193 0.36527777 -0.01354688 0.03497282 -0.2507252 -0.19366568 -0.05123003 -0.104397096
0.03041081 0.2389769 -0.12748797 -0.09939405 0.21934871 -0.009499287 -0.13955523 -0.13804631
0.5472205 -0.16344805 0.027187143 0.020871246 0.13551112 0.007012545 0.018127877 0.1922021
0.118797496 -0.27996922 0.07865773 -0.26984665 -0.20546608 -0.095429696 -0.12431824 0.018811213
0.12587543 0.12607768 0.068031795 0.30123717 0.12687358 -0.08032286 0.015647734 0.13646916
0.14053273 0.23865786 -0.18594028 -0.26530436 0.3748934 -0.13459745 0.016865863 -0.0028143104
-0.009476255 0.13840434 0.04193297 0.21009296 -0.06754932 -0.05472346 -0.016403878 -0.17713194
0.08243963 0.18647178 -0.10154002 0.29271716 -0.12720296 -0.08067673 -0.37992796 -0.15211815
0.17077509 0.028780118 -0.09337632 -0.17825146 0.16670877 -0.19162957 0.35796195 0.19510351
0.09064636 0.122275025 0.114339486 -0.18847428 -0.06955855 0.04913956 0.28841344 -0.18065868
0.15106744 -0.17028435 0.19940665 -0.17842384 0.047203325 -0.30717674 0.17411396 -0.3573555
0.13795067 -0.24947163 0.13300857 -0.24232589 -0.18855642 -0.12844746 0.084258676 -0.076564774
0.15595886 -0.09631211 -0.21066001 -0.34264436 -0.12110664 0.10875768 -0.25866017 -0.29142871
00000000: 934c 853e ade1 64be 2506 b2be 7cd8 9fbd
00000010: 3a57 843e 8335 933e 4c48 e1bc 401f 073e
00000020: 516f f53d 253f 8bbd 7945 da3a 6871 3dbe
00000030: 75a4 cd3e 1e87 693e 4e3b 4ebe 111e 97bd
00000040: 82d8 cabc 143d 1e3e f65b 8f3e 92d5 c33d
00000050: b755 ab3e 9098 53be cc07 ffbd 9f0a a3be
00000060: 61ae 093d 6808 4c3e bcb9 eb3d 5344 3e3e
00000070: c97b 5f3e 2b14 a1be c2a4 173e fa85 efba
00000080: eee0 353e 1120 adbe aa80 6dbe 3751 c1bd
00000090: 406f cdbd fb3d 75be 0e82 553c 7276 043c
000000a0: f7a4 663e 5b31 17be 90a3 5c3e b4b6 04bd
000000b0: 4e91 0d3e eac0 3fbe 81a9 933e f835 0ebe
000000c0: aed9 1e3e 6d27 883e d338 20bd 81ec 733d
000000d0: 0265 87be ecfb 2bbd ab49 fe3c 1e84 8cbe
000000e0: 8828 323d ea0a 5c3e e372 64bd 878f 18bd
000000f0: a5af 23be 0479 cf3b 5feb 223e cbfc 2b3e
00000100: e348 60bd eb6e 3d3d bde3 bf3d 1a7a e5bd
00000110: 3adf 3dbe 863f 093e 5ef1 913e 3b4b 053e
00000120: 962d 31be f0bc 70be ab53 0abd 2479 b1be
00000130: 994a 6fbd 2808 84bd 5dfe 06bd 04d9 e33d
00000140: 7efd 9dbc ccab cc3e 00af 393d 38eb a23e
00000150: cabc 163e 4cf4 da3e 0dbe c6be b299 483e
00000160: 7139 053e b005 bb3e bcf3 5dbc a93f 0f3d
00000170: 0e5f 80be 4c50 46be 94d6 51bd 25ce d5bd
00000180: 1720 f93c 5cb6 743e 358c 02be 1c8f cbbd
00000190: f39c 603e e6a2 1bbc 91e7 0ebe 035c 0dbe
000001a0: a516 0c3f ed5e 27be 92b7 de3c 2dfa aa3c
000001b0: 6dc3 0a3e 7ec9 e53b ea80 943c a1d0 443e
000001c0: 1a4c f33d 2058 8fbe 4e17 a13d 5729 8abe
000001d0: b365 52be a570 c3bd 909a febd f919 9a3c
000001e0: 7de5 003e 821a 013e 4154 8b3d c23b 9a3e
000001f0: 26eb 013e 5080 a4bd ad2f 803c 92be 0b3e
00000200: d0e7 0f3e ba62 743e 2167 3ebe f9d5 87be
00000210: 07f2 bf3e ead3 09be 472a 8a3c 4b70 38bb
00000220: 4b42 1bbc deb9 0d3e e8c1 2b3d 9c22 573e
00000230: 4c57 8abd b525 60bd 6d61 86bc 1362 35be
00000240: 1cd6 a83d 75f2 3e3e 37f4 cfbd 06df 953e
00000250: 7e41 02be d739 a5bd eb85 c2be dcc4 1bbe
00000260: aadf 2e3e 48c4 eb3c 163c bfbd 8d87 36be
00000270: b4b5 2a3e 8b3a 44be ca46 b73e 37c9 473e
00000280: cca4 b93d 546b fa3d d22a ea3d 67ff 40be
00000290: b774 8ebd 9046 493d edaa 933e 97fe 38be
000002a0: 6cb1 1a3e 055f 2ebe 4231 4c3e bdb4 36be
000002b0: 4658 413d 4546 9dbe ee4a 323e 4df7 b6be
000002c0: f142 0d3e 7e75 7fbe 6633 083e 4724 78be
000002d0: ef14 41be bb87 03be d08f ac3d fecd 9cbd
000002e0: aeb3 1f3e 493f c5bd 42b7 57be 156f afbe
000002f0: c206 f8bd 59bc de3d 1b6f 84be 2536 95be

action_head.0.bias f4 [3]
-0.045816027 0.030672885 0.039512936
00000000: 96a9 3bbd b445 fb3c 51d8 213d

value_head.weight f4 [1, 64]
-7.4877057 7.361438 -7.3697224 -7.3549256 -7.6716843 7.3511696 -7.3644257 7.459999
-7.368705 7.643976 -7.7278004 -7.3745375 -7.3218546 -7.313596 7.430399 -7.5717916
7.4320536 -7.393261 7.633827 7.699401 -7.478904 7.3987617 7.453497 7.4778795
-7.521373 -7.3851423 -7.439001 7.3773108 7.3752537 7.3192177 -7.4103804 -7.4885197
-7.385254 7.6432486 7.4962835 -7.7140083 -7.40329 -7.52439 -7.353899 -7.4617863
7.6782303 7.4412847 7.3917217 -7.5440283 7.3519926 7.484127 7.5817614 -7.3755236
-7.3736143 7.574603 7.7036495 7.4351387 -7.5983224 -7.6286545 -7.152126 -7.6559076
-7.4088 -7.3859453 -7.5166245 7.509104 -7.790222 7.353747 7.561658 -7.6027803
00000000: 499b efc0 e690 eb40 c4d4 ebc0 8d5b ebc0
00000010: 707e f5c0 c83c eb40 60a9 ebc0 50b8 ee40
00000020: 6ecc ebc0 749b f440 244a f7c0 36fc ebc0
00000030: a24c eac0 fa08 eac0 d4c5 ed40 1e4c f2c0
00000040: 62d3 ed40 9895 ecc0 5048 f440 7e61 f640
00000050: 2e53 efc0 a8c2 ec40 0c83 ee40 ca4a ef40
00000060: 16af f0c0 1653 ecc0 4c0c eec0 ee12 ec40
00000070: 1402 ec40 0837 ea40 d621 edc0 f4a1 efc0
00000080: 0054 ecc0 7e95 f440 8ee1 ef40 28d9 f6c0
00000090: c0e7 ecc0 cec7 f0c0 2453 ebc0 f4c6 eec0
000000a0: 10b4 f540 011f ee40 fc88 ec40 ae68 f1c0
000000b0: 8643 eb40 f87d ef40 ca9d f240 4a04 ecc0
000000c0: a6f4 ebc0 2663 f240 4c84 f640 a8ec ed40
000000d0: 7525 f3c0 f01d f4c0 37de e4c0 32fd f4c0
000000e0: e414 edc0 aa59 ecc0 3088 f0c0 944a f040
000000f0: 8049 f9c0 e551 eb40 1af9 f140 fa49 f3c0

net.0.weight f4 [64, 3]
0.15125908 0.8095357 0.009729471 -0.20988803 -0.2639366 0.007852011 0.0061813607 -0.07507612
-0.11526062 -0.01158731 0.56911564 0.21711935 0.28111535 -0.16514799 -0.17466353 -0.16788843
0.5311857 -0.06930139 0.14595428 0.826495 0.37515524 0.022004921 0.042968795 0.15041329
-0.10338253 -0.6615956 0.30183786 0.031738866 0.17792618 0.035280433 -0.08972241 -0.29203856
0.30443898 -0.45269516 -0.53821605 -0.34367394 0.5073151 -0.09684595 -0.17052785 -0.23697829
0.762012 0.08080744 0.39193866 0.3481164 -0.5166918 0.2206972 0.17514546 -0.015406558
0.0074421233 0.032627057 0.1637397 0.018765263 -0.2837292 -0.1773753 -0.12423341 0.22932504
0.19182922 0.4179382 0.526941 -0.08777144 -0.44168073 0.30873162 -0.072373696 -0.11079347
0.018469667 0.3925733 -0.14985113 0.46554366 0.31031248 -0.017736506 -0.41471198 -0.00063758827
0.16945733 -0.032713775 0.2334881 0.08050443 -0.54036254 -0.07606197 -0.04583895 -0.106263414
0.05045935 0.04385677 0.64484996 -0.016871814 0.12755834 -0.19709024 0.34759682 -0.0062854206
0.22150634 -0.11889778 0.08484877 0.0072160666 0.3199013 0.55562675 -0.07367562 0.22171259
0.04513114 0.10867726 -0.20913978 0.13331671 0.37140408 -0.112543374 -0.14205131 -0.07501472
0.22324282 -0.1094277 -0.10182503 -0.08415446 0.121575415 0.39343184 -0.14132823 -0.14840397
-0.11682665 -0.24226208 0.51182985 -0.44393134 -0.089831255 0.010027671 -0.14757803 0.38309747
-0.07512539 0.70556265 0.08828764 -0.16481337 -0.23871076 0.16634613 -0.23866239 -0.46251315
-0.12443189 -0.07241754 0.4462198 0.26232928 -0.034101658 -0.16081458 -0.08332622 0.1052428
0.011954871 0.10981484 0.07422897 0.3842521 -0.031198418 -0.15532193 -0.21556005 -0.2767619
-0.19543086 0.55665654 -0.0038821602 0.07797795 0.41025403 -0.06966169 -0.04002233 -0.87538034
0.057237167 -0.12654482 -0.28090438 -0.21623197 -0.2883484 -0.31084692 -0.056147058 0.24706349
0.09283608 0.3627881 0.025088685 -0.26741382 0.46770447 -0.08034886 0.7394492 0.1265789
-0.2366817 -0.197652 -0.32955822 0.22203618 -0.42357492 -0.030548899 -0.14547846 -0.22502166
0.109419525 -0.14297031 -0.03216553 0.06508399 0.07665824 -0.33599126 0.1526884 0.0327934
-0.7166664 0.050179005 -0.045490973 -0.14046134 -0.16896693 0.41071138 -0.2868494 0.045935195
00000000: a9e3 1a3e bb3d 4f3f 5c68 1f3c e3ec 56be
00000010: b322 87be b9a5 003c 038d ca3b 82c1 99bd
00000020: c30d ecbd b3d8 3dbc 90b1 113f 8954 5e3e
00000030: 5aee 8f3e 8e1c 29be ffda 32be f2ea 2bbe
00000040: c9fb 073f e3ed 8dbd 0a75 153e 2d95 533f
00000050: 5914 c03e aa43 b43c 0c00 303d f105 1a3e
00000060: 38ba d3bd 545e 29bf 7e8a 9a3e 9d00 023d
00000070: 4832 363e 3782 103d 62c0 b7bd 1486 95be
00000080: 6ddf 9b3e a9c7 e7be 87c8 09bf 08f6 afbe
00000090: 67df 013f 2b57 c6bd da9e 2ebe 70aa 72be
000000a0: 3813 433f 5f7e a53d 2fac c83e 503c b23e
000000b0: ea45 04bf 72fe 613e 5559 333e ca6b 7cbc
000000c0: 0edd f33b f3a3 053d 61ab 273e 9cb9 993c
000000d0: f444 91be dfa1 35be 166e febd 2fd4 6a3e
000000e0: e16e 443e fffb d53e 9be5 063f 83c1 b3bd
000000f0: fa23 e2be 1212 9e3e a938 94bd b0e7 e2bd
00000100: b34d 973c 5eff c83e 9372 19be bd5b ee3e
00000110: 47e1 9e3e 264c 91bc 2155 d4be d323 27ba
00000120: 3986 2d3e e1fe 05bd 8117 6f3e 82df a43d
00000130: 3355 0abf 61c6 9bbd 9fc1 3bbd a2a0 d9bd
00000140: 77ae 4e3d 28a3 333d e314 253f c236 8abc
00000150: a79e 023e 06d2 49be 36f8 b13e eef5 cdbb
00000160: 8fd2 623e ae80 f3bd 31c5 ad3d c174 ec3b
00000170: 1aca a33e 8e3d 0e3f 3ee3 96bd a008 633e
00000180: 6edb 383d 2f92 de3d bd28 56be 2d84 083e
00000190: ad28 be3e 247d e6bd e675 11be 51a1 99bd
000001a0: c499 643e a11b e0bd a489 d0bd 2c59 acbd
000001b0: 88fc f83d e66f c93e 59b8 10be 36f7 17be
000001c0: d042 efbd 8d13 78be 4807 033f f84a e3be
000001d0: 73f9 b7bd 1a4b 243c b21e 17be 5a25 c43e
000001e0: 57db 99bd c19f 343f 26d0 b43d d6c4 28be
000001f0: 9870 74be a456 2a3e ea63 74be 86ce ecbe
00000200: 26d6 febd a64f 94bd ec76 e43e 0650 863e
00000210: 2eae 0bbd 94ac 24be f0a6 aabd 8a89 d73d
00000220: 5dde 433c 9ae6 e03d 5c05 983d b1bc c43e
00000230: d393 ffbc b60c 1fbe c6bb 5cbe bcb3 8dbe
00000240: 071f 48be 0b81 0e3f d76b 7ebb e7b2 9f3d
00000250: d10c d23e caaa 8ebd 74ee 23bd ed18 60bf
00000260: 8571 6a3d f794 01be b3d2 8fbe ea6b 5dbe
00000270: 67a2 93be 5427 9fbe 75fa 65bd 36fe 7c3e
00000280: d820 be3d 5dbf b93e c986 cd3c 77ea 88be
00000290: f676 ef3e f18d a4bd 8b4c 3d3f e69d 013e
000002a0: b05c 72be 4965 4abe dbbb a8be 745d 633e
000002b0: d0de d8be af41 fabc 4ef8 14be 146c 66be
000002c0: 5817 e03d cf66 12be 01c0 03bd c14a 853d
000002d0: fffe 9c3d 0c07 acbe 595a 1c3e 5f52 063d
000002e0: 7377 37bf 8088 4d3d be54 3abd 19d5 0fbe
000002f0: ab05 2dbe c348 d23e eddd 92be 8b26 3c3d

net.0.bias f4 [64]
0.1875336 -0.14992107 -0.25069737 -0.1283912 -0.13300298 0.15104926 0.15220554 0.14394598
-0.16336419 -0.25486353 0.23923396 -0.20816825 0.14758788 0.18242368 0.14952864 0.19655983
0.1600461 -0.16334613 0.20097063 0.17312688 -0.17050387 -0.28250003 0.16439265 -0.1615872
0.14347696 -0.19166353 -0.16580653 0.2823142 0.080212556 0.14252044 0.15644014 -0.13438249
0.23104572 0.15529348 0.08879036 -0.21783575 0.23691027 -0.16162586 -0.23106657 0.07454144
0.2105236 -0.14789295 -0.13038877 0.1666379 0.15086865 -0.13183275 0.30619073 -0.15475595
0.13624246 0.22274314 -0.29252458 -0.18104123 -0.18026985 -0.14342117 0.21651562 0.1610512
-0.07360223 -0.17488208 -0.2177802 -0.2807977 -0.14977574 -0.1400283 -0.1810878 0.20378524
00000000: cf08 403e e984 19be 685b 80be fc78 03be
00000010: ef31 08be a8ac 1a3e c5db 1b3e 9366 133e
00000020: f148 27be 797d 82be bff9 743e 0f2a 55be
00000030: 4721 173e 46cd 3a3e 091e 193e fb46 493e
00000040: 20e3 233e 3544 27be 3fcb 4d3e 2c48 313e
00000050: 9198 2ebe d8a3 90be 8c56 283e 1d77 25be
00000060: a0eb 123e 7243 44be 30c9 29be 7d8b 903e
00000070: 7b46 a43d e1f0 113e d831 203e 909b 09be
00000080: 4097 6c3e 4105 1f3e b8d7 b53d 5610 5fbe
00000090: 9b98 723e 4081 25be b79c 6cbe 2fa9 983d
000000a0: 8093 573e 4071 17be a284 05be 20a3 2a3e
000000b0: 507d 1a3e 2aff 06be 08c5 9c3e 5878 1ebe
000000c0: 2583 0b3e c716 643e c8c5 95be df62 39be
000000d0: a998 38be 00dd 12be 45b6 5d3e 9bea 243e
000000e0: c4bc 96bd 4a14 33be c601 5fbe b7c4 8fbe
000000f0: d05e 19be 9463 0fbe 156f 39be 14ad 503e

net.2.weight f4 [32, 64]
0.27801073 -0.38546583 -0.17044182 -0.35129344 -0.30897078 0.4295684 -0.3545712 0.7031113
-0.44561636 -0.4906658 0.15137471 -0.006414067 -0.18700969 -0.057195913 -0.07172231 0.194635
0.1429064 -0.13976829 0.007572837 0.020921102 0.1317392 0.15011112 0.19313397 -0.16362184
0.44653186 -0.12916405 0.016452884 0.22450493 0.082453966 0.2780236 -0.101188645 0.06792178
0.01985179 -0.032571193 0.13148 -0.18395746 0.09566195 -0.16483164 -0.091238245 0.27736655
0.0749594 -0.14265582 -0.021519769 -0.17091312 -0.07465086 -0.17037432 0.62889487 -0.286318
0.34423253 0.3559989 -0.5322991 -0.17487271 -0.12899706 0.15794791 0.32468534 0.13472152
-0.3036593 -0.3221311 -0.3997838 -0.7635711 -0.07687516 0.17110938 -0.17798883 0.21626495
0.32915324 0.16630453 0.11594171 -0.36188012 -0.28570625 0.13501054 0.019266853 0.5030531
0.1403944 -0.28419575 -0.35357663 -0.1300889 0.281459 0.17008121 0.0013970997 -0.046808776
0.6174028 -0.35004315 0.3188236 0.17942774 -0.06830594 -0.003763578 0.42712986 -0.36270446
0.08100871 -0.17993233 -0.2720843 0.35302565 0.45384488 0.49278188 0.42098367 -0.008582133
0.44588658 0.16639405 0.32182574 0.015826615 0.21257746 -0.0319212 -0.038041715 0.4771076
0.2332593 -0.13117947 -0.50624186 0.035988946 0.13770238 0.057603024 0.24586213 0.012213444
-0.071314946 -0.006158418 -0.15391196 0.13622469 -0.07473025 -0.021056904 -0.076622196 0.3480148
-0.30095917 -0.08839517 -0.29284135 -0.08410853 0.10736123 -0.4235319 -0.18031712 0.21840623
0.082012706 -0.2788378 -0.2978132 0.11804003 -0.43963805 0.058226094 0.06251142 0.22046956
0.11865719 -0.60487753 0.38668454 -0.15876839 -0.0328694 0.24084274 -0.093876585 0.32247967
0.105103865 -0.29359794 0.18365017 0.09100149 -0.48719797 -0.14416175 -0.054302 -0.4274875
0.35346222 -0.09922646 -0.49019897 0.35665768 0.43612748 -0.17874986 0.30229 0.25058803
0.14515835 0.16276534 0.53890496 -0.52167356 0.08556789 -0.5385957 0.17129642 -0.08658381
0.21798734 0.071957655 -0.07886 0.22479904 0.29967558 -0.39180833 0.3693374 -0.20637502
0.39605266 0.20225978 0.15914519 0.042231876 -0.012214488 -0.020566527 0.13311613 0.31471485
-0.4279764 0.18604426 -0.302044 -0.14414531 -0.31185442 -0.13163769 -0.37169778 0.029878318
-0.3432621 -0.045304283 0.33357462 0.020672325 0.067632385 0.04735145 0.06212615 -0.07494181
0.13151468 -0.15226854 -0.18630444 -0.03317495 -0.5146093 0.22734168 -0.021445794 0.17670818
0.27346992 -0.07066255 -0.008533779 0.0991016 0.41663843 0.18644653 0.38288122 0.14736967
-0.23950091 0.036711477 0.50311 0.21041761 -0.06398575 -0.20112732 0.12905444 0.0779253
-0.25579795 0.044815935 -0.31360942 0.27193588 -0.24156198 0.013911665 0.23207061 -0.22991613
0.37106308 0.460515 0.33081213 -0.43260095 -0.12263626 -0.048244588 -0.38209465 0.20915982
-0.31264862 -0.37141198 0.0993079 -0.07185682 0.3188798 0.017740527 -0.2227628 -0.13934138
0.115662485 0.4665932 0.46964324 -0.039745793 -0.24318281 0.2997049 0.3181909 -0.24807926
00000000: 6c57 8e3e c75b c5be 4d88 2ebe bcdc b3be
00000010: 6b31 9ebe 64f0 db3e 5b8a b5be 1aff 333f
00000020: d427 e4be 8c38 fbbe f901 1b3e 182d d2bb
00000030: 787f 3fbe 4346 6abd 25e3 92bd 664e 473e
00000040: 0e56 123e 6b1f 0fbe 9025 f83b bb62 ab3c
00000050: a4e6 063e bbb6 193e e9c4 453e 7c8c 27be
00000060: d39f e43e 9543 04be 33c8 863c 9fe4 653e
00000070: a0dd a83d 1c59 8e3e fe3b cfbd 931a 8b3d
00000080: 39a0 a23c 5f69 05bd b1a2 063e 585f 3cbe
00000090: 6aea c33d a0c9 28be 1edb babd fd02 8e3e
000000a0: 5084 993d 5e14 12be 3a4a b0bc d903 2fbe
000000b0: 8de2 98bd 9b76 2ebe 41ff 203f 4698 92be
000000c0: 3f3f b03e 7d45 b63e c144 08bf d511 33be
000000d0: ce17 04be 19bd 213e 283d a63e 70f4 093e
000000e0: 3b79 9bbe 5eee a4be 76b0 ccbe 6579 43bf
000000f0: b970 9dbd 4c37 2f3e b442 36be 8f74 5d3e
00000100: c686 a83e bc4b 2a3e d972 ed3d 5a48 b9be
00000110: 1748 92be 3440 0a3e 85d5 9d3c 17c8 003f
00000120: 8dc3 0f3e 1b82 91be ff07 b5be 0636 05be
00000130: 651b 903e c529 2e3e e31e b73a 8fba 3fbd
00000140: 1c0e 1e3f db38 b3be d93c a33e e8bb 373e
00000150: fce3 8bbd 5ca6 76bb c4b0 da3e 66b4 b9be
00000160: e5e7 a53d 2e40 38be a24e 8bbe c7bf b43e
00000170: 5b5e e83e e84d fc3e 2c8b d73e 139c 0cbc
00000180: 3f4b e43e 3463 2a3e 58c6 a43e d1a6 813c
00000190: e8ad 593e cebf 02bd a1d1 1bbd 7347 f43e
000001a0: 87db 6e3e e953 06be 1199 01bf 2569 133d
000001b0: da01 0d3e 26f1 6b3d 48c3 7b3e e61a 483c
000001c0: 920d 92bd 8ecc c9bb 199b 1dbe 7c7e 0b3e
000001d0: 2c0c 99bd 877f acbc 19ec 9cbd ff2e b23e
000001e0: 5217 9abe 8708 b5bd 4def 95be 1841 acbd
000001f0: 34e0 db3d 2cd9 d8be 0da5 38be e2a5 5f3e
00000200: 47f6 a73d d4c3 8ebe f97a 98be f9be f13d
00000210: 3d18 e1be 7c7e 6e3d fd05 803d c6c2 613e
00000220: 8a02 f33d 41d9 1abf 84fb c53e 2e94 22be
00000230: 10a2 06bd 7b9f 763e 5e42 c0bd 0e1c a53e
00000240: b240 d73d 7852 96be ca0e 3c3e fd5e ba3d
00000250: 0372 f9be 239f 13be c66b 5ebd a4df dabe
00000260: 00f9 b43e 3e37 cbbd 5cfb fabe d69b b63e
00000270: 1a4c df3e 340a 37be c1c5 9a3e 134d 803e
00000280: 64a4 143e f5ab 263e adf5 093f 668c 05bf
00000290: 383e af3d 68e1 09bf 5468 2f3e da52 b1bd
000002a0: 1338 5f3e 895e 933d 5a81 a1bd b831 663e
000002b0: 146f 993e 1a9b c8be cb19 bd3e f953 53be
000002c0: 6ac7 ca3e 301d 4f3e f5f6 223e 55fb 2c3d
000002d0: 471f 48bc 227b a8bc 984f 083e 4e22 a13e
000002e0: b91f dbbe 6382 3e3e 83a5 9abe d49a 13be
000002f0: 62ab 9fbe 08cc 06be 2c4f bebe 60c3 f43c
00000300: 0dc0 afbe fc90 39bd 4bca aa3e 0259 a93c
00000310: d982 8a3d 98f3 413d fd77 7e3d 177b 99bd
00000320: c9ab 063e 49ec 1bbe 97c6 3ebe 75e2 07bd
00000330: 6fbd 03bf 42cc 683e 17af afbc fdf2 343e
00000340: 4004 8c3e 87b7 90bd 43d1 0bbc c8f5 ca3d
00000350: a251 d53e d7eb 3e3e 0209 c43e 13e8 163e
00000360: ba3f 75be c65e 163d d1cb 003f b777 573e
00000370: f60a 83bd 52f4 4dbe d926 043e 4d97 9f3d
00000380: f3f7 82be ea90 373d 6a91 a0be 2e3b 8b3e
00000390: 065c 77be c1ed 633c eba3 6d3e 226f 6bbe
000003a0: fbfb bd3e 9fc8 eb3e 3560 a93e df7d ddbe
000003b0: b828 fbbd 1e9c 45bd e9a1 c3be fe2d 563e
000003c0: 7b13 a0be b629 bebe f161 cb3d ab29 93bd
000003d0: 3744 a33e 9554 913c ee1b 64be 82af 0ebe
000003e0: 74e0 ec3d 4ee5 ee3e 1475 f03e 7ccc 22bd
000003f0: ea04 79be ec72 993e ebe9 a23e 7d08 7ebe

net.2.bias f4 [32]
0.122589044 0.106791094 0.10279057 -0.04735205 0.17466468 -0.12950268 0.049511313 -0.13775608
0.06823767 0.0935216 0.17350343 0.13322988 0.11486325 -0.09599316 -0.14216255 -0.11406818
0.13656384 0.19734277 -0.10350942 0.09507539 -0.13521785 0.120309025 -0.10598234 -0.096988305
-0.1278063 0.12208766 -0.107300065 -0.11903489 -0.10886621 0.11810279 -0.10325785 -0.11440372
00000000: f70f fb3d 4ab5 da3d dd83 d23d 39f4 41bd
00000010: 4cdb 323e 5a9c 04be 60cc 4a3d ee0f 0dbe
00000020: 31c0 8b3d 4188 bf3d e2aa 313e 6a6d 083e
00000030: 6c3d eb3d 1098 c4bd 0f93 11be 949c e9bd
00000040: 64d7 0b3e 3914 4a3e bffc d3bd e3b6 c23d
00000050: 8c76 0abe 9464 f63d 450d d9bd cea1 c6bd
00000060: a8df 02be 1809 fa3d 23c0 dbbd 90c8 f3bd
00000070: 3ff5 debd e0df f13d da78 d3bd 7f4c eabd

net.4.weight f4 [8, 32]
-0.21832967 -0.33477545 -0.7466175 0.6258938 -0.3112908 -0.1024375 0.25372678 0.43151397
-0.85452765 -0.32197592 -0.65917706 -0.38902366 -0.052821957 0.4619216 0.25768277 0.8906274
-1.0146624 -0.47983986 0.01557575 -0.37603244 0.41984752 -0.43673727 0.13082969 0.13037395
0.35804346 0.114588015 -0.08509219 0.6030172 0.18948829 -0.38616267 0.26191044 0.058886256
0.18821649 0.4272295 0.45500603 0.35258415 0.8215637 -0.21410033 0.12689033 -0.52269405
0.39349833 0.389336 0.3080921 0.1960368 0.87523675 -0.5372847 -0.50342715 -0.3367857
0.43235034 0.2901555 0.13308597 -0.24812959 -0.84805244 0.69804156 -0.4464583 -0.7714416
-0.00088606455 -0.043165036 0.13950165 -0.69460285 -0.41767514 0.35968512 0.17491528 -0.15624544
0.5467805 0.25954106 0.8234336 -0.7664199 0.31235442 -0.6788927 0.37809104 -0.44408393
-0.039140448 0.1835871 0.15954536 -0.18672222 0.55103326 0.17786987 -0.85266334 -0.7514149
0.41417536 0.3933553 0.19353366 -0.14573634 -0.23117456 0.39658654 -0.14036809 -0.602061
-0.31135425 0.4864342 0.0041900077 -0.49620822 0.16193616 0.6888592 -0.025611661 -0.65021837
-0.538213 -0.49159673 -0.8074968 -0.07392893 -0.68721074 0.24797218 0.18290772 0.074973926
-0.45550275 -0.79649425 -0.68674743 0.08066092 -0.42071086 0.26077294 0.69775045 0.64905715
-0.2686964 -0.47526756 0.8146663 0.5874658 0.6830437 -0.45759556 -0.26262546 -0.17103706
0.3418384 -0.28674752 0.27127942 0.19247428 0.08614353 -0.6182424 0.3535819 0.15207672
-0.4710294 -0.4408892 -0.5052685 -0.12471017 -0.1280957 0.20405054 0.056321446 0.34700185
0.05415188 -0.013672191 -0.27680355 -0.16813293 -0.16113509 0.48276186 0.3137608 0.21099716
-0.028525056 -0.082800604 0.82531583 -0.869755 0.20997512 -0.9338747 0.65806365 0.48335513
0.20870128 -0.4263309 1.0081272 0.33730057 0.609071 -0.15791623 0.7472715 0.3617092
-0.16045234 -0.76245314 -0.5062939 0.3720123 -0.21119565 0.2313227 0.027851693 0.18855369
-0.265865 -1.0986772 0.18815787 -0.66245526 -0.13953437 0.8128805 0.909193 0.23060276
-0.4422497 -0.4193099 0.26686594 0.042328287 0.52144253 0.10171494 0.19696274 0.4953949
0.4690865 -0.25067854 -0.096708015 0.05826519 0.21430434 -0.4049295 0.20515303 0.77541584
0.4751579 0.80125815 0.012234129 -0.1564371 0.3823084 -0.21152097 -0.040453017 -0.28266275
0.40196127 0.63484836 0.14277275 0.1731004 0.46990982 -0.113666356 0.025533158 -0.41871515
0.31142426 0.4380446 -0.1593223 -0.0021932633 -0.414821 -0.030306676 -0.47642577 0.09671512
-0.9044905 0.3915505 -0.27324593 -1.3311728 -0.20794375 0.7703664 -0.45248833 -0.51183164
0.75570875 0.5212615 -0.005258156 -0.5349302 0.43988934 -0.818407 0.42830122 -0.19640449
0.75838083 0.26912728 0.62336576 0.7009122 0.833722 -0.4285122 -0.029953545 -0.26205933
0.3956278 0.14544508 -0.5830779 -0.09672425 -0.6198695 0.18523866 0.24529886 -0.4502592
-0.55123794 0.19756822 -0.06585731 -0.19424672 -0.29065177 0.6814933 0.05960514 -0.0820603
00000000: d091 5fbe b067 abbe 5322 3fbf 933a 203f
00000010: 8261 9fbe c1ca d1bd 7ae8 813e 66ef dc3e
00000020: 53c2 5abf 07da a4be d4bf 28bf 1c2e c7be
00000030: d65b 58bd fd80 ec3e ffee 833e 2800 643f
00000040: 75e0 81bf 92ad f5be 6e31 7f3c 5387 c0be
00000050: 41f6 d63e 079c dfbe 38f8 053e c080 053e
00000060: 7951 b73e 1fad ea3d d044 aebd 565f 1a3f
00000070: 3809 423e 1db7 c5be 2019 863e b732 713d
00000080: d3bb 403e d3bd da3e 8df6 e83e e985 b43e
00000090: 0052 523f 1e3d 5bbe 8aef 013e 47cf 05bf
000000a0: 9d78 c93e 0c57 c73e 3fbe 9d3e dfbd 483e
000000b0: 840f 603f 7d8b 09bf 9ae0 00bf 2d6f acbe
000000c0: 065d dd3e 438f 943e b047 083e af15 7ebe
000000d0: f719 59bf dab2 323f 2f96 e4be 327d 45bf
000000e0: c946 68ba d2cd 30bd 85d9 0e3e 7ed1 31bf
000000f0: 84d9 d5be a628 b83e fe1c 333e cefe 1fbe
00000100: cff9 0b3f 91e2 843e 8bcc 523f 1834 44bf
00000110: ebec 9f3e e9cb 2dbf 2695 c13e f85e e3be
00000120: bc51 20bd 42fe 3b3e dc5f 233e 1c34 3fbe
00000130: 8410 0d3f 8523 363e 2548 5abf ba5c 40bf
00000140: cb0e d43e de65 c93e b02d 463e e83b 15be
00000150: 06b9 6cbe 640d cb3e a7bc 0fbe ab20 1abf
00000160: d369 9fbe e70d f93e 554c 893b 010f febe
00000170: 98d2 253e 1459 303f 8ccf d1bc b674 26bf
00000180: 54c8 09bf 91b2 fbbe 1cb8 4ebf 0d68 97bd
00000190: 0bed 2fbf 6bec 7d3e 294c 3b3e ee8b 993d
000001a0: a837 e9be 0ce7 4bbf aece 2fbf 8d31 a53d
000001b0: 6a67 d7be 0884 853e c69f 323f 9c28 263f
000001c0: 9392 89be 4556 f3be f88d 503f 2964 163f
000001d0: f4db 2e3f f749 eabe d876 86be 5724 2fbe
000001e0: 7105 af3e 92d0 92be 23e5 8a3e fa17 453e
000001f0: 056c b03d 2245 1ebf b008 b53e 00ba 1b3e
00000200: c42a f1be 3bbc e1be 4759 01bf 0c68 ffbd
00000210: 852b 03be a0f2 503e 51b1 663d 3aaa b13e
00000220: 5dce 5d3d 5301 60bc 32b9 8dbe 0a2b 2cbe
00000230: 9900 25be 902c f73e 41a5 a03e a40f 583e
00000240: 61ad e9bc 5d93 a9bd e647 533f 44a8 5ebf
00000250: b803 573e 6a12 6fbf dc76 283f 537a f73e
00000260: cab5 553e 0b48 dabe 500a 813f a9b2 ac3e
00000270: 14ec 1b3f cbb4 21be 2f4d 3f3f f331 b93e
00000280: 9e4d 24be 2130 43bf 7a9c 01bf 6578 be3e
00000290: ac43 58be dcdf 6c3e 3c29 e43c 3814 413e
000002a0: 751f 88be 74a1 8cbf 75ac 403e ab96 29bf
000002b0: 19e2 0ebe f018 503f dfc0 683f 2123 6c3e
000002c0: 8d6e e2be caaf d6be a7a2 883e 6d60 2d3d
000002d0: 427d 053f ec4f d03d 9ab0 493e 66a4 fd3e
000002e0: 1b2c f03e f058 80be da0e c6bd 7ba7 6e3d
000002f0: 9972 5b3e eb52 cfbe a313 523e a781 463f
00000300: e547 f33e 411f 4d3f a871 483c 0c31 20be
00000310: edbd c33e f498 58be 10b2 25bd 2cb9 90be
00000320: decd cd3e 6c85 223f 0533 123e 3b41 313e
00000330: 0598 f03e e8c9 e8bd ea2a d13c d561 d6be
00000340: 0073 9f3e 6247 e03e 6325 23be dabc 0fbb
00000350: 6b63 d4be b545 f8bc 14ee f3be 9412 c63d
00000360: b08c 67bf 4f79 c83e e4e6 8bbe df63 aabf
00000370: 35ef 54be bb36 453f 8dac e7be 6607 03bf
00000380: 2176 413f 6571 053f 9c4c acbb 30f1 08bf
00000390: 2d39 e13e 1f83 51bf 4c4a db3e 421e 49be
000003a0: 3f25 423f 0dcb 893e e694 1f3f fb6e 333f
000003b0: ce6e 553f f365 dbbe 2361 f5bc a42c 86be
000003c0: ba8f ca3e 8eef 143e 9844 15bf 5d17 c6bd
000003d0: c4af 1ebf 34af 3d3e a02f 7b3e 6088 e6be
000003e0: ee1d 0dbf 534f 4a3e 33e0 86bd 9de8 46be
000003f0: 4fd0 94be 5876 2e3f 8524 743d 3b0f a8bd
