auto-iss-demo/orientation_agent/weights/orientation_net_100K.pt (torch, 68335 bytes, 16 tensors)

net.0.weight f4 [128, 3]
0.015560566 0.10505078 -0.068624094 -0.23073587 0.03189333 -0.14538498 0.0709181 0.01028395
0.020054942 -0.23910369 -0.10156879 -0.19096734 0.33548576 0.12629275 0.0969055 1.3339887
0.19504717 0.1523634 -0.130482 -0.22676167 -0.03147042 -0.4675061 0.05923398 -0.21694778
0.6116548 0.0342868 0.15425804 0.08519202 -0.037908677 -0.2105384 0.111603744 -0.09672471
-0.06505055 -0.20372248 -0.047629476 0.12629284 -0.4630476 -0.20961078 0.17678757 -0.014823777
0.045967538 -0.02120194 0.08249231 -0.025956945 -0.07642844 -0.042447947 -0.26657665 -0.2183328
0.35081407 0.04410985 -0.15496701 -0.37892914 0.19172674 0.04696446 -0.058940325 -0.014418079
-0.07108068 0.08636016 0.042065356 -0.07543799 0.12355269 0.05998322 0.44217083 0.60315126
0.14283194 -0.060985044 -0.10388738 0.011511287 0.09674763 -0.96895087 -0.032089103 0.061518088
0.6639411 0.40055466 -0.105374806 -0.011420221 0.12322754 0.084368944 -0.022005547 0.38885278
0.58279616 0.59077615 0.17301993 0.4686696 -0.34332666 -0.30211976 -0.19271985 0.073723994
-0.07855993 0.24111715 0.06646232 0.05214213 -0.20820117 -0.40904933 -0.15498069 -0.44395807
0.049191747 0.13371734 0.055813197 -0.2996923 -0.342788 -0.19986278 -0.3258591 -0.13637164
-0.057596747 0.22086346 0.04102286 0.2843589 0.017511142 0.2281793 0.03610178 -0.100268155
-0.3335866 -0.4862853 -0.54736334 0.10753124 0.05855874 -0.25088084 -0.11946045 0.007223212
-0.17698126 -0.34985963 -0.054814626 -0.17082709 -0.21877597 -0.14169002 0.21991311 0.22511944
0.14220965 -0.3433575 -0.6380964 -0.34383947 0.25423077 -0.06910004 0.11353456 -0.027969444
-0.031039296 -0.08869523 0.034717686 -0.13043198 -0.16482091 0.66158384 0.47344846 0.19307214
0.14588852 -0.08350634 -0.1900793 0.41301417 0.12212207 0.1382195 -0.061698478 -0.07191002
-0.13168737 -0.17588036 -0.23549744 0.04743668 -0.031960063 -0.18266508 0.04396463 0.109387934
-0.088670895 -0.16350247 0.04062159 -0.18149412 -0.0018005951 -0.02470228 0.34325647 0.59508383
-0.49811807 -0.621401 -0.15167809 -0.080326825 -0.12027833 0.13145897 0.7145445 0.13536614
0.015015748 -0.12600374 -0.066453196 0.069505565 -0.09588911 0.074604616 0.14529206 -0.12823425
0.029075675 0.035309773 -0.5130789 -0.101707496 -0.046469312 0.43306196 -0.036227047 0.15685943
-0.4422487 -0.03682322 -0.3225157 0.1682916 0.19403888 0.09542376 -0.00049309194 -0.10287951
0.31908306 0.59428304 0.12040013 0.45023212 -0.4098136 -0.59565955 -0.39475903 -0.14109935
-0.014647866 -0.00995735 0.21612352 -0.0051879496 -0.17853995 0.4042225 0.27859172 0.053332202
0.5274535 0.18983921 0.019363267 0.2698678 0.22194341 0.15949257 0.044094022 0.2496011
0.29376382 0.2916686 0.18859193 0.05616246 -0.21157275 -0.24452633 0.22735728 -0.13438384
0.11568422 0.02787521 -0.025796527 -0.30112016 -0.48581335 0.16513266 0.075321175 -0.04052992
0.14863053 0.09056274 0.32371968 0.64970773 0.17663243 0.1979172 0.57747805 0.03316886
-0.06348073 0.18064788 0.22587758 0.15825386 0.4264942 0.2763501 -0.12965886 0.38239256
00000000: bff1 7e3c dd24 d73d ca8a 8cbd 0646 6cbe
00000010: 95a2 023d cddf 14be 823d 913d 037e 283c
00000020: 434a a43c 99d7 74be 4c03 d0bd f18c 43be
00000030: cac4 ab3e e352 013e 6476 c63d 24c0 aa3f
00000040: 72ba 473e 2705 1c3e 139d 05be 3634 68be
00000050: 21e7 00bd f65c efbe 549f 723d 8f27 5ebe
00000060: 6995 1c3f 5170 0c3d d2f5 1d3e 2779 ae3d
00000070: 2146 1bbd 6197 57be 8190 e43d 9b17 c6bd
00000080: 3939 85bd a09c 50be 2017 43bd e952 013e
00000090: 9314 edbe 35a4 56be cd07 353e 6ddf 72bc
000000a0: 7548 3c3d b1af adbc baf1 a83d a9a3 d4bc
000000b0: 8486 9cbd e6dd 2dbd bc7c 88be a292 5fbe
000000c0: e79d b33e 88ac 343d acaf 1ebe 0003 c2be
000000d0: 0454 443e ce5d 403d 696b 71bd ce39 6cbc
000000e0: bf92 91bd 98dd b03d b94c 2c3d 3c7f 9abd
000000f0: 3109 fd3d f7b0 753d 3764 e23e 1f68 1a3f
00000100: 8942 123e 74cb 79bd e8c2 d4bd d699 3c3c
00000110: 9f23 c63d 2a0d 78bf dd6f 03bd 64fa 7b3d
00000120: 0bf8 293f 8015 cd3e bfce d7bd e11b 3bbc
00000130: b85e fc3d a0c9 ac3d fa44 b4bc b617 c73e
00000140: 2132 153f 1b3d 173f 232c 313e 76f5 ef3e
00000150: 83c8 afbe 71af 9abe 5a58 45be 9bfc 963d
00000160: 07e4 a0bd 6ae7 763e 661d 883d fc92 553d
00000170: b032 55be ea6e d1be 42b3 1ebe 794e e3be
00000180: 497d 493d 33ed 083e 619c 643d 4571 99be
00000190: e981 afbe d4a8 4cbe 01d7 a6be 02a5 0bbe
000001a0: 91ea 6bbd 082a 623e 9607 283d 7d97 913e
000001b0: 8773 8f3c d6a7 693e 76df 133d 6459 cdbd
000001c0: ddcb aabe 63fa f8be 0120 0cbf 5739 dc3d
000001d0: 4adb 6f3d 7473 80be aea7 f4bd b2b0 ec3b
000001e0: 933a 35be cd20 b3be 4d85 60bd 4ced 2ebe
000001f0: cf06 60be 3017 11be e730 613e b685 663e
00000200: 689f 113e 8ecc afbe 495a 23bf ba0b b0be
00000210: 892a 823e 5284 8dbd cf84 e83d 2d20 e5bc
00000220: 1f46 febc d8a5 b5bd 2234 0e3d f68f 05be
00000230: d0c6 28be 8f5d 293f d667 f23e b4b4 453e
00000240: cd63 153e 5f05 abbd 26a4 42be 9876 d33e
00000250: 231b fa3d 6a89 0d3e 8bb7 7cbd 9045 93bd
00000260: 0ed9 06be fb19 34be 3e26 71be f74c 423d
00000270: 8ee8 02bd 8e0c 3bbe 4214 343d c806 e03d
00000280: 1699 b5bd 316d 27be d362 263d 98d9 39be
00000290: f201 ecba 705c cabc 50bf af3e 6a57 183f
000002a0: 5509 ffbe 2314 1fbf 8051 1bbe 6482 a4bd
000002b0: 7c54 f6bd 2e9d 063e 63ec 363f 6c9d 0a3e
000002c0: 9d04 763c 2007 01be 9d18 88bd ef58 8e3d
000002d0: 8261 c4bd 4eca 983d 71c7 143e d74f 03be
000002e0: 1c30 ee3c fba0 103d 2459 03bf 054c d0bd
000002f0: 9b56 3ebd 4cba dd3e d062 14bd c29f 203e
00000300: 6c6e e2be f2d3 16bd c720 a5be a254 2c3e
00000310: 21b2 463e 886d c33d d742 01ba 7eb2 d2bd
00000320: db5e a33e ef22 183f 5894 f63d d384 e63e
00000330: 17d3 d1be 257d 18bf db1d cabe 597c 10be
00000340: 9afd 6fbc 2724 23bc 7c4f 5d3e adff a9bb
00000350: 2dd3 36be 40f6 ce3e 93a3 8e3e de72 5a3d
00000360: 3107 073f 3665 423e b79f 9e3c 1d2c 8a3e
00000370: 2245 633e 0552 233e ef9b 343d 6e97 7f3e
00000380: 3668 963e 9655 953e 3e1e 413e 9c0a 663d
00000390: 87a6 58be 1c65 7abe 59d0 683e eb9b 09be
000003a0: d9eb ec3d 8d5a e43c 3d53 d3bc 6c2c 9abe
000003b0: 87bc f8be 8918 293e fd41 9a3d b402 26bd
000003c0: 9a32 183e f578 b93d 96be a53e 3f53 263f
000003d0: 22df 343e ceaa 4a3e 9ad5 133f 12dc 073d
000003e0: 2f02 82bd c2fb 383e 744c 673e 4d0d 223e
000003f0: 735d da3e c37d 8d3e 4bc5 04be f5c8 c33e

net.0.bias f4 [128]
0.04449308 -0.20945269 0.06622248 -0.15506452 0.34739786 0.52070695 -0.3754145 -0.026880205
0.64484954 -0.02548938 -0.54774076 -0.010509927 -0.5432502 0.024055935 -0.12755403 0.021303628
0.249 -0.64338833 0.11702637 0.36919484 0.05259443 0.7349179 -0.24723272 -0.736179
0.6628118 -0.21485297 0.057466008 0.30925608 -0.32343462 0.23760566 0.02249195 0.03847786
-0.05147192 0.05899949 0.055986356 -0.026985846 0.2947882 -0.19261193 -0.39005935 -0.43474758
-0.295244 -0.24226683 0.1105786 -0.7986295 0.23314548 -0.024826968 0.049576618 0.7436111
0.32480693 0.3010979 0.14410585 0.099609286 -0.3002067 0.0653097 -0.060468882 -0.057988852
-0.49254775 -0.24214193 0.78216356 -0.30683354 -0.36303994 -0.26002917 -0.5458744 0.5674315
-0.36194533 0.26073396 0.054576397 0.33322516 -0.6021435 0.017914822 0.4605381 0.60019475
0.2844969 -0.14727005 0.052096166 0.22656566 -0.3009008 0.28544247 -0.14301977 0.27520603
-0.013016746 0.714296 0.6610442 0.28478834 0.43343905 0.39832056 -0.0043883733 -0.03400607
-0.2790573 0.10973988 0.3884445 0.36453187 -0.05333608 0.68391085 0.3968848 0.23567438
0.16619332 0.021961961 0.06178649 0.24990463 0.27594683 -0.10442227 -0.026052024 0.02818743
0.1507556 -0.09418231 0.008423427 0.4886064 0.30821726 -0.037070718 -0.22765745 0.010917149
0.092354566 0.3266673 -0.09039392 0.16188355 0.15398718 -0.40192455 -0.005821529 -0.18679035
0.068059385 0.39095786 0.0017288125 -0.45154747 -0.5007825 -0.1324133 0.3002202 0.38942233
00000000: 603e 363d c47a 56be a79f 873d 3cc9 1ebe
00000010: 22de b13e 0d4d 053f 5436 c0be e033 dcbc
00000020: dc14 253f 1bcf d0bc bd38 0cbf d431 2cbc
00000030: 7212 0bbf f410 c53c 869d 02be f284 ae3c
00000040: dbf9 7e3e 19b5 24bf 85ab ef3d 1b07 bd3e
00000050: 426d 573d 9423 3c3f 932a 7dbe 3a76 3cbf
00000060: 09ae 293f 6b02 5cbe 7a61 6b3d d056 9e3e
00000070: 3999 a5be e64e 733e 0a41 b83c f69a 1d3d
00000080: 38d4 52bd 73a9 713d f351 653d 6c11 ddbc
00000090: 7bee 963e 103c 45be dcb5 c7be 3c97 debe
000000a0: 392a 97be cc14 78be 0877 e23d fc72 4cbf
000000b0: b0bd 6e3e ed61 cbbc da10 4b3d 4c5d 3e3f
000000c0: 184d a63e 8129 9a3e 7c90 133e f4ff cb3d
000000d0: b1b4 99be 18c1 853d 38ae 77bd b885 6dbd
000000e0: 382f fcbe 0ef4 77be df3b 483f 4919 9dbe
000000f0: 5fe0 b9be 8b22 85be 6dbe 0bbf 3143 113f
00000100: e650 b9be ec7e 853e 808b 5f3d 7d9c aa3e
00000110: 1426 1abf 1bc2 923c a6cb eb3e 5da6 193f
00000120: 94a9 913e f6cd 16be ca62 553d d400 683e
00000130: ab0f 9abe 8425 923e c673 12be cee7 8c3e
00000140: 3144 55bc 1adc 363f 313a 293f c7cf 913e
00000150: b9eb dd3e acf0 cb3e 58cc 8fbb f349 0bbd
00000160: 99e0 8ebe 4dbf e03d 33e2 c63e eca3 ba3e
00000170: ef76 5abd c814 2f3f 7c34 cb3e a054 713e
00000180: 952e 2a3e 92e9 b33c d513 7d3d 00e7 7f3e
00000190: e748 8d3e 58db d5bd 0e6b d5bc 53e9 e63c
000001a0: ad5f 1a3e a8e2 c0bd 6a02 0a3c 9e2a fa3e
000001b0: a7ce 9d3e 77d7 17bd 091f 69be d7dd 323c
000001c0: 6424 bd3d f040 a73e 7320 b9bd cdc4 253e
000001d0: d1ae 1d3e 0ec9 cdbe 86c2 bebb f845 3fbe
000001e0: b862 8b3d a12b c83e 5299 e23a 3b31 e7be
000001f0: 4833 00bf 5a97 07be 76b6 993e 5d62 c73e

net.2.weight f4 [64, 128]
-0.07798075 0.11327255 -0.50845224 0.6043461 -0.48783565 -0.8851969 0.013629072 0.14307939
-0.5074394 0.019611642 0.038161702 0.019173002 0.7949676 -0.2414868 0.21839377 0.09899808
0.11154463 0.49908915 0.38577813 -0.097511776 -0.2777212 -0.4698664 0.16799615 1.1036133
-0.85743153 0.24445969 -0.108635075 -0.7057952 0.30115882 -0.1686743 0.32165486 0.2654123
-0.6430678 0.2020504 0.09889103 -0.40672636 0.07909703 0.40107694 0.7818805 0.5054068
0.18880169 0.17464142 0.20311263 0.028285963 -0.40590614 0.08419655 0.012002942 -0.33405074
-0.1647757 -0.67420745 -0.018922063 0.18452945 0.106827304 -0.09179076 0.0719168 -0.0027229958
0.10693371 0.70617926 -0.77180725 -0.20596798 0.43559888 0.687878 0.3191799 -0.6344756
0.9314068 -0.15385114 0.07670601 -0.39136755 0.31850266 -0.26459908 0.28257725 0.098955415
-0.6945173 0.28949922 -0.2052987 -0.68752646 0.22901233 -0.093747325 0.07259939 -0.33285427
-0.4033818 -0.84431064 -0.81799823 -0.19406736 -0.5206044 -0.47415006 0.15490943 0.016654514
0.41626576 -0.18674862 -0.6393498 -0.09430971 0.25278687 -0.29874507 0.110099815 -0.8158936
-0.35525337 -0.18640774 0.5775852 -0.45778573 -0.65159535 0.2374037 0.067031674 -0.38468957
-0.16978128 0.08650093 -0.050695974 -0.13414578 -0.60235935 0.08652605 -0.0124187665 0.07570997
0.21630181 -0.3159622 0.03502105 -0.34456939 -0.39229503 0.17110737 -0.19807051 0.71932137
-0.49055293 -0.09965203 -0.4532712 0.55738336 0.3693927 -0.10577454 -0.4349321 -0.39851373
0.28952414 -0.102863625 -0.25947908 0.42635924 0.0949049 -0.4985821 0.08130127 0.06655467
-0.24465248 -0.3283639 -0.045320008 0.030407801 0.07333511 -0.0944632 -0.19951327 -0.020979987
-0.1573476 0.3762553 -0.5008749 0.2481956 0.29964855 -0.32559878 0.013027386 0.5705089
-0.3649226 -0.0070594167 0.2833444 -0.046973746 0.12211635 -0.30636904 -0.23453428 0.09934514
0.10807407 0.17880023 0.20700738 0.011466728 0.052208558 -0.030840324 0.51731735 0.31765503
-0.0028972076 -0.11253612 0.04996189 0.16052611 -0.06983176 -0.18592829 -0.012223643 -0.05891552
0.31349263 -0.58138543 0.21598081 -0.057922076 -0.15297894 -0.2675561 -0.07322567 -0.01742603
-0.0077201985 -0.20859692 -0.40943533 0.013025832 0.1257158 0.37899444 0.28307262 -0.69330275
0.39554968 0.0037472497 -0.3309759 -0.15893593 0.03485438 0.1853332 0.037606 0.13874634
-0.5541988 -0.23437586 -0.050709847 -0.45389962 0.074754044 -0.17894183 -0.21166103 0.1909643
-0.6357385 -0.21379356 -0.31150874 0.06667675 -0.013302224 0.27972773 -0.07540765 -0.020368207
-0.2709784 -0.4158687 -0.50843847 0.094315335 0.19435634 0.1534478 0.022601066 -0.23414733
-0.17817558 0.04328145 0.3190806 -0.13781232 -0.0021433535 0.0126666855 -0.11480346 -0.110108376
0.022637133 -0.23543465 -0.30166575 0.17584758 -0.08348805 -0.13832703 -0.090225875 0.27407068
-0.020995906 -0.22119156 -0.059514873 -0.08460231 -0.2811758 -0.169084 0.15535308 0.3331469
-0.26172292 0.044229373 0.054093335 0.749034 -0.13671474 0.6908823 0.20615028 0.12253161
00000000: 5fb4 9fbd 70fb e73d ed29 02bf 6db6 1a3f
00000010: 98c5 f9be 449c 62bf 794c 5f3c 6783 123e
00000020: 8ce7 01bf 98a8 a03c 724f 1c3d b310 9d3c
00000030: ff82 4b3f 5148 77be 9ea2 5f3e 81bf ca3d
00000040: 8371 e43d 9d88 ff3e b684 c53e 41b4 c7bd
00000050: 7931 8ebe 5492 f0be 2f07 2c3e 3343 8d3f
00000060: a280 5bbf a453 7a3e 117c debd ffae 34bf
00000070: 7d31 9a3e f5b8 2cbe f2af a43e 1fe4 873e
00000080: 17a0 24bf 4de6 4e3e 6187 ca3d 703e d0be
00000090: a0fd a13d f559 cd3e 5229 483f 5762 013f
000000a0: 3b55 413e 33d5 323e c2fc 4f3e f7b7 e73c
000000b0: eed2 cfbe 3e6f ac3d fda7 443c b308 abbe
000000c0: f6ba 28be dc98 2cbf 7102 9bbc 4af5 3c3e
000000d0: 46c8 da3d cbfc bbbd 1e49 933d 4a74 32bb
000000e0: 1000 db3d 2ac8 343f 2995 45bf 45e9 52be
000000f0: d106 df3e c618 303f 8c6b a33e fe6c 22bf
00000100: ad70 6e3f 278b 1dbe 0a18 9d3d 5461 c8be
00000110: c812 a33e 8879 87be f7ad 903e 23a9 ca3d
00000120: e3cb 31bf 3e39 943e d339 52be bc01 30bf
00000130: 3582 6a3e 99fe bfbd fdae 943d e06b aabe
00000140: 0f88 cebe be24 58bf 5568 51bf 98b9 46be
00000150: 5446 05bf ccc3 f2be 94a0 1e3e 0c6f 883c
00000160: c920 d53e 083b 3fbe 6eac 23bf 7325 c1bd
00000170: 486d 813e 1df5 98be 037c e13d 67de 50bf
00000180: c5e3 b5be ace1 3ebe a0dc 133f e462 eabe
00000190: f4ce 26bf f519 733e e747 893d 08f6 c4be
000001a0: 25db 2dbe 6627 b13d 95a6 4fbd 835d 09be
000001b0: 3934 1abf 9234 b13d 1578 4bbc d40d 9b3d
000001c0: 397e 5d3e ccc5 a1be 3c72 0f3d 666b b0be
000001d0: e5da c8be c536 2f3e ffd2 4abe 7225 383f
000001e0: c129 fbbe 5d16 ccbd 2a13 e8be adb0 0e3f
000001f0: 0a21 bd3e 52a0 d8bd 6caf debe fe09 ccbe
00000200: 823c 943e 2aaa d2bd 71da 84be c24b da3e
00000210: 805d c23d 2746 ffbe 4881 a63d d14d 883d
00000220: 2e86 7abe 501f a8be 79a1 39bd c819 f93c
00000230: b830 963d ec75 c1bd 354d 4cbe 39de abbc
00000240: bb1f 21be 89a4 c03e 5639 00bf fd26 7e3e
00000250: 896b 993e e2b4 a6be d170 553c df0c 123f
00000260: 23d7 babe ae52 e7bb 8412 913e 8b67 40bd
00000270: 2318 fa3d 67dc 9cbe c129 70be 7775 cb3d
00000280: f055 dd3d 6817 373e bef9 533e f1de 3b3c
00000290: a4d8 553d d9a4 fcbc e96e 043f aea3 a23e
000002a0: 14df 3dbb 5679 e6bd d7a4 4c3d f560 243e
000002b0: f403 8fbd fc63 3ebe ad45 48bc 6651 71bd
000002c0: 1b82 a03e add5 14bf 132a 5d3e b33f 6dbd
000002d0: 83a6 1cbe 1dfd 88be 57f7 95bd 09c1 8ebc
000002e0: b8f9 fcbb 6e9a 55be 82a1 d1be 4d6a 553c
000002f0: a5bb 003e 8f0b c23e e5ee 903e 4a7c 31bf
00000300: 7d85 ca3e 6b94 753b ac75 a9be 1ac0 22be
00000310: 77c3 0e3d fdc7 3d3e c008 1a3d 8513 0e3e
00000320: f9df 0dbf 3a00 70be 21b5 4fbd 8865 e8be
00000330: a618 993d 873c 37be abbd 58be 258c 433e
00000340: c2bf 22bf b3ec 5abe 137e 9fbe d28d 883d
00000350: 92f1 59bc 7938 8f3e 536f 9abd 3adb a6bc
00000360: aebd 8abe beec d4be 0629 02bf 6628 c13d
00000370: 5905 473e 6c21 1d3e df25 b93c 51c4 6fbe
00000380: a973 36be e447 313d 885e a33e ac1e 0dbe
00000390: 8177 0cbb ee87 4f3c 141e ebbd 8080 e1bd
000003a0: 8271 b93c c815 71be ef73 9abe 6311 343e
000003b0: c8fb aabd 9aa5 0dbe 58c8 b8bd fe52 8c3e
000003c0: 9bff abbc 0a80 62be dec5 73bd fa43 adbd
000003d0: 46f6 8fbe 5b24 2dbe e114 1f3e 3b92 aa3e
000003e0: 8c00 86be dc29 353d f990 5d3d b1c0 3f3f
000003f0: f3fe 0bbe aadd 303f 0f19 533e daf1 fa3d

net.2.bias f4 [64]
-0.11979745 -0.010339536 0.0032331801 -0.22908716 -0.19798982 -0.12098102 0.0031412055 0.0728512
0.00031226408 0.06669299 -0.16083412 0.072931275 -0.018324317 -0.18344615 0.09798847 -0.013012224
0.15514728 -0.084357776 -0.050419588 0.10066834 -0.15748331 -0.18788174 0.05187943 0.054981753
-0.110949084 -0.13414417 0.06940737 -0.046775162 -0.07170268 0.09494234 0.022365244 0.028236276
-0.003962314 0.012141807 0.16997977 0.07658895 0.035043567 -0.009136588 0.16127796 0.054332964
0.034100812 -0.035168134 0.083819576 -0.0465954 -0.18691845 0.1432853 0.03691703 0.07383106
-0.014683808 -0.013410925 -0.01643294 -0.035661705 -0.012589968 -0.15454951 0.029163562 -0.025159376
0.095055185 0.05339878 0.1764833 -0.0008274045 0.0071631614 0.052374158 -0.068283826 0.021768713
00000000: 5e58 f5bd 2867 29bc c3e3 533b d395 6abe
00000010: d8bd 4abe e6c4 f7bd afdc 4d3b 0333 953d
00000020: 60b7 a339 5696 883d b3b1 24be fe5c 953d
00000030: e11c 96bc 4fd9 3bbe 2eae c83d 3931 55bc
00000040: eede 1e3e c5c3 acbd c584 4ebd 342b ce3d
00000050: 4e43 21be 1264 40be 867f 543d 8c34 613d
00000060: 4639 e3bd 175d 09be 7425 8e3d 5097 3fbd
00000070: dbd8 92bd 2171 c23d 5137 b73c c34f e73c
00000080: 4dd6 81bb 6eee 463c 2d0f 2e3e abda 9c3d
00000090: d889 0f3d a1b1 15bc 0d26 253e 3e8c 5e3d
000000a0: 4bad 0b3d 760c 10bd 99a9 ab3d d1da 3ebd
000000b0: 8d67 3fbe 62b9 123e 5036 173d bd34 973d
000000c0: 5b94 70bc 7fb9 5bbc 5f9e 86bc 0212 12bd
000000d0: 2746 4ebc 3a42 1ebe 6ce8 ee3c 091b cebc
000000e0: 4bac c23d aeb8 5a3d 0ab8 343e 2de6 58ba
000000f0: f4b8 ea3b 4986 563d 64d8 8bbd 4d54 b23c

net.4.weight f4 [64, 64]
0.319185 0.26821867 -0.96782243 -0.05888732 0.2519272 -0.22097811 -0.08450323 -0.18180689
0.3875453 0.009479087 -0.1385927 0.27440664 -0.0086212475 0.5496178 -0.0143699655 -0.21910447
-0.052261807 -0.18755199 0.3037464 -0.31306 -0.23239139 0.048622865 -0.105483316 -0.30657354
0.3537051 -0.049068652 -0.49723205 0.053727895 -0.35695326 0.03633704 -0.12542151 -0.33358437
-0.080059245 0.3160119 -0.088030525 0.456751 0.2862874 0.5025016 -0.088309795 -0.76632696
0.80791354 0.3808729 0.033892784 -0.037676036 0.02464881 0.43307674 -0.14239782 -0.032150075
0.19489023 -0.6443325 0.5145264 0.07481318 0.15994424 0.043742593 -0.47698966 -0.06690821
0.04436111 -0.27835456 0.1386767 -0.34344864 0.1748447 0.29504803 -0.39250097 0.10797989
0.18822408 0.17691848 0.18302321 -0.6739265 -1.0814636 -0.15077768 0.111467004 0.25081545
-0.04510048 0.24138889 0.0465438 0.3424934 -0.13106547 -0.295535 -0.22229601 0.0668195
0.24483778 -0.32885054 -0.56274074 -0.33677194 -0.07255639 0.23798534 -0.5762296 -0.19446322
-0.5430631 -0.4366269 0.2713355 -0.18952774 -0.16699184 0.3234876 0.029015036 0.7194369
0.15813084 -0.2112994 0.13015345 0.6882895 -0.38548052 0.076499425 -0.29937837 0.14943497
-0.24166693 0.26952708 -0.77342755 0.054396886 0.16343361 0.19905823 0.6224833 -0.024789741
0.16134085 -0.15066169 -0.6576544 0.01464182 -0.35299602 -0.6707316 0.124295935 0.059897672
-0.27873254 -0.0011555965 0.52790904 0.12974985 -0.054426454 -0.6448073 0.30582774 -0.23553193
0.19536975 0.11100623 -0.32875708 -0.33678794 -0.030682392 0.2518065 -0.08626133 0.048327547
0.45474932 0.0025203943 -1.2595336 0.07969187 0.015069275 -0.1369159 -0.5444972 0.50932604
0.40737936 0.21973202 0.25344363 0.3660843 -0.303301 0.089654244 -0.22928543 0.27742413
0.21634294 -0.3382182 -0.5909929 0.024214793 -0.60278183 -0.11959092 -0.27381477 0.13555612
-0.059468284 0.07200192 -0.19457494 0.06985965 0.09744761 -0.102626935 -0.77097017 -0.50860536
0.47957864 -0.05671323 -0.050101932 -0.24301249 -0.08507926 0.30610585 0.2698919 0.5168875
-0.40113434 0.70075816 -0.17273158 -0.08226395 -0.17590868 -0.3014111 -0.4399276 -0.29987234
-0.2794874 0.5929233 -0.30531943 -0.041522637 0.501978 0.41633353 -0.72559845 0.1291254
0.16402578 0.4139677 -0.8982384 0.2872849 0.16242842 0.08148453 0.08672505 -0.5612111
0.4641587 -0.252641 -0.3359453 0.17014217 -0.15931897 0.07269288 -0.16275309 -0.20015608
0.20796043 0.11674594 0.092164166 -0.110302895 0.10999936 -0.77808726 0.06845486 -0.046789516
-0.05582207 0.11928468 -0.4830874 -0.21517162 -0.4554016 -0.0831796 -0.97222084 0.164105
-0.41797584 0.3122356 -0.008546325 -0.19486032 -0.036559884 -0.20259455 -0.5623274 -0.37526608
0.3715757 0.107587874 0.16110022 0.17666148 0.27380195 -0.08051726 0.24893339 -0.018233366
0.10627847 0.20913422 0.040728293 -0.10936854 -0.022568095 0.064683184 -0.31003293 -1.0150036
0.13698299 -0.2903642 -0.41567716 -0.5833109 0.75685036 0.19022885 -0.33201453 0.002271676
00000000: 376c a33e f553 893e 36c3 77bf d533 71bd
00000010: 9afc 803e 1648 62be 0810 adbd 962b 3abe
00000020: 566c c63e 2c4e 1b3c 3feb 0dbe 077f 8c3e
00000030: 2240 0dbc c1b3 0c3f 0170 6bbc ec5c 60be
00000040: 7a10 56bd a10d 40be a684 9b3e 6649 a0be
00000050: 02f8 6dbe c528 473d a307 d8bd 35f7 9cbe
00000060: d618 b53e 36fc 48bd 3395 febe c811 5c3d
00000070: 94c2 b6be 26d6 143d 7f6e 00be 92cb aabe
00000080: 1af6 a3bd 50cc a13e 5949 b4bd 44db e93e
00000090: 4394 923e f2a3 003f c4db b4bd 012e 44bf
000000a0: 6cd3 4e3f c601 c33e 29d3 0a3d 3052 1abd
000000b0: 4dec c93c 3cbc dd3e bcd0 11be ccaf 03bd
000000c0: 4e91 473e faf2 24bf 01b8 033f a737 993d
000000d0: 6cc8 233e 6f2b 333d fd37 f4be 2c07 89bd
000000e0: ffb3 353d 7d84 8ebe 4401 0e3e 80d8 afbe
000000f0: 7d0a 333e 8910 973e e3f5 c8be 9024 dd3d
00000100: d0bd 403e 1e2a 353e 706a 3b3e 7286 2cbf
00000110: 666d 8abf 7765 1abe d048 e43d e26a 803e
00000120: 48bb 38bd a62e 773e b6a4 3e3d 4c5b af3e
00000130: 0736 06be 5d50 97be 91a1 63be a9d8 883d
00000140: c1b6 7a3e 195f a8be c70f 10bf 5f6d acbe
00000150: 7298 94bd 6eb2 733e c883 13bf 5e21 47be
00000160: 2f06 0bbf 908d dfbe 7dec 8a3e 8f13 42be
00000170: e9ff 2abe 2ba0 a53e f1b0 ed3c 042d 383f
00000180: 0ded 213e df5e 58be f246 053e be33 303f
00000190: b45d c5be bbab 9c3d 1f48 99be 7b05 193e
000001a0: 8977 77be 74ff 893e 59ff 45bf 45cf 5e3d
000001b0: 245b 273e ecd5 4b3e 115b 1f3f db13 cbbc
000001c0: 8936 253e 0f47 1abe 0a5c 28bf 3fe4 6f3c
000001d0: e5bb b4be 11b5 2bbf de8e fe3d 4357 753d
000001e0: 08b6 8ebe 6277 97ba 0c25 073f 25dd 043e
000001f0: 46ee 5ebd 1712 25bf 7495 9c3e 482f 71be
00000200: 020f 483e 3c57 e33d d952 a8be 786f acbe
00000210: a459 fbbc c8ec 803e c8a9 b0bd 1bf3 453d
00000220: e7d4 e83e 332d 253b 6638 a1bf 7e35 a33d
00000230: 1fe5 763c af33 0cbe 2b64 0bbf 3163 023f
00000240: 0794 d03e 6e01 613e 5dc3 813e 676f bb3e
00000250: 454a 9bbe a59c b73d cdc9 6abe 890a 8e3e
00000260: 0189 5d3e f02a adbe 504b 17bf 1a5e c63c
00000270: e94f 1abf 16ec f4bd 7331 8cbe 39cf 0a3e
00000280: 0495 73bd be75 933d a73e 47be 9412 8f3d
00000290: 9d92 c73d 122e d2bd 4d5e 45bf f633 02bf
000002a0: 558b f53e 224c 68bd af37 4dbd 44d8 78be
000002b0: 093e aebd e8b9 9c3e 452f 8a3e bd52 043f
000002c0: 7b61 cdbe e364 333f 8ce0 30be 007a a8bd
000002d0: 6821 34be 8e52 9abe 313e e1be de88 99be
000002e0: f918 8fbe d2c9 173f d452 9cbe a413 2abd
000002f0: a181 003f ab29 d53e d2c0 39bf 7339 043e
00000300: 60f6 273e 93f3 d33e f4f2 65bf 0217 933e
00000310: a353 263e 5ce1 a63d e79c b13d 88ab 0fbf
00000320: 36a6 ed3e 295a 81be 0601 acbe c039 2e3e
00000330: 8324 23be 01e0 943d bfa8 26be b7f5 4cbe
00000340: 94f3 543e 7f18 ef3d 91c0 bc3d 7ce6 e1bd
00000350: 5847 e13d ba30 47bf 1032 8c3d 5da6 3fbd
00000360: afa5 64bd 874b f43d 3b57 f7be f355 5cbe
00000370: 662a e9be 115a aabd 77e3 78bf 240b 283e
00000380: ee00 d6be 58dd 9f3e e305 0cbc 7789 47be
00000390: d1bf 15bd f274 4fbe b0f4 0fbf e022 c0be
000003a0: 2c3f be3e 0857 dc3d 75f7 243e bfe6 343e
000003b0: c52f 8c3e 3ce6 a4bd 65e8 7e3e 245e 95bc
000003c0: 87a8 d93d 4827 563e b6d2 263d 9dfc dfbd
000003d0: bae0 b8bc 9e78 843d a3bc 9ebe a3eb 81bf
000003e0: 4545 0c3e 9eaa 94be a3d3 d4be dd53 15bf
000003f0: f2c0 413f 5acb 423e cffd a9be 66e0 143b

net.4.bias f4 [64]
-0.029538421 0.10830512 0.0030422239 -0.1492026 0.13123088 0.08637681 0.21367547 0.11967821
0.033445586 -0.0069598095 0.19542365 -0.048489444 0.17347792 -0.04599483 -0.07505513 0.040983304
0.095538095 0.03503849 -0.253478 -0.21031372 -0.0045235357 -0.16350923 -0.074530534 -0.19638641
0.07679152 -0.00036971964 -0.049806174 -0.25695854 -0.0349641 -0.18537596 -0.021704901 0.027025769
0.22250123 -0.13004453 -0.010146909 -0.11186097 0.12630858 0.24022031 -0.05280436 0.10150043
-0.123837955 -0.09919991 0.056654587 -0.039515723 -0.032001745 0.23219444 -0.07929355 0.01238105
-0.14904732 -0.24302833 -0.23635449 -0.009673834 0.11615899 -0.07553607 -0.21182463 -0.15125069
-0.0004653816 0.20620555 0.19842961 -0.18606602 -0.08636081 -0.21820728 -0.15854555 -0.103434615
00000000: 8ffa f1bc 13cf dd3d 0c60 473b 91c8 18be
00000010: 6361 063e 53e6 b03d becd 5a3e d919 f53d
00000020: 3dfe 083d 1d0f e4bb 231d 483e de9c 46bd
00000030: 32a4 313e 1365 3cbd 81b6 99bd 1cde 273d
00000040: 7aa9 c33d 8584 0f3d dec7 81be 7b5c 57be
00000050: 2b3a 94bb f76e 27be 77a3 98bd 8519 49be
00000060: df44 9d3d eed6 c1b9 8f01 4cbd 1290 83be
00000070: 8436 0fbd 32d3 3dbe 7ace b1bc 2565 dd3c
00000080: 5dd7 633e 652a 05be 393f 26bc 5d17 e5bd
00000090: 0957 013e 50fc 753e 6249 58bd 75df cf3d
000000a0: c19e fdbd 5329 cbbd a40e 683d 3ddb 21bd
000000b0: 4314 03bd 61c4 6d3e a864 a2bd e3d9 4a3c
000000c0: dc9f 18be 6bdc 78be e906 72be 007f 1ebc
000000d0: c4e4 ed3d a8b2 9abd 8ee8 58be 76e1 1abe
000000e0: 76fe f3b9 8c27 533e 2231 4b3e 1788 3ebe
000000f0: f0dd b0bd bb71 5fbe c459 22be 87d5 d3bd

action_head.0.weight f4 [3, 64]
-0.12346965 -0.11811817 -0.33201632 0.006653014 -0.039828423 -0.010580719 0.016517539 -0.042781748
0.18657273 0.023518316 0.11926257 -0.08606042 0.086982444 0.18621103 -0.23645833 -0.17749694
-0.150686 0.035697598 0.30364308 0.010890864 0.11274148 0.09553132 -0.09905133 0.31377473
-0.019948443 -0.019441469 -0.04994027 -0.043218527 -0.14738473 -0.18500355 0.009979957 -0.19673054
-0.0033379868 0.14398071 0.072482064 0.14084311 -0.053128447 -0.12226944 0.025283698 0.2091824
0.18814225 -0.044236086 0.043404996 -0.2313894 0.035363197 0.36425507 -0.008180674 -0.19666335
0.024336698 -0.24647133 0.112265386 -0.036239605 -0.1362624 0.11522826 -0.19307195 -0.13696341
0.018621309 0.14899106 0.30732012 0.15409622 -0.0028404072 0.13276915 0.006178192 -0.30251634
-0.32082438 -0.029531145 -0.3658412 -0.05081145 0.18116456 -0.07797126 0.05854788 -0.026504453
-0.11568306 0.13904439 -0.31739703 0.048373953 -0.04731098 -0.008055025 -0.11439501 -0.06355607
0.12051636 0.11780159 0.50843006 -0.20449916 0.28961793 0.22818391 0.20292042 0.18066959
-0.18075289 -0.053740878 -0.1474686 0.11765495 -0.03466233 0.028679838 0.22909527 -0.30665904
0.2163455 -0.10928632 -0.01716299 -0.052318033 0.032004297 0.058073763 0.06474924 0.0033691507
0.11014444 -0.044481155 0.090835676 0.049103577 -0.015100572 0.31230456 0.0030334622 -0.1959264
-0.18191795 0.10246884 0.023592409 0.15478636 -0.11544943 0.009821431 -0.25852552 -0.11373956
0.13623498 0.043939646 -0.25028965 -0.32022527 -0.17317389 0.16343385 0.2283847 -0.29840592
-0.14614719 -0.08434864 -0.26910034 -0.21401347 0.024188513 0.14035249 0.1267776 0.11747851
0.016192418 0.048821997 -0.20904486 -0.117950246 -0.1389736 0.1410471 -0.24271204 -0.21329902
0.0038363666 0.3000797 0.137769 -0.04789449 0.045503277 0.15965606 0.044974886 -0.07157668
0.08118119 0.060608722 -0.11623496 -0.098813266 -0.13325804 0.08460665 0.12960838 -0.2655483
-0.015472512 -0.24723342 -0.010746587 0.3006278 -0.029384824 0.27505708 -0.034301363 -0.11984224
0.08286752 -0.10388913 0.1239313 -0.30905655 0.15399277 0.11729068 -0.0017202706 -0.2480975
-0.003270163 0.11282874 -0.057086498 0.10405797 -0.0663308 0.07494867 -0.23414285 -0.14710459
0.08647545 0.22134481 -0.15466504 0.20487374 -0.107999116 0.061911136 0.004012298 -0.10400172
00000000: a8dd fcbd f0e7 f1bd 0bfe a9be 8701 da3b
00000010: 2123 23bd c15a 2dbc ca4f 873c ea3b 2fbd
00000020: ec0c 3f3e 7ca9 c03c ef3f f43d 7240 b0bd
00000030: da23 b23d 1bae 3e3e 2222 72be c2c1 35be
00000040: 6e4d 1abe a537 123d 1b77 9b3e 986f 323c
00000050: 01e5 e63d eda5 c33d 6cdb cabd 15a7 a03e
00000060: eb6a a3bc b743 9fbc 2b8e 4cbd e905 31bd
00000070: 06ec 16be 9271 3dbe f982 233c bb73 49be
00000080: 20c2 5abb ae6f 133e 7a71 943d 2d39 103e
00000090: 379d 59bd 6668 fabd c21f cf3c e933 563e
000000a0: 5da8 403e e630 35bd 70c9 313d 58f1 6cbe
000000b0: 00d9 103d a47f ba3e 3c08 06bc 1e62 49be
000000c0: c15d c73c fb62 7cbe 65eb e53d fb6f 14bd
000000d0: 5f88 0bbe cbfc eb3d a7b4 45be 2340 0cbe
000000e0: b78b 983c 1d91 183e 1059 9d3e 66cb 1d3e
000000f0: 2026 3abb a3f4 073e 6e72 ca3b 6ce3 9abe
00000100: 1843 a4be 4deb f1bc 8a4f bbbe ab1f 50bd
00000110: 3483 393e 65af 9fbd e7cf 6f3d de1f d9bc
00000120: 3deb ecbd a761 0e3e dd81 a2be c423 463d
00000130: 28c9 41bd 39f9 03bc ee47 eabd af29 82bd
00000140: 48d1 f63d f641 f13d 7928 023f 3a68 51be
00000150: cd48 943e 0ba9 693e 5fca 4f3e 7301 393e
00000160: 4917 39be 651f 5cbd 0202 17be 14f5 f03d
00000170: 16fa 0dbd fbf1 ea3c f397 6a3e 6a02 9dbe
00000180: ad89 5d3e 82d1 dfbd 6699 8cbc 6f4b 56bd
00000190: f016 033d c1de 6d3d 409b 843d f8cc 5c3b
000001a0: 6893 e13d df31 36bd 0e08 ba3d d520 493d
000001b0: 6468 77bc 62e6 9f3e 0dcd 463b eea0 48be
000001c0: b348 3abe 2fdb d13d de44 c13c 5180 1e3e
000001d0: c070 ecbd 11ea 203c 755d 84be 49f0 e8bd
000001e0: 2f81 0b3e 0ffa 333d f725 80be 91f4 a3be
000001f0: 7f54 31be 345b 273e aedd 693e a9c8 98be
00000200: 9ca7 15be fbbe acbd 85c7 89be 5926 5bbe
00000210: fd26 c63c 90b8 0f3e fdd1 013e 9398 f03d
00000220: f6a5 843c 93f9 473d db0f 56be e68f f1bd
00000230: 184f 0ebe a76e 103e 8189 78be 0f6b 5abe
00000240: 8d6b 7b3b 0ca4 993e 5113 0d3e 032d 44bd
00000250: a561 3a3d e17c 233e 9637 383d cb96 92bd
00000260: 5342 a63d da40 783d 980c eebd 9c5e cabd
00000270: cc74 08be 4046 ad3d 0fb8 043e f2f5 87be
00000280: 6b80 7dbc c22a 7dbe 7412 30bc e3eb 993e
00000290: 71b8 f0bc 48d4 8c3e 967f 0cbd d96f f5bd
000002a0: 72b6 a93d d3c3 d4bd b2cf fd3d a93c 9ebe
000002b0: 48b0 1d3e 1936 f03d b47a e1ba 450d 7ebe
000002c0: 3b50 56bb c112 e73d 88d3 69bd 581c d53d
000002d0: 71d8 87bd b07e 993d 25c3 6fbe 96a2 16be
000002e0: 0a1a b13d 37a8 623e 8360 1ebe 6cca 513e
000002f0: a42e ddbd 8896 7d3d 9879 833b dbfe d4bd

action_head.0.bias f4 [3]
0.024726909 -0.035741366 0.08119896
00000000: 1690 ca3c 8a65 12bd a44b a63d

value_head.weight f4 [1, 64]
-14.35402 14.23392 -14.49031 -14.35287 14.383372 14.391298 14.225843 14.251337
-14.282446 -14.403551 14.278178 14.541388 14.463312 -14.208402 -14.326031 14.328342
14.522695 14.2225065 -14.230083 -14.355665 14.231189 14.334475 14.107599 -14.294949
-14.412542 14.210753 14.25593 -13.965916 14.421181 -14.373411 -14.352264 -14.259483
14.210759 -14.198339 14.308964 14.308889 -14.200149 14.470701 -14.29596 14.369614
14.303983 14.203476 14.235396 -14.430301 -14.452242 14.539872 -14.269533 14.273463
-14.704223 -14.268859 -14.688598 -14.22933 14.365828 14.238956 -14.499639 -14.5520935
-14.4937525 14.201311 14.459902 -14.402559 -14.278852 -14.32507 -14.55088 -14.467483
00000000: 11aa 65c1 23be 6341 4fd8 67c1 5ba5 65c1
00000010: 4b22 6641 c242 6641 0e9d 6341 7a05 6441
00000020: e684 64c1 f274 66c1 6b73 6441 86a9 6841
00000030: ba69 6741 9d55 63c1 6c37 65c1 e440 6541
00000040: f55c 6841 638f 6341 6cae 63c1 ceb0 65c1
00000050: f3b2 6341 025a 6541 bab8 6141 1cb8 64c1
00000060: c699 66c1 3f5f 6341 4a18 6441 6474 5fc1
00000070: 28bd 6641 7ef9 65c1 e0a2 65c1 d826 64c1
00000080: 455f 6341 662c 63c1 84f1 6441 36f1 6441
00000090: cf33 63c1 fe87 6741 41bc 64c1 f0e9 6541
000000a0: 1ddd 6441 7041 6341 2fc4 6341 83e2 66c1
000000b0: 623c 67c1 51a3 6841 0250 64c1 1b60 6441
000000c0: 7f44 6bc1 3f4d 64c1 7f04 6bc1 56ab 63c1
000000d0: 6eda 6541 c4d2 6341 85fe 67c1 60d5 68c1
000000e0: 69e6 67c1 9238 6341 c25b 6741 e270 66c1
000000f0: 2e76 64c1 7d33 65c1 68d0 68c1 cf7a 67c1

net.0.weight f4 [64, 3]
-0.7159749 -0.25410396 0.24617055 -0.2205954 0.5719117 0.26989758 -0.78035814 0.25793707
-0.058464035 -0.3731923 0.58096284 0.30819952 0.07910125 0.831156 0.19954492 -0.04496466
0.16962487 0.09743829 0.05376714 -0.01888681 0.6930766 -1.4793069 0.073284306 -0.55398434
0.41274038 0.5935463 -0.03809473 -0.446249 -0.88159406 -0.0075058388 0.7699316 1.2229509
-0.23747686 0.1632951 -0.12078166 -0.41724673 -0.3777282 0.23298787 0.35885575 0.20511857
0.20107259 -0.33638152 -0.37282875 -0.08239668 0.19484027 0.08469707 0.08255522 0.29601327
-0.14304408 -0.0054248064 0.36658165 0.028205337 0.63938016 0.25395578 0.36300457 0.38518518
0.14622718 0.19714594 0.0827534 0.3614354 -0.103453234 -0.09713623 0.34848565 0.20059983
0.015763925 0.19582975 -1.0996708 -0.29379797 -0.028788604 0.39640257 -0.33981347 -0.29936904
-0.2505569 -0.64869964 0.021659005 0.310309 -0.35528982 0.23693949 -0.3388308 -0.73836493
0.1118421 -0.2703829 0.5361918 0.031607952 -0.61907876 -0.09942748 -0.12713638 -0.11353954
-0.3897623 0.08960854 -0.4480335 0.2970908 0.35003003 -0.03655025 -0.73675513 -0.30473393
0.03898108 -0.09496816 0.34103122 -0.46231925 -0.061644927 -0.35019958 -0.22282246 -0.3408824
0.47276717 -0.84139186 0.12168312 -0.04445429 -0.22919591 -1.286255 -0.19162157 0.22735497
0.40559575 -0.07817449 0.019342776 -0.24731581 1.1632541 0.16752397 0.44943017 0.07968402
-0.21250531 0.5426459 0.21809712 -0.1181462 -0.32522252 0.118330255 -0.29862565 -1.4571317
-0.07389114 0.23262 -0.04645333 1.5802644 -0.059145633 -0.0886798 0.3810817 -0.26351812
-0.6749973 -0.017885808 -0.47386494 -0.31335664 -0.32529622 -0.22696148 0.6144907 0.23324542
-0.20980957 -0.9264169 0.028401729 -0.090933 -0.63314426 0.031233288 0.399045 0.6473568
-0.48232695 0.13090172 0.032283973 0.03027603 -0.035559073 0.78472275 0.34459358 -0.39829957
-0.2744439 0.05248904 -0.37852234 0.0677639 0.12968 0.014759619 0.087285705 0.7539721
0.25817937 -0.06717468 -0.66270876 0.131165 -0.3020499 -0.7676395 0.5921887 -0.264866
0.12555254 -0.5758484 0.22315644 0.10142501 0.2548981 -0.07694201 -0.0458596 0.019276012
0.035904426 1.5474749 0.2430328 0.7542895 -0.036020104 0.04006947 -0.4736254 0.1966471
00000000: 224a 37bf ea19 82be 2214 7c3e c3e3 61be
00000010: ce68 123f 0430 8a3e 8dc5 47bf 5410 843e
00000020: fc77 6fbd 1013 bfbe fbb9 143f 54cc 9d3e
00000030: d6ff a13d a4c6 543f 8155 4c3e dd2c 38bd
00000040: 24b2 2d3e ba8d c73d ef3a 5c3d 83b8 9abc
00000050: 786d 313f ee59 bdbf 1516 963d ebd1 0dbf
00000060: b552 d33e a6f2 173f 3809 1cbd c07a e4be
00000070: 26b0 61bf 8af3 f5bb 3d1a 453f a889 9c3f
00000080: 222d 73be d536 273e 605c f7bd 5da1 d5be
00000090: 9765 c1be 5f94 6e3e f1bb b73e 9a0a 523e
000000a0: f9e5 4d3e 333a acbe 69e3 bebe 97bf a8bd
000000b0: 3584 473e a875 ad3d b612 a93d 0d8f 973e
000000c0: 267a 12be 93c2 b1bb 97b0 bb3e e10e e73c
000000d0: 6bae 233f 7e06 823e bcdb b93e fe36 c53e
000000e0: 94bc 153e a0e0 493e 9d7a a93d 100e b93e
000000f0: 4adf d3bd 5cef c6bd b66c b23e 0b6a 4d3e
00000100: 5923 813c 9887 483e 03c2 8cbf b06c 96be
00000110: 14d6 ebbc 47f5 ca3e 08fc adbe e646 99be
00000120: fe48 80be 2e11 26bf 3a6e b13c d2e0 9e3e
00000130: 8ce8 b5be 44a0 723e 3b7b adbe 7c05 3dbf
00000140: 790d e53d a16f 8abe de43 093f 5777 013d
00000150: f27b 1ebf a2a0 cbbd 0a30 02be 6b87 e8bd
00000160: ed8e c7be af84 b73d a664 e5be 491c 983e
00000170: 2337 b33e b7b5 15bd fc9b 3cbf 1606 9cbe
00000180: a0aa 1f3d ab7e c2bd a59b ae3e 1cb5 ecbe
00000190: 647f 7cbd 5c4d b3be 922b 64be 2388 aebe
000001a0: 8a0e f23e 7565 57bf 0035 f93d b415 36bd
000001b0: 55b2 6abe 01a4 a4bf 7238 44be becf 683e
000001c0: 3faa cf3e f219 a0bd be74 9e3c 5b40 7dbe
000001d0: 83e5 943f 678b 2b3e b61b e63e 6031 a33d
000001e0: fe9a 59be d7ea 0a3f da54 5f3e a3f6 f1bd
000001f0: 9183 a6be 2257 f23d 76e5 98be 4b83 babf
00000200: 3d54 97bd f033 6e3e d945 3ebd 1b46 ca3f
00000210: b142 72bd c19d b5bd 241d c33e d9eb 86be
00000220: a0cc 2cbf 4285 92bc 6d9e f2be 4870 a0be
00000230: 3a8d a6be 9768 68be 434f 1d3f e3d7 6e3e
00000240: 52d8 56be a829 6dbf beaa e83c 153b babd
00000250: be15 22bf f4dc ff3c a04f cc3e 2db9 253f
00000260: 8ff3 f6be 1a0b 063e 333c 043d 7005 f83c
00000270: 64a6 11bd 97e3 483f 926e b03e eced cbbe
00000280: e983 8cbe bffe 563d aecd c1be cdc7 8a3d
00000290: d5ca 043e 54d2 713c d9c2 b23d 5104 413f
000002a0: 1630 843e e192 89bd 48a7 29bf 1e50 063e
000002b0: 49a6 9abe 0684 44bf ae99 173f 849c 87be
000002c0: d890 003e cd6a 13bf 1f83 643e eab7 cf3d
000002d0: 0182 823e c693 9dbd 47d7 3bbd bae8 9d3c
000002e0: 8510 133d a813 c63f 97dd 783e 1e19 413f
000002f0: d189 13bd e21f 243d 077f f2be db5d 493e

net.0.bias f4 [64]
-0.3152322 -0.19743964 -0.2936111 -0.338858 0.48772374 0.13443248 0.1627166 0.00274891
0.29020283 -0.23988959 0.2702006 -0.1882564 -0.18391761 -0.20543103 -0.20516255 0.17409755
-0.22322202 0.20202556 0.26720303 0.27650592 -0.2238833 0.21158046 -0.20254388 -0.13168602
-0.39344922 0.432092 -0.18441072 0.24875921 -0.4132143 -0.040655628 -0.19604912 -0.40937862
0.21793753 -0.24073485 -0.058790226 -0.30395687 -0.34263253 0.24513952 0.33599928 0.44275537
0.24571162 -0.20310822 -0.24378799 0.39661774 0.15935013 -0.24711448 -0.2474178 -0.43393636
-0.292168 -0.27299756 0.15019646 -0.17674288 0.15517303 -0.23944348 0.186711 0.16065472
0.023817351 -0.11258928 0.29298344 0.20748463 0.3199473 0.1960494 0.22659715 -0.135826
00000000: 1d66 a1be 9e2d 4abe 3254 96be cc7e adbe
00000010: edb6 f93e aba8 093e 2e9f 263e 0f27 343b
00000020: 7795 943e 9ea5 75be bc57 8a3e 49c6 40be
00000030: e654 3cbe 835c 52be 2216 52be a146 323e
00000040: 5094 64be cadf 4e3e d6ce 883e 2f92 8d3e
00000050: aa41 65be 8ca8 583e aa67 4fbe b3d8 06be
00000060: 2d72 c9be 2a3b dd3e 2ad6 3cbe bcba 7e3e
00000070: d390 d3be 8486 26bd 1ac1 48be 139a d1be
00000080: 042b 5f3e 3283 76be 05ce 70bd 3ca0 9bbe
00000090: 886d afbe db05 7b3e 1908 ac3e d5b0 e23e
000000a0: d49b 7b3e 9afb 4fbe 8fa3 79be 7b11 cb3e
000000b0: ae2c 233e 940b 7dbe 175b 7dbe e82c debe
000000c0: 0b97 95be 56c6 8bbe 1acd 193e 16fc 34be
000000d0: aee5 1e3e ac30 75be 2b31 3f3e ac82 243e
000000e0: 9b1c c33c 3595 e6bd ed01 963e da76 543e
000000f0: 22d0 a33e 2dc1 483e 1509 683e f915 0bbe

net.2.weight f4 [32, 64]
-0.35261795 0.40693042 0.12668775 0.7124724 0.95884454 0.72230196 0.61957353 0.3681261
0.13736542 -0.2016958 0.41301546 -0.98644036 0.037112333 -0.38803628 0.0562887 0.2499337
-0.5272592 0.53621745 0.44079965 0.316627 -0.2611421 0.00023979828 0.087236114 -0.84126097
-0.33550003 0.30607882 -0.397731 0.47320208 -0.061741464 -0.10618924 -0.29343337 -1.3024753
0.5909288 -0.11659268 -0.10504195 0.19952776 -0.63834876 0.07260567 0.5469035 0.10563142
0.48529887 -0.42856535 -0.3680348 0.1253431 0.38781422 -0.10284365 -0.11889926 0.50743324
-0.5249089 -0.62664676 0.24074236 -0.15282787 0.7037414 0.2638147 0.50302327 0.7699784
-0.47227815 -0.80911505 0.13856474 0.1967539 0.6069973 0.67838097 0.33717525 -0.58706754
0.038806822 -1.0145662 0.3410673 -0.13548097 -0.5628523 -0.3302992 -0.20230682 -0.22531518
-0.6692825 0.2353751 -0.15769781 0.14848727 -0.57806486 0.2816713 -0.06957199 -0.28891346
0.049652655 -0.25008065 -0.06918599 0.29794133 0.2791517 0.13864997 0.3841737 0.7055466
0.34086093 -0.20824885 0.34677738 -0.44430602 0.057285525 -0.4385567 -0.7960522 0.69965994
-0.09929829 -0.096486606 0.56736887 0.17640096 0.47840825 -0.8547792 -0.2387141 -0.035393376
-0.8032405 0.6875729 1.1012882 -0.0944951 -0.011168971 0.35274836 0.16241314 -0.47520852
0.57069033 0.7023964 -0.4377089 0.07459232 -0.4529046 0.060612764 -0.2394434 -0.17418571
0.0039855754 -0.34611937 0.38680777 -0.30571434 0.0872062 0.29486972 -0.031058365 0.2924719
-0.34273875 0.37936947 -0.22257909 0.0722095 0.92259055 0.09468711 -0.22279906 -0.0036285499
1.8031849 -1.0594674 0.8244277 -0.03364667 0.40759763 0.2465401 -0.35138136 -0.09531323
-0.31302485 0.267491 0.17129277 -0.44347057 -0.58511174 -0.44178528 -0.24542747 -0.055027597
-0.5530788 -0.6263312 -0.8530542 0.29396585 -0.3995551 -0.9658828 0.34414726 -0.4662339
-0.066835 0.17631951 -0.6224484 -0.12755637 -0.1824975 0.78851265 -0.26794222 -0.04046262
0.42317405 -0.30152366 -1.0545434 -0.21972379 0.044719793 -0.94335675 -0.03095174 0.5242173
-1.1856375 -0.55094403 0.48786968 -0.031538554 0.13593575 -0.32738984 0.10335472 -0.11810534
0.17663887 -0.19170846 -0.23679152 -0.15632448 -0.042545646 -0.4803723 0.99538225 -0.802404
-0.597109 -0.6158409 -0.113747366 -0.39178097 -0.0017088505 0.0015758761 0.28542745 -0.16051467
-0.10514521 0.051243898 0.1020598 -0.14326198 0.010605151 -0.07689394 0.1318821 0.1518551
-0.3022391 0.19724482 0.018482765 -0.052841846 -0.24762017 0.07717533 -0.47719884 0.09913254
0.44170937 0.51807576 0.15190151 -0.53194636 -0.44009405 0.06808877 -0.18606184 -0.05720654
0.16096748 0.0033872025 -0.08244917 -0.46852258 0.19978325 -0.0817166 -0.08761536 -0.060231388
0.17079471 0.21468736 -0.15279467 0.5729937 0.26590854 0.045713082 -0.42872924 -0.36406064
-0.13798977 0.03001751 -0.31709495 -0.2550057 -0.13038453 -0.19634753 0.2679047 0.049984958
0.28235802 -0.13323684 0.2039544 0.10787575 0.6624518 0.03689054 -0.17638488 0.38631198
00000000: 578a b4be 2f59 d03e 6fba 013e 9764 363f
00000010: d676 753f c8e8 383f 5f9c 1e3f 067b bc3e
00000020: 85a9 0c3e 5889 4ebe c376 d33e 5b87 7cbf
00000030: 1a03 183d b1ac c6be fb8e 663d 9fee 7f3e
00000040: 75fa 06bf 8c45 093f 7eb0 e13e ef1c a23e
00000050: 6bb4 85be 5c72 7b39 d9a8 b23d e15c 57bf
00000060: a9c6 abbe 5db6 9c3e 66a3 cbbe 8b47 f23e
00000070: 9ee4 7cbd bf79 d9bd e63c 96be 83b7 a6bf
00000080: 1c47 173f 25c8 eebd 3c20 d7bd 0151 4c3e
00000090: d36a 23bf 48b2 943d de01 0c3f 4955 d83d
000000a0: 1879 f83e eb6c dbbe 0f6f bcbe f159 003e
000000b0: 968f c63e b19f d2bd 7581 f3bd 25e7 013f
000000c0: 6e60 06bf ec6b 20bf 2a85 763e e97e 1cbe
000000d0: 6528 343f b812 873e 22c6 003f 4e1d 453f
000000e0: 71ce f1be 2a22 4fbf eae3 0d3e db79 493e
000000f0: 2d64 1b3f 60aa 2d3f 3ca2 ac3e 0f4a 16bf
00000100: e7f3 1e3d 4edd 81bf 60a0 ae3e 86bb 0abe
00000110: 1717 10bf fa1c a9be 8529 4fbe 06b9 66be
00000120: 1956 2bbf 2c06 713e 897b 21be 0c0d 183e
00000130: 0ffc 13bf 3837 903e c27b 8ebd 77ec 93be
00000140: 9560 4b3d 920a 80be 62b1 8dbd c48b 983e
00000150: f9ec 8e3e 42fa 0d3e 6ab2 c43e b49e 343f
00000160: 5385 ae3e 303f 55be ce8c b13e 147c e3be
00000170: 3aa4 6a3d 818a e0be 14ca 4bbf ea1c 333f
00000180: e75c cbbd c59a c5bd 163f 113f 74a2 343e
00000190: edf1 f43e cfd2 5abf 7871 74be a5f8 10bd
000001a0: 2ba1 4dbf c704 303f 03f7 8c3f a686 c1bd
000001b0: 0ffe 36bc 6f9b b43e a14f 263e 884e f3be
000001c0: c318 123f 40d0 333f 621b e0be dcc3 983d
000001d0: 1de3 e7be 1745 783d a730 75be bd5d 32be
000001e0: 6e99 823b 8f36 b1be ab0b c63e 9786 9cbe
000001f0: 2a99 b23d 2af9 963e 1d6e febc e0be 953e
00000200: 747b afbe b73c c23e c6eb 63be 93e2 933d
00000210: e52e 6c3f 51eb c13d 7025 64be f7cc 6dbb
00000220: c3ce e63f a19c 87bf b20d 533f 17d1 09bd
00000230: a3b0 d03e 0275 7c3e 42e8 b3be 9533 c3bd
00000240: cb44 a0be 95f4 883e 5f67 2f3e 930e e3be
00000250: e2c9 15bf ae31 e2be 5751 7bbe 9e64 61bd
00000260: 9296 0dbf 3e57 20bf c361 5abf b182 963e
00000270: 7c92 ccbe 1844 77bf 1234 b03e 36b6 eebe
00000280: cae0 88bd 1a8d 343e c758 1fbf 239e 02be
00000290: a0e0 3abe f7db 493f b92f 89be 22bc 25bd
000002a0: 45aa d83e 4f61 9abe 47fb 86bf 46ff 60be
000002b0: 1a2c 373d d47f 71bf 818e fdbc 1b33 063f
000002c0: f8c2 97bf ab0a 0dbf 0eca f93e 922e 01bd
000002d0: be32 0b3e a49f a7be a4ab d33d 36e1 f1bd
000002e0: d2e0 343e 394f 44be 7a79 72be 8613 20be
000002f0: 5844 2ebd 5cf3 f5be 5fd1 7e3f 596a 4dbf
00000300: 23dc 18bf c0a7 1dbf 61f4 e8bd 8497 c8be
00000310: 82fb dfba a18d ce3a 8c23 923e f55d 24be
00000320: 5f56 d7bd 1fe5 513d ba04 d13d 45b3 12be
00000330: 3ac1 2d3c 927a 9dbd 1a0c 073e e77f 1b3e
00000340: 15bf 9abe 8cfa 493e 2b69 973c b170 58bd
00000350: 2490 7dbe 190e 9e3d 6853 f4be 0006 cb3d
00000360: bb27 e23e 9da0 043f 128c 1b3e a32d 08bf
00000370: 0254 e1be 2072 8b3d ff86 3ebe 6851 6abd
00000380: a9d4 243e d4fb 5d3b 1cdb a8bd 31e2 efbe
00000390: fb93 4c3e 085b a7bd af6f b3bd 30b5 76bd
000003a0: cfe4 2e3e 01d7 5b3e 3576 1cbe b7af 123f
000003b0: 2a25 883e a43d 3b3d 6682 dbbe 2866 babe
000003c0: 314d 0dbe 48e7 f53c 455a a2be 1b90 82be
000003d0: 8683 05be 540f 49be ce2a 893e 07bd 4c3d
000003e0: 3b91 903e 3d6f 08be 6cd9 503e f6ed dc3d
000003f0: 7196 293f 891a 173d 3d9e 34be afca c53e

net.2.bias f4 [32]
0.16774136 -0.12152027 0.009951223 0.10643324 0.23680848 0.11948126 -0.10766111 -0.037714478
0.21119653 0.17414944 0.22782505 0.10200937 -0.1187319 0.26526594 -0.09144379 0.12984493
-0.2738056 -0.15138996 -0.00040094 -0.19497995 0.30203646 0.13844588 -0.0137661975 -0.15163983
0.10020393 -0.0704881 0.12673 0.15376851 0.18014295 0.24089092 -0.30202675 0.26550812
00000000: 64c4 2b3e 9fdf f8bd 740a 233c acf9 d93d
00000010: ec7d 723e 97b2 f43d 6e7d dcbd 7f7a 1abd
00000020: e743 583e 3b54 323e f84a 693e 4aea d03d
00000030: b629 f3bd f0d0 873e e246 bbbd 12f6 043e
00000040: 3f30 8cbe f805 1bbe 4235 d2b9 d3a8 47be
00000050: 86a4 9a3e c2c4 0d3e 9e8b 61bc 7947 1bbe
00000060: b837 cd3d 115c 90bd 82c5 013e 7e75 1d3e
00000070: 6577 383e 1cac 763e 40a3 9abe aef0 873e

net.4.weight f4 [8, 32]
-0.322567 1.2828007 -0.5064089 0.15338153 -0.5397457 -0.22303186 -0.08550999 0.5230495
-0.35693726 -0.19920717 -0.5544364 -1.2118582 1.5403036 0.10373113 -0.8021969 0.2349
-0.20160429 0.163651 0.30941692 0.4865026 0.25238764 -0.15905343 -0.11655274 0.38949215
0.8539918 0.40372342 -0.04576555 -0.28742248 -0.71413344 -0.09605133 0.2299488 0.16846055
-0.7455937 0.44691554 -0.5309862 -1.3090101 -0.4014857 -0.73996854 1.1555777 0.4709207
-0.46163502 -0.7621073 -0.25301683 -0.0373227 0.15646642 -0.46820134 -0.32027233 -0.07419812
0.36339772 1.7413583 -0.45140332 -0.10211858 -0.29069546 -0.5975854 0.24344935 0.122280486
0.45527264 0.72358996 -0.68954676 -0.52494985 0.38654783 0.0052140737 0.11691816 -0.31118634
-0.06499051 0.27135572 -0.44498673 0.08475787 -0.3929412 -0.7077053 0.37335432 0.20788665
-0.7494635 -1.2183527 -0.3700776 0.16666749 0.16390252 -0.37195635 -0.030977555 0.24976043
0.5427854 1.1030729 -0.3326136 0.44524977 -0.5809602 -0.0077708066 0.23490377 0.48524016
0.028656308 0.14481112 -1.0518367 -0.14180796 -0.3418522 -0.26597038 0.85825133 -0.30623838
-0.023273112 -0.023771489 0.5485485 0.53963125 1.5919191 0.8827914 -0.42927778 -0.46442837
0.09593187 -0.3951424 0.058332812 0.13146953 -0.18535407 0.4355083 0.5649326 -0.4594291
-1.182738 -0.37410435 -0.41351405 -0.030977521 0.6961471 -0.06532271 0.7443241 -0.18032461
-0.77935475 0.25373247 0.4372757 0.529328 0.3200851 0.2225675 -0.12380872 0.77263546
0.08103084 0.82530737 -2.0520208 -0.27705964 -0.19378039 -0.28498355 0.5781564 0.3377959
-0.17410319 -0.33507383 -0.47901288 -1.3553989 1.4316361 0.7660274 0.19202554 0.2792493
-0.23127921 0.2464928 0.3693823 0.5660655 0.18197736 -0.56302834 0.638914 0.4645505
1.6038246 0.046044786 -0.14293809 0.38472638 -0.36101767 -0.2729227 0.13567394 -0.11652635
0.018464962 0.0032599918 -0.629617 -0.6310543 -1.3409874 -0.68408734 0.6422256 -0.28732345
-0.8479307 -0.77179277 -0.49783567 -0.21131916 0.44586855 -0.6436559 -0.93036354 0.37479582
0.74968326 -0.5324621 0.5975918 -0.1264877 -0.60738474 -0.4315997 -0.2831229 0.302834
0.26669684 -0.26202142 0.08982997 -0.8476314 -0.10359775 -0.51913786 0.5817631 -0.45626
-0.6449513 -0.08098136 -0.6681906 -0.34497863 -0.3873161 -0.19292377 1.0785289 -0.025523184
-0.67353046 -0.48305258 -0.35959736 -0.67243755 0.23701108 -0.11172792 -0.5367645 0.4213737
-0.20002668 0.58147985 -0.21481031 0.8085465 -0.115964726 -0.520277 -0.5559733 0.09523835
0.18456891 0.68858844 -0.45638314 -0.9256638 -0.45603254 -0.58728325 -0.07192514 -0.5710141
-0.98976594 0.08396656 -0.59884375 0.27590284 -0.989754 -0.23321813 0.5178283 0.45866948
-0.1574393 0.22421229 -0.4518681 -0.23927839 0.588199 -0.79207116 -0.78834826 0.47727993
0.63587755 -0.1503619 0.80385756 0.4035869 -0.8918237 -0.065221556 -0.9804204 0.2353312
1.208065 0.12903859 0.14273313 0.08189384 -0.14828716 -0.23942474 1.2094836 -0.58667976
00000000: 8027 a5be d032 a43f 03a4 01bf 0c10 1d3e
00000010: c62c 0abf 7762 64be dd1f afbd 92e6 053f
00000020: 7bc0 b6be f7fc 4bbe 8bef 0dbf 2b1e 9bbf
00000030: ab28 c53f fd70 d43d c75c 4dbf a089 703e
00000040: 5b71 4ebe 2194 273e e56b 9e3e de16 f93e
00000050: f438 813e e7de 22be 34b3 eebd 846b c73e
00000060: 359f 5a3f d6b4 ce3e a874 3bbd 0a29 93be
00000070: 73d1 36bf 8fb6 c4bd b377 6b3e ec80 2c3e
00000080: 3bdf 3ebf 1dd2 e43e b6ee 07bf a58d a7bf
00000090: 898f cdbe 946e 3dbf f8e9 933f 851c f13e
000000a0: 6d5b ecbe 7719 43bf 6c8b 81be b0df 18bd
000000b0: bc38 203e 16b8 efbe bcfa a3be 2ff5 97bd
000000c0: 440f ba3e d4e4 de3f 561e e7be 8c23 d1bd
000000d0: 09d6 94be 5bfb 18bf c94a 793e 316e fa3d
000000e0: 7f19 e93e 313d 393f 2386 30bf 1d63 06bf
000000f0: 99e9 c53e d2da aa3b ca72 ef3d d153 9fbe
00000100: bf19 85bd 23ef 8a3e 4dd5 e3be 8995 ad3d
00000110: 972f c9be 2d2c 35bf 4c28 bf3e 3de0 543e
00000120: d7dc 3fbf fbf2 9bbf d07a bdbe e2aa 2a3e
00000130: 10d6 273e 1071 bebe a4c4 fdbc 33c1 7f3e
00000140: fcf3 0a3f 7e31 8d3f 544c aabe c7f7 e33e
00000150: cfb9 14bf 40a2 febb 9d8a 703e 6671 f83e
00000160: a2c0 ea3c 5e49 143e 96a2 86bf 1b36 11be
00000170: 4007 afbe 452d 88be 5cb6 5b3f 47cb 9cbe
00000180: 41a7 bebc 6dbc c2bc ad6d 0c3f 4625 0a3f
00000190: 01c4 cb3f 9efe 613f 4cca dbbe 8ec9 edbe
000001a0: ee77 c43d 1b50 cabe 63ee 6e3d f39f 063e
000001b0: 75cd 3dbe f2fa de3e 6c9f 103f 4a3a ebbe
000001c0: f563 97bf 9b8a bfbe 1db8 d3be 92c4 fdbc
000001d0: b236 323f eac7 85bd 068c 3e3f 04a7 38be
000001e0: cb83 47bf 39e9 813e 9ae2 df3e 0a82 073f
000001f0: 32e2 a33e bce8 633e 6d8f fdbd 70cb 453f
00000200: 7ff3 a53d 5847 533f 4f54 03c0 c3da 8dbe
00000210: 5e6e 46be 5de9 91be 0f02 143f 96f3 ac3e
00000220: 1b48 32be cc8e abbe 2d41 f5be b67d adbf
00000230: da3f b73f 5f1a 443f 58a2 443e c4f9 8e3e
00000240: 75d4 6cbe 9c68 7c3e ad1f bd3e abe9 103f
00000250: 4658 3a3e a022 10bf de8f 233f 90d9 ed3e
00000260: 204a cd3f 7599 3c3d 5d5e 12be dbfa c43e
00000270: 4fd7 b8be 86bc 8bbe 1cee 0a3e 5ea5 eebd
00000280: d543 973c 96a5 553b 942e 21bf c68c 21bf
00000290: 7aa5 abbf 5920 2fbf e668 243f 0f1c 93be
000002a0: fd11 59bf 3694 45bf 51e4 febe 0d64 58be
000002b0: e248 e43e a2c6 24bf 4e2c 6ebf 3de5 bf3e
000002c0: 3eeb 3f3f 704f 08bf c7fb 183f fe85 01be
000002d0: 917d 1bbf a3fa dcbe 7cf5 90be 0f0d 9b3e
000002e0: 7d8c 883e ac27 86be c6f8 b73d 5ffe 58bf
000002f0: 0f2b d4bd 38e6 04bf 6dee 143f e99a e9be
00000300: 871b 25bf 8ed9 a5bd 8a0e 2bbf 0aa1 b0be
00000310: 4c4e c6be cf8d 45be 3c0d 8a3f ff15 d1bc
00000320: 7e6c 2cbf ab52 f7be 251d b8be de24 2cbf
00000330: 08b3 723e 9cd1 e4bd 6669 09bf 4bbe d73e
00000340: cbd3 4cbe dddb 143f 3cf7 5bbe e7fc 4e3f
00000350: ea7e edbd e030 05bf 4454 0ebf 530c c33d
00000360: a2ff 3c3e 5547 303f 0dab e9be 4ef8 6cbf
00000370: 197d e9be 3258 16bf 7d4d 93bd fb2d 12bf
00000380: 4d61 7dbf a9f6 ab3d d34d 19bf 2343 8d3e
00000390: 8560 7dbf bcd0 6ebe 6590 043f bad6 ea3e
000003a0: c537 21be e897 653e 415b e7be 6505 75be
000003b0: 3694 163f 2dc5 4abf 31d1 49bf 095e f43e
000003c0: dfc8 223f 78f8 19be 9cc9 4d3f f1a2 ce3e
000003d0: 8f4e 64bf e192 85bd d5fc 7abf a9fa 703e
000003e0: e0a1 9a3f b122 043e a228 123e f5b7 a73d
000003f0: 97d8 17be c22b 75be 5cd0 9a3f a530 16bf
