auto-iss-demo/orientation_agent/weights/orientation_net_500K.pt (torch, 68335 bytes, 16 tensors)

net.0.weight f4 [128, 3]
000000 47 ac 95 3e d7 52 1d bd 32 7f 90 3d 4b 2a 3d be
       0.29233 -0.03840908 0.070555106 -0.18473165
000010 a2 af a1 be 46 b2 59 3e 98 59 f1 3e 68 d2 00 3f
       -0.3157931 0.21259412 0.47138667 0.50321054
000020 c3 6d 05 3e 2b fe 0c 3e 40 35 68 3e c7 0b 99 3e
       0.13030152 0.13768832 0.22676563 0.29891798
000030 b8 30 0c 41 6d 5c 9b be 7e 08 b5 3f d5 5b aa bd
       8.761894 -0.30343953 1.4143217 -0.08318297
000040 fb 87 27 3e 65 4b 0c 3f e8 65 1d c0 d3 09 38 bf
       0.16360466 0.5480254 -2.4593449 -0.7188999
000050 31 13 16 bf aa dd 9d be 17 29 1b bf 67 e3 22 3e
       -0.58623034 -0.3083318 -0.60609573 0.1590706
000060 75 66 19 3f d9 a5 11 3e c9 b7 56 3e 77 fc 8a 3e
       0.5992196 0.14223422 0.20968546 0.2714574
000070 30 90 16 3f 97 41 cf 3d e5 d1 a0 3d 43 9f f3 3e
       0.5881376 0.10119932 0.07852534 0.47582445
000080 4c 1e a5 bd 75 aa 14 be cd 33 cf be 7d 32 bf bd
       -0.08062419 -0.14518149 -0.40469208 -0.09335802
000090 5a 75 1b bf 2d 5c 14 c0 71 f9 d5 bd 2d 98 79 bf
       -0.6072594 -2.318126 -0.10447968 -0.97497827
0000a0 82 94 eb be cb ae 0e bf 1e e8 bc 3c 69 fd a7 3e
       -0.4601174 -0.5573546 0.0230599 0.32810524
0000b0 9a 63 81 3e 43 b4 60 be 7a 44 62 be 6a 3f 6f bd
       0.25271302 -0.21943764 -0.22096434 -0.058410086
0000c0 d2 3f 0a be 8f 97 82 be 0c 16 48 be a6 29 29 3e
       -0.13500908 -0.25506255 -0.1953966 0.16519794
0000d0 2a 7b 58 3e f7 b5 5e 3d 98 51 82 3e 41 3f 62 3d
       0.21140733 0.054372754 0.25452876 0.055236105
0000e0 56 59 b8 3e 28 3c 6a be 5b 27 d4 be 73 91 a8 be
       0.36005658 -0.2287451 -0.41436276 -0.3292347
0000f0 ca dc 16 be 00 33 c1 bc 71 01 d0 bd 76 3d 9a bf
       -0.14732662 -0.023583889 -0.10156525 -1.2050006
000100 c5 bf af 3e b2 44 93 c0 c1 35 3b 41 52 ee f1 3e
       0.34325996 -4.6021357 11.7006235 0.47252136
000110 f4 29 5d 3f fd da a5 3d b7 e3 a3 3d 33 f7 47 be
       0.8639214 0.08098409 0.080024175 -0.19527893
000120 85 1e c6 3d b3 9f 0a be 14 db 38 bd 5d 29 64 3e
       0.0967379 -0.13537483 -0.045130804 0.22281404
000130 31 d0 99 be c3 cb 1c bf 8c 33 7a 3d cf 96 83 3e
       -0.3004165 -0.61248416 0.061084315 0.25700995
000140 81 a3 ea bd b1 c5 ef be d4 1e 87 be 96 3d 1e bd
       -0.11456967 -0.46830514 -0.26390707 -0.03863295
000150 31 e5 92 be 88 60 8b be f1 e8 fc bd 5d a3 e6 3a
       -0.28690484 -0.27222085 -0.123491175 0.0017596293
000160 13 5c e8 3d cb bd 89 bd f9 76 a5 bd 47 36 2b bd
       0.11345687 -0.06725653 -0.08079333 -0.04179981
000170 a7 20 a9 bd 60 fc f5 3e d4 f0 41 3f 1c 8f 24 3e
       -0.08258181 0.4804411 0.757581 0.16070217
000180 d6 55 4a 3d 5b 17 bf bc a0 3e 8b 3c 6c 74 d2 bd
       0.049398266 -0.023326566 0.016997635 -0.10276112
000190 bf 56 87 be d6 28 f8 bd 99 26 bd bd ac 83 0c bd
       -0.2643337 -0.12117164 -0.092358775 -0.03430526
0001a0 c3 dd 1b 3d c5 3c c9 3e 91 22 90 bd 9d 14 a0 bc
       0.038053285 0.39304176 -0.07037843 -0.01954108
0001b0 53 bd 50 c0 99 7c a7 3e 2e 61 81 bf 34 82 eb 3e
       -3.2615554 0.32712248 -1.0107782 0.45997775
0001c0 7e 34 5e 3f 8d 67 ba be 78 03 6d bd 95 df 8a 3e
       0.86798847 -0.36407128 -0.057864636 0.27123705
0001d0 97 8a bf 3d 86 51 84 bb 06 8e 4a bf 37 70 b9 be
       0.09352606 -0.0040380387 -0.7912296 -0.36218426
0001e0 38 de ca 3e 7a b1 0d 3e 11 fa 8c be e9 01 79 bb
       0.39622664 0.13837233 -0.27534536 -0.0037995523
0001f0 c7 87 b2 bd 30 f0 02 bd d4 d4 04 41 ce 57 28 be
       -0.08717304 -0.031967342 8.30196 -0.16439745
000200 94 f1 a8 3f dc 0e 86 bb 34 2b 83 be 2c d7 40 bd
       1.3198724 -0.004091127 -0.256189 -0.047080204
000210 95 76 c6 be 0e 31 07 be bd b9 7f ba 34 e8 3d be
       -0.38762346 -0.13202307 -0.0009755155 -0.1854561
000220 3d 01 8f be 3f 55 e3 3d 1b 5e 58 be 26 67 84 3d
       -0.27930632 0.11100244 -0.21129648 0.064649865
000230 0d 4d a7 3a 47 8b b5 3e 5f 03 be 3d 8b 46 14 bd
       0.0012764052 0.35457823 0.09277987 -0.036200088
000240 92 a5 e1 3c 73 ec bd 3d ba 93 93 3e b2 1c 45 3e
       0.02754477 0.09273615 0.28823644 0.19249228
000250 1c 2d e5 be 34 99 bb 3e 5a 0c 38 3f ea db 28 3e
       -0.44760978 0.36640322 0.71893847 0.1649014
000260 39 9e 8a 3f e5 2c 83 3e 0e 71 10 bf 80 8d f2 bd
       1.0829536 0.2562019 -0.5642251 -0.11843395
000270 91 7f 04 bd b8 31 b5 c0 0b c8 0a 3e 65 56 3c bd
       -0.03234822 -5.662319 0.13552873 -0.04598083
000280 67 12 ac 3e e3 1b 53 3e 65 1c 2b 3e c1 03 84 3e
       0.3360779 0.20616107 0.1671005 0.25784114
000290 ee a3 c9 bd 94 e5 9e 3e 3c e9 2b 3f e9 72 56 bc
       -0.0984572 0.3103453 0.6715276 -0.01308892
0002a0 41 5f 1d be a3 40 52 be 3a b6 88 3d 66 35 2b 3b
       -0.15368368 -0.2053247 0.06675382 0.0026124357
0002b0 0a e9 65 3e 20 99 9d 3c c7 a5 6b be 6f 04 80 40
       0.22452179 0.019238055 -0.23012458 4.000541
0002c0 31 b3 ac 3e 14 1e 68 bd f2 6c d6 be 06 65 15 3c
       0.33730462 -0.05666931 -0.41879994 0.009118324
0002d0 c5 b9 02 be 75 97 01 bf 52 50 63 bf 63 8e 86 bd
       -0.12766178 -0.5062173 -0.88794434 -0.06570127
0002e0 03 6a a7 3e 97 92 fa 3d 6f 49 c9 bf 55 3c ff bd
       0.32698068 0.12234991 -1.5725535 -0.12462679
0002f0 6d 4f ca be 89 91 bb be e3 25 92 be 25 62 ad 3d
       -0.39513722 -0.36634472 -0.2854453 0.08465985
000300 d1 00 6b be 7e f8 1e c0 3e 86 59 be a9 91 cc 3e
       -0.2294953 -2.4839168 -0.21242616 0.3995488
000310 29 62 1e 3f d5 28 33 be 29 e8 5e bd e3 97 14 3f
       0.6186853 -0.17496045 -0.054420624 0.5804426
000320 a6 09 88 3e 44 50 a2 3c 58 cd 16 be a8 42 82 be
       0.2656986 0.019813664 -0.1472677 -0.2544148
000330 ff 08 0d bf 32 60 8b bf 86 de b6 bf f1 1a 1b 3e
       -0.5509185 -1.0888731 -1.4286659 0.15146996
000340 f4 d0 ab 3f 26 f9 09 3f 27 3e 44 3f a2 0a 04 3f
       1.3423142 0.53895795 0.76657337 0.51578724
000350 e3 5a 8b bc cb 08 66 bd 00 e3 25 3e 49 fd 76 3d
       -0.017011112 -0.05616073 0.16199875 0.060300145
000360 e0 fa 68 be 96 02 80 be f4 5a 72 bc 20 f5 ce bd
       -0.22751951 -0.25001973 -0.014792193 -0.10105348
000370 92 57 ba be 10 d2 f4 3c d4 3a 88 3b 91 3c 7a 3d
       -0.36394936 0.029885322 0.0041574035 0.061092917
000380 62 2a b4 bc e7 d4 b1 be 74 e1 a6 be 2b b8 2d bf
       -0.021992866 -0.34732744 -0.32593882 -0.67859143
000390 a2 d0 50 3d 4e 1b 22 be 92 ca f0 3d e9 ad 4c 3e
       0.050980218 -0.15830728 0.11757387 0.19988216
0003a0 44 77 d3 bd eb ee 78 3e 7b c9 16 c0 22 7b f1 3e
       -0.103254825 0.2430989 -2.3560474 0.47164255
0003b0 17 0c c6 bf 93 30 22 bf 93 b7 e9 bf 35 b2 42 bf
       -1.547244 -0.6335537 -1.8259147 -0.7605317
0003c0 bb 34 12 3e 7b f6 a4 3d dd 5c 51 be d5 55 16 3d
       0.14277928 0.08054825 -0.20445581 0.03670295
0003d0 84 71 a4 bd 94 0c cb be 98 ce 35 3f 25 c7 26 3f
       -0.08029464 -0.39658034 0.7101836 0.6514762
0003e0 b1 a2 74 bb a2 b6 fa ba a0 5c f6 3d ea b8 b4 3d
       -0.0037328417 -0.0019127915 0.120293856 0.08824332
0003f0 c7 b2 e4 be 56 7c 11 bf 8f b2 6f be 1b 1c a9 3d
       -0.44667646 -0.56830347 -0.23407958 0.08257314

net.0.bias f4 [128]
000000 fb 76 d9 be d7 3b 2b bf 77 01 ce 3e f5 24 0a 3f
       -0.42473587 -0.66888183 0.40235493 0.5396264
000010 0d a1 b8 3f 62 a6 1c be dc 15 08 bf db db 69 bd
       1.4424149 -0.15297845 -0.53158355 -0.057094436
000020 b7 65 d7 bd e2 f8 db 3e b7 94 ab bd 54 2a 14 3e
       -0.105174474 0.4296332 -0.083779745 0.14469272
000030 17 ee 4c bf 70 35 00 bf d5 c3 2b bf 79 96 0f bf
       -0.80050796 -0.5008154 -0.6709569 -0.5608898
000040 2a a4 04 3e a1 89 2b be 35 4d 12 3f 86 34 d7 be
       0.12953249 -0.1675172 0.5714906 -0.4203226
000050 3c fe 57 3c 5d db 05 c0 97 cc 28 40 e2 72 da 3d
       0.013183173 -2.0915139 2.6374872 0.106664434
000060 2e ad 8d 3e 2c 29 79 bf 97 73 88 3c 4b cc d5 be
       0.27671188 -0.9732845 0.01665668 -0.41757426
000070 44 cb 9c be af 1f 5b 3d b1 eb 68 bd 5d 13 87 3f
       -0.3062383 0.053497013 -0.056865398 1.0552784
000080 c5 b3 ca 3e ad bd 93 3d a1 51 81 3d 7b f4 8d ba
       0.39590278 0.07213912 0.063143976 -0.0010830307
000090 15 a7 aa bf c5 c3 e4 3e af 64 f6 be e7 de 9a bc
       -1.3332239 0.4468061 -0.4812369 -0.018905116
0000a0 f0 56 33 3f ee 70 18 3f be 00 a5 3f 47 98 25 bc
       0.7005453 0.5954732 1.2890851 -0.0101071065
0000b0 29 25 8e bf 1d 94 0a bf 47 f4 50 3e bb 88 5f 3e
       -1.110509 -0.5413225 0.20405684 0.21829502
0000c0 3a 9f 6d 3f 94 07 10 bf 88 e7 a5 3f 17 f2 7f 3f
       0.92821085 -0.56261563 1.2961283 0.99978775
0000d0 5b 3f a9 bf f2 da dd 3e 15 59 3a 3f 1c 05 0c 3f
       -1.322246 0.43331105 0.7279218 0.54695296
0000e0 c6 2a b4 bd 4b e6 fd 3e 14 c7 c0 3f 1d 57 aa be
       -0.08797221 0.49589762 1.5060754 -0.33269587
0000f0 55 b8 33 3e 60 ec 06 3e 30 de dc be 72 cb 6a bf
       0.17550786 0.13176107 -0.43138266 -0.9171668
000100 23 50 a7 bd 45 6f f4 3c ad db 50 3f df c5 5f bd
       -0.08169582 0.029838214 0.815852 -0.054632064
000110 4b 34 cc bf dd d7 bd 3f 92 a5 9d 3e 45 2a 96 be
       -1.5953459 1.4831501 0.30790383 -0.29329124
000120 90 56 01 bf 6c fa d4 be f6 df ce bd 25 37 25 bf
       -0.5052271 -0.41597307 -0.10101311 -0.6453727
000130 fa 22 0e 3d 49 1e 62 be 73 4b d2 bf 2a ae 89 bf
       0.034701325 -0.22081865 -1.6429275 -1.0756276
000140 9d 49 ab 3e 99 3b b4 bd 8d bd b1 3f e9 90 87 be
       0.334546 -0.0880043 1.3885971 -0.26477745
000150 5c 98 78 bf dd 7f 81 be a6 ef 2b 40 67 a2 1c 3f
       -0.9710748 -0.25292864 2.686502 0.61185306
000160 25 46 3f 3f c5 bb 97 3f 60 09 50 3f 17 d3 57 3e
       0.7471641 1.1854178 0.81264305 0.21076618
000170 0f 65 77 bf 94 45 03 3f 14 53 ca be 76 30 94 3f
       -0.9663858 0.5127804 -0.3951651 1.1577289
000180 f4 f0 65 be 50 e6 80 bf ed e7 c4 3f fa 19 9a 3e
       -0.22455198 -1.0070286 1.5383278 0.30097944
000190 48 a4 81 3e 64 36 44 3e 4d 24 b5 be 96 d0 b0 bf
       0.2532065 0.19161373 -0.35379258 -1.3813655
0001a0 3e 2e ac 3f 72 8d d5 bf ac fd d2 3d 6a 65 86 3e
       1.3451612 -1.6683791 0.1030229 0.26249248
0001b0 a0 98 09 bf e2 13 63 bf e3 d9 29 3e c6 f4 a8 bf
       -0.5374851 -0.88702214 0.16587023 -1.3199699
0001c0 c8 7d a3 3f 71 39 03 40 7e 78 93 3f 44 72 95 3e
       1.277276 2.050381 1.1521146 0.2918874
0001d0 97 a2 6a 3e 41 bf 2d 3d 33 20 57 be 59 1f b1 3f
       0.22913586 0.042418722 -0.21008377 1.3837692
0001e0 02 c3 67 3a 36 f1 c9 3d da dd a0 be 76 c3 ce be
       0.0008841009 0.098604605 -0.3141926 -0.403835
0001f0 28 17 40 3f b0 35 ea be f0 39 f7 be 96 8a ec be
       0.75035334 -0.45744085 -0.4828639 -0.46199483

net.2.weight f4 [64, 128]
000000 70 4f 0b bf e5 ad c8 bf 2e b2 c5 3e 22 20 89 3d
       -0.54418087 -1.5678068 0.38612503 0.06695582
000010 52 c7 69 be 36 ed 8d bd 2e 31 10 3e 0e 39 08 3e
       -0.22829941 -0.0693001 0.1408126 0.13303015
000020 a1 57 a1 3e c5 3d 3f bd ac 10 2d 3f 1e 62 98 3c
       0.31512168 -0.046689767 0.67603564 0.018601473
000030 04 76 39 bf c6 58 92 3e 8c 7f 91 3e 68 fd 6a 3d
       -0.724457 0.28583354 0.28417623 0.057370573
000040 cb 4a c1 bd c5 6b 20 bf ee 5f 9c 3f 59 66 b6 be
       -0.09438094 -0.62664443 1.2216775 -0.3562496
000050 2d f0 c8 3c b8 da b0 bd 89 22 0e be 88 0d 29 3f
       0.024528587 -0.08635467 -0.13880362 0.6603627
000060 05 29 c9 3d fc 83 b9 3d dd 7b 8e 3d b3 0b 90 bc
       0.09822277 0.09058377 0.06957219 -0.017583704
000070 9a 04 a4 be 44 58 13 3f 11 1c 98 3e 0f c3 26 bf
       -0.3203476 0.5755656 0.29708913 -0.65141386
000080 4a bb 08 3f 29 86 3a 3e 83 14 04 bf d9 8c 20 be
       0.5341078 0.1821524 -0.515938 -0.15678729
000090 81 b3 a3 3e 98 29 30 be f4 48 07 bd d1 d3 7f bf
       0.31972888 -0.17203367 -0.033028558 -0.9993258
0000a0 65 47 1f 3f 9b 5a 19 3e 95 58 ca be be 87 d8 bd
       0.62218314 0.1497597 -0.39520708 -0.10572766
0000b0 e9 8c 8d be 2b ce cd be 66 29 56 3f 12 af c5 be
       -0.27646568 -0.40196356 0.8365692 -0.3861013
0000c0 ae 48 45 3e 66 e7 a9 be 80 67 21 3f ae 51 03 bf
       0.19266006 -0.33184355 0.63048553 -0.5129651
0000d0 5f 3d 16 bf e3 5b 6c 3a b4 67 60 3f 1e 9b 32 3e
       -0.58687395 0.0009016378 0.8765824 0.17441985
0000e0 5d 50 25 bf e8 45 8a be e7 b5 c5 3e d4 f3 87 bd
       -0.6457575 -0.2700646 0.38615343 -0.066383034
0000f0 d8 6e 8f be a7 0c c6 bd 56 2a 94 3d 11 35 6e 3f
       -0.28014255 -0.09670382 0.072346374 0.9304972
000100 ea 74 71 bf 8b 69 93 be d8 3b 82 be 2c f8 d8 be
       -0.9431902 -0.2879146 -0.25436282 -0.4237684
000110 81 9f 0a 3e b7 1a 46 3f 3f 23 13 bf 6b 98 9d 3e
       0.13537408 0.77384514 -0.57475656 0.30780348
000120 d6 c9 8c bd 9c d3 51 3f 65 cd 49 be 2c bb 43 3f
       -0.06874435 0.81963515 -0.19707258 0.76457477
000130 b1 5b 9e bd c5 15 65 bf 3e 6e 13 3e fb 8e 21 3d
       -0.077323325 -0.8948634 0.14397523 0.039442997
000140 7e a1 bb bf c6 5c d0 be 06 fd 5a 3e 90 69 25 3f
       -1.4658659 -0.4069578 0.21385583 0.646142
000150 56 57 0f bf eb c4 a2 3e c2 2b 17 3e b6 05 35 3f
       -0.5599264 0.3179086 0.14762786 0.7071184
000160 bc 46 62 3e 4b bf 24 3f 83 d2 d3 3d 33 15 17 3e
       0.22097296 0.6435439 0.10342886 0.1475418
000170 a1 28 2a 3e 6b a7 31 bf 0e 69 87 3e 3c ad a2 bd
       0.16617061 -0.69396085 0.26447338 -0.07943198
000180 68 77 3d bf 6d 47 ce bc ed ac 9e 3d fe 19 e2 be
       -0.74010324 -0.025180543 0.07747827 -0.44160455
000190 9f 63 30 bf 73 b0 48 3f 22 37 91 bf 4a a6 7e bf
       -0.6890201 0.7839424 -1.134495 -0.99472487
0001a0 55 c6 d4 bc 60 5a 62 bf 72 0a 3d 3f 48 e3 1e bf
       -0.025973478 -0.8841915 0.73844063 -0.62065554
0001b0 35 37 de bd 84 c5 cc bd f0 c6 8d bd 15 9f 2f 3e
       -0.10850374 -0.099986106 -0.0692271 0.17150529
0001c0 86 21 98 3f c1 91 e0 3d b6 3a 31 3f ac d8 8e bd
       1.188523 0.109653 0.6923021 -0.06974921
0001d0 4b a4 4f bd 79 43 f5 be 02 67 15 3f 6b 36 93 3f
       -0.05069379 -0.4790304 0.583603 1.1500982
0001e0 1e 5e 4a 3f 25 e4 14 bf fd 74 b7 3e a8 c5 4f 3e
       0.7904986 -0.5816062 0.35831442 0.20290244
0001f0 af 5a 74 3d 01 b9 35 bf cc 0b ce 3c e1 0d 5f bf
       0.059656795 -0.7098542 0.02515211 -0.8713055
000200 b9 80 fc 3d 95 c1 08 3f a1 fd fd bd 9e e8 ba be
       0.123292394 0.5342038 -0.124018915 -0.36505598
000210 70 42 1c 3c ab 79 22 3e 69 d8 cc 3c 15 15 65 3d
       0.009537324 0.15866725 0.025005536 0.05592831
000220 dc c3 fa 3d d7 76 26 be af d3 7a 3e 48 24 09 bc
       0.122443885 -0.16256271 0.24494813 -0.0083704665
000230 93 4d 3c 3e 78 a0 90 3e c6 08 b7 3e 72 5f af 3d
       0.18388967 0.28247428 0.3574888 0.085631266
000240 28 eb 2b be 13 46 b4 3d 9b 96 c9 bd d3 c4 de bd
       -0.16788924 0.08802428 -0.09843179 -0.10877385
000250 0e 3e cc be 04 43 b8 3d 60 36 99 be 25 d3 3a be
       -0.39891094 0.08997157 -0.29924297 -0.18244608
000260 9c 67 8d be ff b7 b4 3e 3e d2 15 be 1d fd 58 bd
       -0.2761811 0.35296628 -0.14630982 -0.052975763
000270 98 8d 53 bd da 6d 97 be 01 1d d0 be 36 62 da bd
       -0.051648706 -0.29575998 -0.40647128 -0.106632635
000280 43 f1 78 be f9 d2 0b be 34 33 e7 3e 2a f6 d5 3d
       -0.24310784 -0.13654698 0.45156252 0.10447343
000290 30 c2 31 3d a4 9e a0 be a8 fc 0d 3f 23 db 27 bc
       0.043398082 -0.31371033 0.5546365 -0.010245117
0002a0 56 b5 e4 bd 24 aa 8e 3e d3 2b a6 be 26 b2 35 bd
       -0.111673996 0.27864182 -0.3245531 -0.04435935
0002b0 9e 0c 30 3f 31 4a ba 3e 80 7e d7 be dc ad 13 3e
       0.6876925 0.3638473 -0.420887 0.14421791
0002c0 51 bc 64 be 2a d5 8b 3e 94 9f 00 bf cf 4b 1a bf
       -0.22337462 0.2731107 -0.50243497 -0.60271925
0002d0 32 75 85 3e 4d 61 09 bd c5 be 64 be e3 eb 05 3d
       0.26065975 -0.03354006 -0.22338398 0.032695662
0002e0 48 6c 19 3f ac 29 15 be 75 29 3a be cb d1 23 3f
       0.5993085 -0.14566678 -0.18179877 0.63991994
0002f0 1d 2f 95 3c 20 81 b1 be 15 ed 34 bd 86 70 b2 3e
       0.018210942 -0.34668827 -0.04417141 0.34851474
000300 76 3a b1 3e aa 19 d8 3d 7c 3b d8 be 1e 45 90 3e
       0.34614915 0.1055177 -0.42232883 0.28177732
000310 35 a1 ce 3e 69 94 b1 be 03 76 bb bc b8 75 7f 3e
       0.40357366 -0.3468354 -0.02288342 0.2494725
000320 39 2b be 3d 08 61 a9 3c bd b5 94 3d 37 37 ed 3c
       0.09285588 0.02067615 0.07261226 0.028956993
000330 85 97 82 3e f4 88 c3 3e 6f d0 73 3e ab 26 77 3e
       0.25506225 0.38190424 0.2380998 0.24135844
000340 94 e8 4a be 04 4f 44 3f 19 2a 0b bf b4 90 90 3b
       -0.19815284 0.7668307 -0.5436111 0.004411781
000350 98 fa 04 3e ab 0c cc 3e 3e a0 b7 be e4 b4 99 be
       0.12986219 0.39853415 -0.35864443 -0.3002082
000360 e6 12 d5 be 43 5a d7 be bd fe 68 bd 30 03 b6 bc
       -0.4161598 -0.42061052 -0.056883562 -0.022218317
000370 21 a7 8b 3e 3a 9a 86 be bf 37 9e 3e cd 18 97 be
       0.27275947 -0.2628954 0.30901906 -0.2951111
000380 c9 d0 9f 3d 0b 1e 03 3d ed f8 9b be cb f4 3a be
       0.078034945 0.032011073 -0.30463353 -0.18257444
000390 e6 92 82 3d 7d c6 04 be 9a a1 1e bc f9 62 09 3f
       0.06375675 -0.12966342 -0.0096820835 0.53666645
0003a0 87 1a c9 3c a1 23 51 3e 74 33 c5 bd 08 02 81 be
       0.024548782 0.20423748 -0.096289545 -0.25196862
0003b0 03 20 ac 3e 66 fc 38 3e a1 f2 4c be e3 03 c3 3e
       0.33618173 0.18065032 -0.2001443 0.38088903
0003c0 b0 7c 00 3e 12 18 1a be 7a ae 65 be 5e 9f 9c bd
       0.12547565 -0.15048245 -0.22429839 -0.076475844
0003d0 82 df 71 3d d7 3b e8 be 11 2d 96 3c 48 89 5d be
       0.059051044 -0.45358154 0.018332036 -0.216344
0003e0 ae e2 5e 3d c8 bd 92 3c 24 f0 93 3e e5 66 e8 bc
       0.054415397 0.01791276 0.2889415 -0.028369376
0003f0 22 20 24 3d 82 5a 20 3e 86 c0 2e 3e 3e 29 d8 3e
       0.040069707 0.15659526 0.1706563 0.42218965

net.2.bias f4 [64]
000000 36 ef 80 3d fa 06 b3 bd ae d7 b3 3d 63 bc 26 bc
       0.06295626 -0.08741565 0.08781372 -0.010176751
000010 5f e2 90 3e ad 51 13 be 26 df cf bc 8a bc 1f bd
       0.28297707 -0.14386626 -0.02537496 -0.038998164
000020 38 34 09 3f 73 66 fc bd 7b ae 41 3d 1b 2a 2c 3e
       0.53595304 -0.12324228 0.04728554 0.16812937
000030 a2 a3 43 3e 04 26 45 3d e4 b8 68 3e d1 e7 79 bd
       0.1910539 0.048131958 0.2272678 -0.061012093
000040 9c 86 2f be 32 03 67 3c 9c 6a b8 be b8 70 8b 3d
       -0.17141193 0.014099883 -0.36018836 0.06808609
000050 1e 4b 20 be a9 69 2c be 8b 28 37 3c 22 d2 62 3e
       -0.15653655 -0.16837181 0.0111791 0.22150472
000060 00 1c 7e bd 52 1e 22 be 02 1d b5 be 22 b1 b7 bd
       -0.06203842 -0.15831879 -0.35373694 -0.08969332
000070 66 15 56 be 2d f1 a6 3e a2 6a 47 be bc 26 17 bd
       -0.209066 0.32605878 -0.19474271 -0.036902174
000080 6b f7 29 3e 34 e5 fa 3d 3b 3c 37 3f 18 ab e6 3c
       0.16598289 0.12250748 0.7157628 0.028157756
000090 2b cc 0d 3d 22 8d 0b 3e aa b3 b5 bb ee 0e 8b 3c
       0.034618538 0.13628057 -0.0055450993 0.016974892
0000a0 4e 05 97 3d 9d 54 5f bd 15 e7 94 bd d5 ee 16 3e
       0.07374059 -0.054524053 -0.07270638 0.14739545
0000b0 c0 2d 94 bd 67 d5 a0 bc 64 4d a7 3d 95 31 f3 bd
       -0.072352886 -0.019633008 0.08169058 -0.118746914
0000c0 1f e9 91 3d 39 75 2d be 49 4d b2 bd a1 39 72 bd
       0.071245424 -0.16939248 -0.08706147 -0.05913699
0000d0 19 75 c9 bd 09 b6 22 be 06 fb 12 3e dd 6c 30 3e
       -0.09836788 -0.15889753 0.1435357 0.17229028
0000e0 77 f2 11 3e f4 d8 37 3f bd bf 1b 3e 36 60 af bb
       0.14252649 0.7181542 0.15209861 -0.0053520454
0000f0 fc 8c 83 bd 3f a7 0f 3e f5 26 8b 3c 8a 4c 07 bd
       -0.06423375 0.14028643 0.01698635 -0.033031978

net.4.weight f4 [64, 64]
000000 40 b9 3d 3f 28 da fa 3d c4 7a d2 3e 8b e3 fe 3e
       0.74110794 0.12248641 0.41109288 0.49782977
000010 b6 68 00 be 83 ed 9d bf 9a fa 14 3d 00 88 08 be
       -0.12539944 -1.2338108 0.036371805 -0.1333313
000020 c2 d9 93 3f 9b 78 d7 be 94 7a 48 bd 20 93 12 bf
       1.155083 -0.42084202 -0.048945025 -0.57255745
000030 90 89 19 bd 89 8a a5 3c 98 79 db be f1 a6 fc 3d
       -0.037484705 0.02020766 -0.42866206 0.12336529
000040 7a 9b 58 3e e3 15 8c 3f 2a df d1 bc 1e ba b8 be
       0.2115306 1.0944179 -0.025619108 -0.36079496
000050 56 34 fc 3e 46 97 fe be 6a 31 8f 3e 9a 17 0e 3f
       0.4925868 -0.49724787 0.27967387 0.55504763
000060 03 c4 2f 3e 81 33 94 3e dd 2b 88 be 80 73 4a be
       0.17164616 0.28945544 -0.26595965 -0.19770622
000070 44 be 03 3f da ae 0f 3f 87 ec 6c 3e 25 bb 07 3b
       0.514622 0.5612618 0.23137103 0.0020710912
000080 b7 0c f6 3e f2 ae 1f 3e 6b cd 4d 3e fb e7 38 bd
       0.48056576 0.1559408 0.20097892 -0.04514311
000090 71 73 a4 3d 8c cb 95 3e 3a a3 0c 3d 08 1a 80 3f
       0.08029831 0.29256856 0.034335352 1.0007944
0000a0 b2 81 d5 3e cc 0d b6 be 0f 89 9d be 26 26 80 3e
       0.41700512 -0.355574 -0.3076863 0.25029105
0000b0 f7 3b 03 be 96 40 20 bf ac ea 8a bf 33 53 4a bf
       -0.12815844 -0.6259855 -1.0852866 -0.790332
0000c0 11 a3 66 bd f4 d9 88 3f a0 a2 3f 3f 82 86 0b bd
       -0.056307856 1.0691514 0.7485752 -0.034063824
0000d0 7f 3f 3c 3e f9 f9 5c be 22 8f de 3d b2 a3 cf be
       0.18383597 -0.21579732 0.10867144 -0.40554577
0000e0 2e ce 01 be 21 d0 08 3f cd 55 e0 3c 80 f3 36 bf
       -0.12676308 0.5344258 0.027384663 -0.714653
0000f0 52 a2 b7 3e d7 56 aa 3f c5 9b c1 3e 0b 38 da 3e
       0.35866028 1.3307751 0.37814155 0.42620882
000100 69 ef f9 3d 0f cc 15 bf 7f 48 02 c0 f6 9b 76 be
       0.12203867 -0.58514494 -2.0356748 -0.24082932
000110 13 ae e9 be 81 39 b8 bd 86 f2 28 bf 5a 4a de be
       -0.4564062 -0.08995343 -0.6599506 -0.434161
000120 7a 47 0f 3e df 48 ed 3d 68 34 99 3f 68 a8 b0 bc
       0.1399211 0.11586165 1.1969118 -0.021564677
000130 cd 94 34 3c 02 e0 60 bf 16 28 93 3e 5b 65 5f be
       0.011021805 -0.8784181 0.2874152 -0.21816008
000140 31 0e 3b bf db fd 27 3d f5 68 49 bc af 93 42 bb
       -0.7306853 0.04101358 -0.01229309 -0.0029690077
000150 6e bb 82 be a2 e7 19 bc 21 e4 b9 bd 77 ed 2b 3e
       -0.25533623 -0.0093936045 -0.09076715 0.16789804
000160 1e 22 3f bf da bf 9c 3e 52 9f 26 bf f5 46 8b 3e
       -0.74661434 0.3061512 -0.65086854 0.27202573
000170 a0 9c ab 3e 04 ab 9c 3e 40 f5 96 3e 5d b6 d6 3e
       0.33517933 0.30599225 0.29483986 0.41936007
000180 78 80 42 3e 32 ae 60 3f 43 3b 41 be da 38 1f bf
       0.1899432 0.877658 -0.18870263 -0.62196124
000190 17 24 82 3f 65 8d 18 3f b2 f0 57 bf 5f 64 2b 3f
       1.0167264 0.5959075 -0.84351647 0.6695003
0001a0 aa be 01 3f 83 f6 40 be f8 d0 a3 3e dc 07 81 bb
       0.50681555 -0.18844037 0.31995368 -0.0039377045
0001b0 d0 80 32 3e 26 15 00 bf 5e b9 11 3f 80 67 df be
       0.1743195 -0.5003227 0.5692347 -0.43633652
0001c0 e6 c5 b2 3e f7 7e 8f 3d a9 4e 59 3e 8e f7 e4 3e
       0.3491661 0.070066385 0.21221413 0.4472012
0001d0 29 d2 76 bf 13 bc 05 3d 0c aa f3 be ce 4d 18 bf
       -0.9641443 0.032650065 -0.47590673 -0.5949372
0001e0 c3 19 55 be a6 fc bb 3e 85 3f b5 be 9f 1e 2e bf
       -0.20810609 0.36716193 -0.35400024 -0.68015474
0001f0 8c fe b2 bd 0f 53 c4 3d e4 85 87 be 90 c5 41 3f
       -0.08739957 0.09586155 -0.26469338 0.7569208
000200 cb b5 18 be 02 d4 a2 bf 17 34 b2 bf 1d 19 7c bf
       -0.14913099 -1.272095 -1.3922147 -0.9847582
000210 5a ab 56 3f ec 9d 68 be 87 3b a7 bf 8a b8 c2 3e
       0.8385521 -0.22716492 -1.3065041 0.38031417
000220 49 50 b5 3d 9d 72 a0 bd 2f bd 00 3d 04 8c 52 bd
       0.08853204 -0.07834361 0.03143042 -0.05140306
000230 93 41 93 3f 38 94 dc 3d e1 5b d5 3e 63 98 c7 bc
       1.1504387 0.10770458 0.4167166 -0.024364656
000240 32 a3 78 bf cc 9c 8b 3f 46 01 30 3d c0 33 57 3f
       -0.97124016 1.0907226 0.042969964 0.8406334
000250 73 0f 70 3c ba 93 6f 3e 26 b2 98 bf 97 5d bf be
       0.014652121 0.23396197 -1.1929367 -0.3737609
000260 b9 63 14 bf a2 0d a4 be 19 43 d7 be 79 ec 04 be
       -0.57964665 -0.3204165 -0.4204338 -0.12980832
000270 b9 53 6c bf a4 7c cf 3d 00 58 12 3d d4 7e 8d 3f
       -0.9231525 0.10131195 0.035728455 1.105433
000280 89 cb 90 3e 5f 33 b9 be a3 4c 13 be bf eb cd 3b
       0.28280285 -0.36172006 -0.14384703 0.0062842066
000290 69 e4 c5 bc 67 24 48 3f 0b 43 71 bf 95 08 39 3e
       -0.024156766 0.78180546 -0.94242924 0.1806968
0002a0 55 ff c8 3d 3f 3a 90 be bb 40 00 3e 14 75 ff 3d
       0.09814326 -0.28169438 0.12524693 0.12473503
0002b0 d0 0a 1c bd f4 6e 99 3d d2 b6 a3 bd 44 1e 1d bd
       -0.03809625 0.07491866 -0.079938546 -0.03835894
0002c0 4c b8 8d bd 99 3f 9f be 65 c2 95 3f 1c e5 09 bf
       -0.069199175 -0.3110321 1.169995 -0.5386522
0002d0 2f 52 fd be 16 94 3e 3e 8b e8 15 3f 3a 58 12 bf
       -0.49476764 0.18611178 0.5855796 -0.57165873
0002e0 a8 58 c5 bd 93 a4 08 be a7 d7 b2 3e db 57 19 3e
       -0.096360505 -0.1334403 0.34930155 0.1497492
0002f0 91 75 35 bd fe c1 3c be 2c 61 30 bf 29 7e 0e be
       -0.044301573 -0.18433377 -0.6889827 -0.13915314
000300 f0 87 f4 3f 87 e0 8c 3e 3b 19 2f bf 3b f9 12 3f
       1.9103985 0.2751505 -0.68397874 0.57411546
000310 a4 84 7d 3e 0c 0a ac be ab 77 e3 be 52 c1 8b bf
       0.2475763 -0.33601415 -0.44427237 -1.0918372
000320 87 bc b9 3e 70 8d 5f bf bd b1 6b bf 95 c6 1b bb
       0.36276647 -0.8732519 -0.9206808 -0.0023769487
000330 30 4c b8 bd f3 2b ed 3d 41 92 07 bf 39 b5 7f be
       -0.089989066 0.11580648 -0.5295754 -0.24971475
000340 72 5e 84 3e a3 86 30 3f 12 d7 d1 3d 80 52 6f bd
       0.25853306 0.6895544 0.102460995 -0.058428288
000350 b0 34 c7 3e e2 24 21 3e 79 a7 ed be c6 ea 52 3c
       0.38907385 0.15736726 -0.46416834 0.012873357
000360 18 0e a4 3e b4 69 7e 3e a5 b7 20 3e df 58 b9 3d
       0.32042003 0.2484501 0.15695055 0.09050154
000370 3e 1e 20 3d 9b c2 4a 3e f0 df a0 be dc d3 d3 3a
       0.03909134 0.19800799 -0.3142085 0.0016161161
000380 e0 2f 96 3d 44 bc 3a bf cf 53 a7 3d 74 30 a0 3b
       0.0733335 -0.7294352 0.08170282 0.0048885886
000390 1a da e3 be b3 74 d8 bc 9a d0 a6 bd 83 31 b0 3f
       -0.44502336 -0.026422834 -0.08145256 1.376511
0003a0 d1 dd 8d be 5a 08 50 3c b8 e4 ea be 9a 92 c7 bd
       -0.27708295 0.012697304 -0.45877624 -0.09744759
0003b0 c8 0e a9 3d 95 32 d5 bf 7e 6e 92 3e f3 76 32 bf
       0.082547724 -1.6656061 0.28599924 -0.6971275
0003c0 ee ed 71 be b1 84 ca 3f d3 0c 38 3e 1a b6 3e be
       -0.23625919 1.5821744 0.17973642 -0.18624154
0003d0 df fa 23 3d 9b 34 d0 3e b5 9f 92 3f 24 a0 f7 3e
       0.04003417 0.40665135 1.1454989 0.48364365
0003e0 a4 52 c9 bf 16 95 f2 3e 52 69 fd bd 27 40 3b bf
       -1.5728345 0.4737937 -0.12373604 -0.73144764
0003f0 d5 41 84 3f 54 55 ad bd 22 b4 72 be c6 85 fb b9
       1.033259 -0.08463541 -0.23701528 -0.0004797412

net.4.bias f4 [64]
000000 15 13 4c 3e 33 74 2a 3e d4 1e 6a 3d ab 80 21 3e
       0.19929154 0.16645889 0.057158306 0.15771739
000010 51 6f 81 be 49 eb b2 3e 23 e3 0e be fa 9a d6 bd
       -0.2528024 0.34945133 -0.13953833 -0.10478778
000020 8d 74 89 be 0c a7 8e bd 07 58 fb 3d 38 86 d3 3c
       -0.26846734 -0.069654554 0.12272649 0.025820836
000030 63 81 57 be 46 42 31 be 89 6a d2 be f0 b7 37 3d
       -0.21045451 -0.17310438 -0.41096905 0.04485315
000040 7e e7 3c 3e 32 03 95 3e 46 8a ac 3e bb 16 59 be
       0.18447682 0.29104 0.33699244 -0.21200077
000050 71 3a d5 be 57 5b 93 be 57 b5 c8 3b 6d d0 8b 3e
       -0.4164615 -0.28780624 0.006125133 0.27307454
000060 95 35 9c 3e f0 07 5a 3e c5 08 9a bd b6 1b ac bd
       0.3050963 0.2129209 -0.07521204 -0.08403723
000070 90 98 63 3e 05 92 6d be 63 63 a9 bd 8c 02 0f bf
       0.22226167 -0.23200233 -0.0827091 -0.5586326
000080 e8 e0 ff 3d 69 82 0e bf b9 32 1f be 2c 39 9f be
       0.12494069 -0.5566774 -0.15546693 -0.31098306
000090 ba 03 c5 bd eb 06 85 be 2b bc 83 3e 1a 99 83 3d
       -0.096198514 -0.2598184 0.25729498 0.06425686
0000a0 2d 6f c4 bd b7 32 08 3e 30 92 5c 3d bb 36 31 bd
       -0.095915176 0.13300596 0.053850353 -0.043265086
0000b0 38 1f 66 be 6a 88 22 be a7 cf 21 be e5 2d 74 3d
       -0.22472847 -0.1587235 -0.1580187 0.05961408
0000c0 a9 61 a4 3d 4d 2c 75 be 12 27 3a be 40 4e 99 3d
       0.0802644 -0.2394268 -0.18178967 0.07485628
0000d0 4f 9b 35 3e 0d 55 91 3e 15 02 b1 3e 02 db 46 bd
       0.17735027 0.283852 0.345719 -0.048548706
0000e0 70 41 bd be 7c 17 da be 8b 08 bc bd e0 1b 74 bd
       -0.36963987 -0.42596042 -0.09181317 -0.059596896
0000f0 89 05 4a 3e 5a 2a 7e be ed d7 ee 3e a5 04 01 3c
       0.19728674 -0.24820843 0.46649113 0.0078746425

action_head.0.weight f4 [3, 64]
000000 65 ec a3 3d f5 b5 5f 3e ab ab aa 3d 98 4e e0 bd
       0.08004073 0.21846755 0.08333524 -0.109524906
000010 26 08 63 bd 40 f0 22 3e 0e 08 73 3e 56 31 1d 3e
       -0.055427693 0.1591196 0.23733541 0.15350851
000020 59 6c 97 3b d3 be 5e 3d 06 16 18 be 40 94 1f ba
       0.0046210703 0.054381203 -0.14852151 -0.00060874596
000030 7f 6b 4b bd 45 ca c3 bd 75 e2 69 be 17 09 03 bc
       -0.049663063 -0.09560064 -0.22840293 -0.007997773
000040 71 60 35 3d e4 46 49 3e 35 61 14 3d e7 6c 1a 3e
       0.044281427 0.19655949 0.036225516 0.15080605
000050 fe 4b 41 3c d5 03 60 be 95 42 00 be d2 3a d2 be
       0.011797903 -0.21876462 -0.12525399 -0.410605
000060 e4 cc 49 3d b7 bf b0 3d 8c e0 f6 3d 2c 66 0d 3e
       0.049267665 0.08630317 0.12054548 0.13808507
000070 01 25 a3 3d 04 81 0b be c4 df 81 bd d4 99 c3 3c
       0.07966042 -0.13623434 -0.06341508 0.023877062
000080 83 3b 62 be 18 93 0f bd 12 b5 05 be 38 b2 ce bd
       -0.22093014 -0.03505239 -0.13057354 -0.10092586
000090 f4 e1 7e be 99 10 a9 be 09 c4 8f 3e e3 23 1b 3e
       -0.24890882 -0.33020476 0.2807925 0.15150408
0000a0 e2 2c a3 3e ac f2 6b 3e 6f e8 d8 3d 90 36 5d bd
       0.3187018 0.2304179 0.10591208 -0.054007113
0000b0 30 1a 90 be a6 98 02 be 5c 44 ac bd 97 06 bf bd
       -0.2814498 -0.12753543 -0.08411476 -0.09327429
0000c0 5a d0 2f 3d b6 23 27 be 9c d2 04 be ef 96 90 3c
       0.04292331 -0.16322216 -0.12970966 0.017650096
0000d0 2a b2 76 3d 91 c7 4e 3e f0 91 72 3e 57 2b 09 3e
       0.060228504 0.20193316 0.23688483 0.13395439
0000e0 54 f2 27 be 40 70 c9 bd 34 73 5e be d7 8b 02 3e
       -0.16401035 -0.09835863 -0.21723634 0.12748657
0000f0 26 83 e0 bc fd 1e 20 3d 5e 86 71 bd a5 4b bb bc
       -0.027406286 0.039092053 -0.058966033 -0.022863219
000100 b1 66 3e 3d 15 56 60 3e 48 b2 91 bd e9 e1 75 3e
       0.046484653 0.21907838 -0.071140826 0.24011959
000110 f7 de 09 3d 4a 99 5a 3e cd 25 8b 3e 0a 84 1c 3e
       0.0336599 0.21347538 0.27177277 0.15284744
000120 9b ab c8 bd c0 45 13 3d f1 ed e0 bd a9 1e 4a bc
       -0.09798356 0.03595519 -0.10982884 -0.0123364115
000130 45 3c 3d bd 15 4b e3 bd 41 9e 77 be c7 a5 05 3b
       -0.046200056 -0.11098305 -0.24181463 0.0020393
000140 bf 64 30 3c d3 79 5a 3e 7f 3c 01 3e 7e 66 5b 3e
       0.010766207 0.21335535 0.12620734 0.21425816
000150 92 c1 55 3d 2e be 44 be e6 81 8a be 03 1c b6 be
       0.052186556 -0.19213173 -0.2705223 -0.35568246
000160 d0 7c 38 3e 27 78 14 3e e7 d5 5a 3d 6e 21 09 be
       0.18016362 0.1449896 0.05342665 -0.13391659
000170 f7 2a 6c 3e 07 03 19 be 6c ca ad bd d1 9c 11 bd
       0.23063265 -0.14942561 -0.084858745 -0.035549942
000180 81 fc 29 be 33 e1 dc bd 6a 9a fa bd 0e 47 43 be
       -0.16600229 -0.10785141 -0.122364834 -0.19070074
000190 7f 35 30 be 3c 5f 38 be 98 ac 85 3e af 42 f9 3d
       -0.17207907 -0.18005079 0.2610824 0.12170922
0001a0 f1 7f 01 3e f6 e1 46 3e 43 03 05 3e 93 f7 e0 bc
       0.12646462 0.19422135 0.12989525 -0.027461803
0001b0 de fa aa bd 29 7f 2e be 29 d0 a9 bd 09 46 23 be
       -0.0834863 -0.17040695 -0.082916565 -0.15944685
0001c0 4e c5 17 3d 12 50 3b be 90 89 38 3e 0f 6e 36 bd
       0.0370534 -0.18292263 0.18021226 -0.044538554
0001d0 40 1e 82 3d 46 2d 82 3e a6 f9 42 3e 81 cf 8c bd
       0.06353426 0.25425166 0.19040546 -0.06875516
0001e0 96 89 21 be 4a 67 1f be bd 43 77 be f1 2e 75 3d
       -0.15775141 -0.15566745 -0.24146934 0.05985922
0001f0 ba e7 dd bb 36 bf 52 3d cf 1b 8a bd 6d 99 90 3d
       -0.0067720087 0.051451884 -0.06743585 0.07060514
000200 a0 1f 4a 3d 00 b9 21 3e 4e af 2d 3d 92 21 78 3e
       0.049346566 0.15793228 0.04240351 0.24231556
000210 2b 93 39 3e fe c1 51 3e 23 37 13 3e e7 c1 5a 3e
       0.18122546 0.20484158 0.14376502 0.2136303
000220 34 24 15 3d d0 50 b7 3d 76 5c 0a be 73 52 bc bd
       0.03641148 0.08950961 -0.13511834 -0.091954134
000230 53 71 c8 3c bd 78 de bd 0d d4 70 be 30 fa 9c bd
       0.0244681 -0.10862873 -0.23518391 -0.07664907
000240 7e ab a8 bc b5 cb 6a 3e e7 dc ee 3d ce 99 ac 3e
       -0.020589586 0.2292927 0.116632275 0.33711094
000250 f8 2c bc 3c 66 d1 8c be 2f 76 7a bd dc 1b 91 be
       0.022970662 -0.27503508 -0.061147865 -0.28341568
000260 d3 e1 94 3e 18 4d 31 3e 1e c0 8d bc 25 3e 7b bd
       0.2907854 0.17314565 -0.017303523 -0.061338563
000270 2d a8 1b 3e a6 0c 07 be 2e d3 c1 bd f2 35 12 bd
       0.15200873 -0.13188419 -0.094641075 -0.035695978
000280 15 b3 33 be f6 f0 d4 bd 94 ac f4 bd 3d 7f 73 be
       -0.17548783 -0.10397522 -0.11946979 -0.23779006
000290 9d 69 4b be dd 43 77 bc ed 2c 10 3e 48 82 58 3e
       -0.19864507 -0.015091863 0.14079638 0.21143448
0002a0 5d 56 85 3e c2 6b 64 3e ae 61 ec 3d 62 24 5f bb
       0.26042452 0.22306731 0.115420684 -0.0034048785
0002b0 a9 54 07 be 69 55 2e bc 48 32 19 be af b5 1d 3d
       -0.13215889 -0.010640481 -0.14960587 0.038503345
0002c0 99 60 ba 3c 64 6c 12 be e4 aa c8 3d da bf 83 bd
       0.02275114 -0.1429916 0.0979822 -0.06433077
0002d0 ca a3 fb 3d 51 5c 72 3e fe c9 26 3e d1 c3 aa 3c
       0.122871 0.23668028 0.16287991 0.020845326
0002e0 c7 4f 52 be 44 38 c3 bd 95 18 75 be 76 2b f2 3d
       -0.20538245 -0.09532216 -0.23935159 0.11824696
0002f0 a4 7c dc bc 79 82 8b 3d f6 2f a5 bc 3d 81 1a 3e
       -0.026914902 0.06811995 -0.020164471 0.15088363

action_head.0.bias f4 [3]
000000 90 95 a7 3d ab 07 98 3c fc 38 ca 3d
       0.08182824 0.018558344 0.0987415

value_head.weight f4 [1, 64]
000000 27 b1 90 42 d1 ba 90 42 d7 6b 90 42 8e 13 91 42
       72.346 72.364876 72.210625 72.53819
000010 02 7d 90 c2 7d 9f 90 42 88 8d 90 42 b0 a6 90 c2
       -72.244156 72.3115 72.27643 -72.32556
000020 3c fe 90 c2 13 d1 90 c2 62 ab 90 42 bb db 90 c2
       -72.49655 -72.40835 72.33473 -72.42916
000030 10 e0 90 c2 a2 96 90 c2 d6 7d 90 c2 5c f0 90 42
       -72.43762 -72.294205 -72.24577 72.46945
000040 bb 9b 90 42 34 7b 90 42 b9 e0 90 42 e7 76 90 42
       72.30416 72.24063 72.43891 72.23223
000050 d1 7c 90 c2 c2 f1 90 c2 2a 6b 90 c2 bb b6 90 42
       -72.24378 -72.47218 -72.209305 72.356895
000060 9f c7 91 42 c0 8a 90 42 e5 a3 90 42 39 e7 90 42
       72.889885 72.270996 72.32011 72.45161
000070 67 b8 90 42 07 8e 90 c2 60 41 91 c2 ac ba 90 c2
       72.36016 -72.2774 -72.627686 -72.36459
000080 dc a5 90 42 ec da 90 c2 55 70 90 c2 7e de 90 c2
       72.323944 -72.42758 -72.2194 -72.434555
000090 76 76 90 c2 52 f8 90 c2 67 80 90 42 e3 c5 90 42
       -72.23137 -72.485 72.250786 72.3865
0000a0 7d a5 90 42 2c 0e 91 42 ab f6 90 42 be 1c 91 c2
       72.32322 72.52768 72.48177 -72.55614
0000b0 6a 19 91 c2 01 81 90 c2 12 1d 91 c2 ae 05 91 42
       -72.54964 -72.25196 -72.55678 72.51109
0000c0 76 64 91 42 b0 e8 90 c2 68 84 90 42 fa 13 91 42
       72.69621 -72.45447 72.258606 72.53902
0000d0 d6 9e 90 42 5a bb 90 42 f0 f5 90 42 38 ac 90 42
       72.31023 72.36592 72.48035 72.336365
0000e0 2f da 90 c2 ae e1 90 c2 01 f9 90 c2 6c c2 90 c2
       -72.42614 -72.44078 -72.486336 -72.37973
0000f0 da 8f 90 42 1d 82 90 c2 fb 99 90 42 d5 d5 90 c2
       72.28096 -72.25413 72.30074 -72.41764

net.0.weight f4 [64, 3]
000000 b2 6f 10 be e9 18 87 be bf 01 a9 bd 85 a6 07 3e
       -0.14105108 -0.26386192 -0.08252286 0.13247116
000010 44 79 83 3e 37 6a a9 3d b7 ce 82 3d 33 cf 9e 3d
       0.25678456 0.08272212 0.06387084 0.07754364
000020 b0 6d 64 bf c6 00 99 bd e4 0c 94 3d ae ca 51 bf
       -0.8922987 -0.07470851 0.07229021 -0.8194989
000030 03 07 35 3e 17 07 b6 be 0a 94 bd 3f 9d 6e 9b bd
       0.17678456 -0.35552284 1.4810803 -0.07589457
000040 14 af 92 be ff 55 37 bf bf 24 8d 3e d7 59 7d 3d
       -0.286492 -0.71615595 0.27567098 0.061853256
000050 2a 82 01 be 2e 5a eb bd d3 b1 8e be 1b 29 8d 3e
       -0.1264731 -0.1149181 -0.27870044 0.27570423
000060 79 e2 7a be 5b 9e 2b be d5 a9 32 be fd 29 86 be
       -0.24500455 -0.16759627 -0.17447598 -0.2620391
000070 d5 f2 e2 3d 83 f9 08 be 7e be 04 3e 78 f0 06 be
       0.11081473 -0.13376431 0.12963292 -0.13177669
000080 dd 8f aa 3e 0c 0b b4 3d 47 c2 8a bc a9 b8 95 be
       0.33312884 0.087911695 -0.016938342 -0.29242447
000090 9e 25 b9 3e 45 09 a3 3d 96 cc f3 bd 46 1c cc 3e
       0.36161512 0.079607524 -0.11904256 0.3986532
0000a0 a4 9d 4f bd f4 2f 98 3e 5e 00 19 3d 54 95 87 3d
       -0.050687447 0.29724085 0.037353866 0.06620279
0000b0 fa 21 40 3f 21 b6 05 be 15 a9 61 3e 07 87 17 3f
       0.75051844 -0.13057758 0.22037156 0.5919041
0000c0 ed 98 3b 3e 48 62 3d be 67 e8 49 3f f6 67 e2 3b
       0.18320055 -0.18494523 0.7887024 0.0069093658
0000d0 27 2d bd 3e e7 44 36 be b1 8e 86 bc 2b 4e b0 3c
       0.3694851 -0.17799722 -0.016425462 0.021521648
0000e0 34 d5 0b bd 70 71 0e 3d 1a cc 3f 3d bb 63 7f 3e
       -0.034138873 0.03477615 0.046825506 0.24940388
0000f0 55 17 9a be 15 af 8e 3d 9c e0 b7 3d 68 a4 fd 3e
       -0.30095926 0.06966988 0.08978388 0.49539495
000100 68 32 84 be 8e 0e 39 3f a0 bf c2 be 42 b2 50 3e
       -0.25819707 0.72287834 -0.38036823 0.203805
000110 2b 84 83 be 9e 50 8a be 3d 1a 01 be d1 e0 05 3e
       -0.25686774 -0.2701463 -0.12607665 0.13074042
000120 76 c4 d8 be 7e bf 9a 3d 85 79 1c 3f 55 24 47 3e
       -0.42337388 0.075560555 0.61122924 0.19447453
000130 19 0d d0 3d bd bc d1 3d 4f 13 5a 3e d6 bc 38 be
       0.10158748 0.10241077 0.21296428 -0.18040785
000140 70 37 f2 3e 60 c0 e4 3d be d8 bf 3d da d0 22 bf
       0.4730792 0.11169505 0.09367512 -0.6359993
000150 32 7b 26 be 54 f8 4d be 4d 12 0b 3e 23 5d c8 be
       -0.16257933 -0.20114261 0.135812 -0.39133558
000160 6a c4 c5 be 0a c5 cc bd 96 cd 6a be 06 9f 81 3d
       -0.38626415 -0.0999852 -0.22929987 0.063291594
000170 30 90 9c 3e 98 4f 85 3a 85 30 81 3d fe 10 67 bf
       0.30578756 0.0010170816 0.063080825 -0.90260303
000180 dd 4b ac be 1b 38 c1 bc 27 03 00 3f 14 18 40 3e
       -0.3365163 -0.023586323 0.5000481 0.18759185
000190 e6 5b b1 bb 94 98 af bd 2e 76 66 3e e5 68 81 bb
       -0.0054125665 -0.08574024 0.2250602 -0.003949272
0001a0 6b 7a 02 be cc e6 55 3c 7c 93 1f 3c 2f 42 20 3e
       -0.12742011 0.013055515 0.009739753 0.15650247
0001b0 4c 10 2b 3d a1 cd 93 be d6 4e a9 be 06 54 2b 3e
       0.04176359 -0.2886782 -0.3306796 0.16731271
0001c0 50 86 2d be a1 d2 a6 3f e1 9b 50 bd 3e 5c 9f be
       -0.16945767 1.3033029 -0.050929908 -0.31125063
0001d0 71 18 6c 3f c7 bc d5 3d df ef c6 3e d0 f4 39 3f
       0.92224795 0.10436397 0.38854882 0.7263918
0001e0 74 a5 a9 3d 3f be 2d bf 4a 2f 75 3f 2f ce 8d bd
       0.08283511 -0.6786842 0.9577528 -0.06924092
0001f0 b4 1f 08 3e 0f c8 0b 3c 95 ee cc bd cd 24 53 3e
       0.13293344 0.008531584 -0.100064434 0.20619507
000200 4b b6 1e bf d5 f9 d0 3d e8 36 af bd c0 c2 2f bf
       -0.61996907 0.10203902 -0.085553944 -0.6865654
000210 92 44 d5 3e 80 18 50 be 57 81 04 bf 3b a8 50 be
       0.41653877 -0.20321846 -0.51759857 -0.20376675
000220 17 08 39 bd a6 08 ca 3d 9c 59 42 3e df bb d6 bd
       -0.04517373 0.09864931 0.18979496 -0.10485052
000230 63 71 23 be 29 80 98 3d 55 57 57 bd f2 b1 8a 3f
       -0.15961222 0.074463196 -0.05257352 1.0835555
000240 b9 3e 3e bd 26 70 d5 3d 5d 66 00 bf 67 c3 7d 3e
       -0.046446536 0.10421781 -0.50156194 0.24781571
000250 6e bb a2 3d f8 78 cd be 07 2d 5e 3d c2 b1 ed bc
       0.079459056 -0.40131354 0.05424216 -0.029015426
000260 0d 1f 98 be 64 ac 1b bc ab 9c ca be 0f 2b d1 be
       -0.2971119 -0.00950155 -0.39572653 -0.40853164
000270 82 57 08 3e f0 70 93 bd 05 75 0e 3f dc ef 55 bc
       0.13314632 -0.071992755 0.5564731 -0.013057675
000280 12 cc 8b be e6 1b 84 bd a7 2b 79 3d ab ba e9 be
       -0.2730413 -0.06450634 0.060832646 -0.4565023
000290 6c 9d 14 3e 4c 34 a9 3d fa 5a e1 3d 8d 3a 07 3f
       0.14513177 0.08261928 0.110036805 0.52823716
0002a0 12 d3 82 be 8a 00 ac bc 12 bb ad 3e fe 21 ba be
       -0.2555166 -0.02099635 0.33931786 -0.3635406
0002b0 94 a8 02 bd 88 72 6c be eb 45 31 bd 0a d9 1b 3e
       -0.03189905 -0.23090565 -0.04327957 0.15219513
0002c0 39 4c 49 3f 2d f4 51 3d fb 36 be bd 78 2a 17 3e
       0.7863193 0.051258255 -0.092878304 0.14762294
0002d0 0f a0 b7 3d 53 b1 4e 3d 7c 10 78 3e 51 a3 c4 3c
       0.08966076 0.05046208 0.24225038 0.024003657
0002e0 ad 3d 1a 3e d3 6a 50 bf 85 c9 0d 3e 4f 65 9c bd
       0.1506259 -0.81413 0.13846405 -0.076365106
0002f0 c1 53 11 3f 0f 8d 16 bf 99 6b 89 be df ab c2 3e
       0.56768423 -0.5880899 -0.26839903 0.38021752

net.0.bias f4 [64]
000000 94 d8 4b be 4b a6 86 3e c4 17 84 be 97 a2 51 be
       -0.19906837 0.26298746 -0.25799382 -0.2047218
000010 14 fb 19 3e e6 a4 65 be 8c b1 46 be 29 74 3b 3e
       0.15037185 -0.22426185 -0.19403666 0.1830603
000020 d5 68 74 3e 10 6a 5d 3e 64 35 27 3e 12 18 be 3e
       0.23868115 0.21622491 0.1632896 0.3712774
000030 1b 40 2a be 52 a0 46 3e 68 59 15 be 78 79 43 3e
       -0.16626017 0.19397095 -0.14584887 0.19089305
000040 67 c4 57 3e 22 ec 9b be 70 66 89 3e 4b 8f 81 be
       0.21071015 -0.30453593 0.26835966 -0.25304636
000050 ad 04 3c be 86 29 32 3e 2e a7 43 be 49 c3 81 be
       -0.18361159 0.17398652 -0.19106743 -0.25344303
000060 d2 83 61 3e 76 97 43 3e b7 db 44 3e da 45 2c be
       0.22022942 0.19100747 0.1922444 -0.16823521
000070 e5 e9 7d be 8c 3e 42 be 33 04 92 3e bd c9 4f be
       -0.24796255 -0.18969172 0.2851883 -0.20291801
000080 d6 6f 7e 3d cc 12 58 3e b2 df 59 3e 99 82 47 3e
       0.062118374 0.2110092 0.21276739 0.19483413
000090 91 f6 3f be fd d7 2f 3e ca c7 6b 3e 56 42 34 3e
       -0.18746401 0.17172237 0.23025432 0.1760343
0000a0 97 ca 49 3e fc a1 32 be 96 24 4d be 01 ce 6d be
       0.19706188 -0.17444605 -0.20033488 -0.23223116
0000b0 8b 2c 0b 3e 09 53 85 be 8e 02 41 be 59 43 2b 3e
       0.1359121 -0.26039913 -0.18848631 0.1672491
0000c0 82 72 80 be 03 ab 47 be 3f 76 81 3e 4d 77 3b be
       -0.25087363 -0.1949883 0.25285527 -0.18307228
0000d0 38 97 46 3e 45 46 43 be cb 95 43 be 85 0a 4b 3e
       0.19393623 -0.19069774 -0.1910011 0.19828232
0000e0 24 08 4e be a1 ed 6b be 65 cd 8b 3e f3 c8 a7 3e
       -0.20120293 -0.23039867 0.2730514 0.327705
0000f0 68 2f a9 3e 8c 92 4f be e9 32 48 3e 16 99 46 be
       0.3304398 -0.20270747 0.1955067 -0.19394335

net.2.weight f4 [32, 64]
000000 82 3e a9 be 02 d4 f2 3c d2 d8 89 be 08 6f d0 3c
       -0.33055502 0.029642109 -0.26923233 0.025443569
000010 61 f7 01 3e 76 93 da be a9 9c 62 be 8e 49 14 3f
       0.12692024 -0.4269063 -0.22130074 0.57924736
000020 10 3a c6 bc f9 ea bb 3d b6 8c e6 bb 60 d8 d1 3e
       -0.024197608 0.09175677 -0.007035817 0.40985394
000030 54 9d cf 3d 0b 2e b4 3c 64 80 cc be 36 8d c3 bd
       0.1013743 0.021994611 -0.39941704 -0.09548418
000040 ea 5f 43 3e e3 a5 f7 bc ac 0a 83 3e d4 df f2 be
       0.19079557 -0.030230468 0.2559408 -0.47436392
000050 a5 99 0a bd d0 59 06 3e 5c a5 10 bd 31 06 c2 be
       -0.033837933 0.13120198 -0.03531395 -0.3789535
000060 7b 40 dc 3e 87 3c 17 be f7 d5 e5 bc 19 7b 8f bd
       0.43017945 -0.14769183 -0.028056128 -0.07005901
000070 61 bb fa bd 86 19 cc be 66 02 ba 3d 85 38 cf bd
       -0.12242771 -0.39863223 0.09082489 -0.10118202
000080 d6 fe ba 3e a3 fa 39 3e f7 51 ec 3e b4 50 ab 3e
       0.3652255 0.18162017 0.46156284 0.3346001
000090 04 8b 3f bc c0 37 02 3d 07 6c 54 be bc 28 05 3f
       -0.011690859 0.03179145 -0.20744334 0.5201528
0000a0 f9 ac 5d 3e 94 94 28 be ae 12 de 3d 13 04 8d bd
       0.21648015 -0.16462928 0.108434066 -0.06885543
0000b0 c0 bf af bc 7e 39 bf be 79 a1 65 bc 05 33 62 3e
       -0.021453738 -0.3734855 -0.014015549 0.22089775
0000c0 6f 00 b0 bd 41 2b 54 be 8f cb 68 3e 6d 55 67 be
       -0.08593833 -0.20719625 0.22733901 -0.22591181
0000d0 34 36 3b be 95 9e 73 be bf d4 3b be 11 64 54 3d
       -0.18282396 -0.23790963 -0.18342875 0.051853243
0000e0 69 62 8c 3e e2 c1 99 be 88 35 bb bd f9 16 2e 3e
       0.2741883 -0.30030733 -0.0914107 0.17000951
0000f0 06 fb 8c bc 3a b5 0f bf c8 0d 83 bd bf 50 01 bf
       -0.017209541 -0.56135905 -0.06399113 -0.50513834
000100 6d 99 c7 3d f3 85 e4 bd 03 27 ac bd 3a 07 4f be
       0.097460605 -0.11158361 -0.084058784 -0.202176
000110 49 2f 90 3e 8d d2 82 bd c9 5c a5 be 6e 64 5b 3d
       0.28161076 -0.063878156 -0.32297352 0.053562574
000120 1f 37 a1 3e 80 ee 44 be 94 38 87 3e 70 0f 68 3e
       0.31487367 -0.19231606 0.26410353 0.22662139
000130 68 9c ac bd 15 ce bc bd c1 95 5b 3c bd 53 10 3f
       -0.084282696 -0.092189945 0.013402403 0.56377774
000140 f0 54 b2 3e da 9a b6 3d b9 9f 92 3e 11 3b 70 bd
       0.34830427 0.08916254 0.28637484 -0.05865008
000150 c8 7a 75 be 25 d9 f6 3d 99 b9 07 3e 3e 68 1c bf
       -0.23972619 0.12053136 0.13254394 -0.6109656
000160 64 7b c0 3d 01 d1 54 3e 3a 37 1d bd 27 4c 53 bd
       0.09398535 0.20782854 -0.038382746 -0.051586296
000170 97 ce 5b be bb 9d 4d 3d 04 11 21 3e c9 dc 77 bd
       -0.21465527 0.05019925 0.15729147 -0.06051329
000180 5e 78 d7 bd 8b 5b ef 3e 7a b5 e0 3e 0c 54 78 bd
       -0.10521005 0.4674953 0.43888456 -0.06062703
000190 72 a5 7b be 66 cb 0c 3e 0b 48 48 3e 34 ec 39 3e
       -0.24574831 0.13749465 0.19558732 0.1815651
0001a0 8d 91 39 bd 9a 2a 6d be 89 45 95 be e7 dd 98 be
       -0.045304824 -0.23160782 -0.29154614 -0.29856798
0001b0 ca ff ea bc b5 4a 04 be 17 a0 84 be 53 89 98 3e
       -0.028686423 -0.12919123 -0.2590339 0.2979227
0001c0 33 dd 2d be e3 49 9d be 91 fa 03 3f 2e 5e cd be
       -0.16978912 -0.30720434 0.5155421 -0.40110916
0001d0 41 87 46 3c 16 06 8e 3e cc f3 8a be b0 b2 68 3d
       0.012117208 0.27739018 -0.27139127 0.056811035
0001e0 3c 62 fe be d1 39 d8 bc d1 08 5c 3e 26 b1 ba bd
       -0.49684322 -0.026394757 0.21487738 -0.0911582
0001f0 46 2f a1 be 3c aa 25 be 2f 4e 06 3f 29 c8 bf be
       -0.3148138 -0.1617822 0.5246305 -0.37457398
000200 f2 e6 33 3e 92 bb 8f 3e 0a 60 1c bd 54 33 3d be
       0.17568567 0.28072792 -0.038177527 -0.18476611
000210 bd 66 a9 be 9f d0 e2 be 3c e0 1b be cb 97 32 3e
       -0.33086196 -0.4429979 -0.15222257 0.17440717
000220 f5 bc 70 3e 5d 54 db 3d dc 14 97 3d cc f0 8c 3e
       0.23509581 0.107094504 0.073770255 0.27527463
000230 e1 3e 27 3e 81 17 1a 3e b4 93 ae be 1d 81 70 bd
       0.1633258 0.15048029 -0.34097064 -0.058716882
000240 0e 23 04 3e 82 be 05 bf f3 eb 86 3e e3 6a a6 bd
       0.12903997 -0.52243817 0.2635189 -0.08125856
000250 ef e9 71 be 7e 79 ef 3c d6 61 72 be d9 8a c6 be
       -0.23624395 0.029232737 -0.23670134 -0.38777807
000260 9d 18 dc 3e 11 e3 64 3e e9 cb 26 3e 97 e5 48 3d
       0.42987528 0.22352244 0.16288723 0.04904708
000270 08 54 e8 be 5f ff e1 be a6 f5 ae 3e 2b 75 0a bf
       -0.4537661 -0.44140145 0.3417179 -0.54085034
000280 fc 5d 08 3d 07 92 be 3e 37 df 0f 3d f2 bc 8c 3e
       0.033292755 0.37220785 0.035124984 0.27487904
000290 32 72 0c bf 11 b8 02 3e a7 fb ff 3d a1 75 a0 3e
       -0.5486175 0.12765528 0.12499171 0.31339744
0002a0 20 75 bd be 8d 44 02 be 8b 89 d5 be bd 3b 98 bd
       -0.37003422 -0.12721463 -0.417065 -0.07433269
0002b0 81 14 68 bb 2e 44 42 bf c9 6e 07 be 41 59 d1 bd
       -0.0035412612 -0.75885284 -0.13225855 -0.10222102
0002c0 05 58 30 be a3 c9 31 be 3e d2 40 3c 0b 61 38 bc
       -0.17221077 -0.17362075 0.011768876 -0.011253606
0002d0 35 31 df bd 04 f1 29 be 35 63 91 bd 22 a6 c8 3e
       -0.10898057 -0.16595846 -0.07099 0.3918925
0002e0 88 83 96 be ad 0b a5 bd 8e 67 30 bd 1a 96 69 3e
       -0.29397225 -0.080588676 -0.043067507 0.22811165
0002f0 bc 07 e5 3e 5a 17 80 3e 39 dc 33 3f 19 1e 4e be
       0.44732463 0.25017816 0.7025791 -0.20128669
000300 8c 04 8e be 94 23 6c be 6b 2b 38 be 57 b1 98 be
       -0.27737844 -0.23060447 -0.17985313 -0.298228
000310 f5 d9 f8 3e 4c cd 03 be 7a f3 82 3c 78 32 21 3e
       0.48603788 -0.12871283 0.01598524 0.15741909
000320 ad e2 be bd fd c9 c3 3e 8e 36 cf be 6f 0b 0d 3e
       -0.09320579 0.38240042 -0.4047131 0.13773893
000330 d3 e7 ec be 57 f1 c7 3e 32 51 2d 3e e2 d6 ec 3e
       -0.46270618 0.39051315 0.16925505 0.46257693
000340 82 cf 3c be 74 8c 5e be c0 9d f8 3d 81 96 84 bc
       -0.18438533 -0.21733266 0.121394634 -0.016185047
000350 07 f4 23 3e 8f 53 30 be 54 a8 b6 3d 1b 34 91 3d
       0.16011058 -0.17219375 0.08918825 0.070900165
000360 69 76 2a 3f 84 46 08 3d 3f 06 21 be e7 d5 b4 3d
       0.6658693 0.033270374 -0.15725039 0.08829861
000370 a0 de 07 be 40 b2 e4 bd 28 44 b5 3d b6 c0 09 bf
       -0.13268518 -0.11166811 0.088508904 -0.5380968
000380 f7 68 85 be db 33 06 bc 9e 07 b8 3e 69 22 27 3e
       -0.26056644 -0.008191074 0.3594331 0.1632172
000390 f1 97 52 bd 1e 94 eb 3e 91 33 9f 3e 28 d4 c9 bc
       -0.051414434 0.46011442 0.3109403 -0.024637297
0003a0 d2 45 23 3e fc 31 3e be 8f af 5b bd 8c 3c de bd
       0.15944603 -0.18573755 -0.053634223 -0.10851392
0003b0 d8 af 1d 3e df 7a 7f be cc a5 8c be df a4 b6 3e
       0.1539911 -0.24949215 -0.27470243 0.35672662
0003c0 39 a5 f5 be 90 57 8e bd b2 3c 32 3e d2 62 25 3e
       -0.47977617 -0.06950295 0.17405966 0.16150978
0003d0 0d 97 81 3e d6 11 16 be 3c 81 1d 3d 56 e7 ca 3c
       0.25310555 -0.14655241 0.038453326 0.024768513
0003e0 fc 2d 43 bc 2b fd 9e be dc f0 ed 3e 86 4d 62 3e
       -0.011912819 -0.31052527 0.46472824 0.22099885
0003f0 7e 7f 79 3e e2 f1 0b be fa f5 23 3f 33 dc 62 be
       0.2436504 -0.1366649 0.64047205 -0.22154312

net.2.bias f4 [32]
000000 7b 87 c1 3c 8d e5 0a 3e c6 45 83 3e c2 3c 16 3e
       0.023624172 0.13564129 0.2563917 0.14671615
000010 c3 7a 49 be 37 68 17 3e 4a a4 23 be 28 ff 10 be
       -0.19675736 0.14785849 -0.1598064 -0.14159834
000020 da bb ab 3d b7 6a 17 be d9 a6 1b be c5 62 14 3e
       0.08385439 -0.14786802 -0.15200366 0.14490803
000030 24 dd 9e 3d f0 ea 3c be c4 55 27 3e 49 97 f7 3d
       0.07757023 -0.18448997 0.1634131 0.12089402
000040 f5 31 3d be 4e ac 34 be 98 2a 55 be cf ad 03 be
       -0.18476088 -0.17643854 -0.2081703 -0.12859271
000050 d3 c3 23 3e b0 99 36 be 25 0a f4 3d 37 ab 01 be
       0.1599267 -0.17832065 0.119159974 -0.1266297
000060 ed 56 e5 3d df 03 be 3d 94 a5 f9 bd bd f7 1e 3e
       0.111982204 0.09278082 -0.12189785 0.15524192
000070 d5 15 ec bd 35 57 29 3e 8a a4 36 3e d2 62 11 3e
       -0.11527602 0.16537173 0.17836204 0.14197853
