auto-iss-demo/orientation_agent/weights/orientation_net_700K.pt (torch, 68335 bytes, 16 tensors)

net.0.weight f4 [128, 3]
00000000: 1478 9f3e 2110 883c df65 7f3e fdd3 1f3e
00000010: 14d8 79bd 27fd b13d 3b32 c13d 94f4 83bd
00000020: 6132 e93c 15eb 73bd 98a8 1b3d 141d 8dbd
00000030: bc0f 5cbf d4c1 e5bf 40cc 9dbf 94db 273e
00000040: 09eb 2f3f 0c10 e13d d619 233d 2d4a 6bbd
00000050: 0690 113e 81cf 2fbe 425a 0cbe eb43 c440
00000060: c647 1f3d 4f55 b43e ab53 bb3e 9d57 4c3e
00000070: 16d7 4b3e 6deb 2b3d 6a82 9f3d 7110 03be
00000080: 4c94 8cbc 4844 2e3e 1665 4c3e 9555 cfbd
00000090: 18eb 6ebd 12e6 df3b 483e abbe b8b7 ce3d
000000a0: 123f 17be b615 193d 40da d1be a485 6bbd
000000b0: 0fea a33e b173 4e3e 8cb3 ed3d 3de4 b43e
000000c0: 5a93 93bd cd88 f73d 63b5 e1bc 60c2 19be
000000d0: 67ef aabc 79b1 d83d 0179 dabd 00d9 bc3c
000000e0: b14e dc3d 3280 fb3e 41f0 523f eb0b 2d40
000000f0: 2606 03bd 5095 81bd fce2 163e e80f 293e
00000100: b918 95be b1f1 6d3e 309e 163f 12e4 f33e
00000110: 2746 d13c cff9 cf3c 2a88 5ebe 93c8 823e
00000120: 7be6 c93b f96b 983c 9a55 903e 799c 7b3d
00000130: 8a03 10bf f147 95bf 264f 45be 18f0 103e
00000140: f3ec 653d 11ea 963f 6dd9 1d40 cf70 0d3f
00000150: 955a dabd 1065 723e 2afe 9c3b c88e a13d
00000160: 6c1f e9bd ad40 6f3e b9b2 27bf dc5f ae3d
00000170: a2af 2dbf 11a4 b3bd d758 bfbd 436d 0ebe
00000180: d5ac fbbe 0f2b e6bd 8421 643e 25d1 323e
00000190: a7f9 a53b ca36 443e e8b1 c43c 45c6 50be
000001a0: d7e4 f43d 02e4 e33e 30e8 d43e 51e1 5e3e
000001b0: 849b 033c e965 97bd d0ab 953d d158 063e
000001c0: 3ec0 00be a9d6 cfbe 10a8 8a3e e75e a33d
000001d0: 86e5 0a3d 3b35 edba de4e 753e ad81 75bc
000001e0: 0d09 023d e54d 82bc 9970 823d 260b 313d
000001f0: ae66 b73d 664f 86bd a20e bf3d b7fe ee3d
00000200: 5c69 5c3d 28ec 8abe 746c 94be 5ab4 07bf
00000210: 675c 503f 55df bfc0 26ab 623e 3d10 a8be
00000220: 2293 70be 89ce f1be 06f5 193e c606 88bd
00000230: 9c69 893d 04c5 303f 4774 733e cb45 8240
00000240: 8dff 733d 25e5 7c3d 8b51 303e 31e1 1bbe
00000250: f8a5 473e 0d4a 8e3b da33 303c 0ac0 c039
00000260: 49d8 9abd f71a 92bd 253c cfbd a46b 43bd
00000270: d9f3 a93c 5060 683d 7357 08be d1a0 233c
00000280: 7bb1 2d3e 462f 613e 1f50 3ebe bd57 a43d
00000290: 7115 e13d 5e45 7940 48e0 a13e 74a9 8bbe
000002a0: fcf5 5bbe b744 b6bf 4247 f6bf ccf7 8b3f
000002b0: 7dce c73f 2f46 ba3f e731 f8bc 2c16 0c3e
000002c0: 86e6 adbd f8bd 50be d777 ccbc 5a76 b93d
000002d0: d306 5ebe a379 e340 f8f6 d1be fa0f e4bc
000002e0: 2b70 30be 44ac 6ebd a9fc 11c0 9dd9 e0bf
000002f0: 8753 c9bf a214 853d 4296 a5bd 07d5 0cbe
00000300: c9ee 433f 1142 d33e 4f7b b440 dce9 01be
00000310: 65ee 5ebd c7a0 d53d 04d7 023e f4e8 be3f
00000320: aedd 793f d364 7bbd 961a e83d 9303 193f
00000330: 574c fc3d 4701 083d 2760 403e 9336 96bd
00000340: cf98 fcbc 141a 003e c3a5 913e 4aac 2540
00000350: e590 4f3f 28cf 013d 8a67 d1bd e263 febd
00000360: 0fa2 bb3f 16ef 95bd f44b 793f 8bc8 20be
00000370: e689 5d3e 1140 3b3e 742c 78bd 6d9a d93d
00000380: 6db0 04bc 6d06 613d 1f76 0740 adf1 0c40
00000390: 6204 1c3f 8add 1e3f 5e71 3740 e178 ffbc
000003a0: 0eaf d1bd 75d9 5abe 5e41 153e 973e ba3e
000003b0: b044 b540 5643 1ebe 1a22 2d3d d383 7bbe
000003c0: f416 323f 1aef 2c3f 5cce 6b3f 77cd adbd
000003d0: 360a 4d3e 36fa e5bd d0d2 ecbd ff47 6dbd
000003e0: 6a4a 72be cbdc 6bbd a2ba bcbd b2cb f13c
000003f0: 6bb7 9ebc 4717 98be 2f3f a3be a2ba 8bbe
0.311463 0.016609253 0.24941204 0.15608211 -0.060997084 0.08690863 0.09433409 -0.06443134
0.028466405 -0.059550364 0.03800258 -0.06890312 -0.8596151 -1.7949777 -1.2327957 0.16392356
0.6871801 0.10989389 0.03981956 -0.057443786 0.14215097 -0.17169 -0.13706306 6.133291
0.038886808 0.35221335 0.3658727 0.19955297 0.19906268 0.041972566 0.077885464 -0.1279924
-0.017160557 0.17018235 0.19960436 -0.10123745 -0.05832967 0.0068328464 -0.33445954 0.10093635
-0.14770153 0.03737422 -0.40986824 -0.057500497 0.3201451 0.2016132 0.116065115 0.35330382
-0.072058395 0.120866396 -0.027552312 -0.15015554 -0.020866109 0.10580725 -0.10667611 0.023052692
0.10757197 0.49121243 0.8239785 2.7038524 -0.031988285 -0.06327307 0.14735025 0.16509974
-0.29120424 0.23236729 0.58835125 0.4763494 0.025546147 0.025387673 -0.2173163 0.2554365
0.0061615086 0.018606173 0.2819031 0.06142852 -0.562554 -1.166258 -0.19268474 0.14154088
0.056134176 1.1790181 2.4663956 0.5525026 -0.106618084 0.23671365 0.004791041 0.078885615
-0.11382946 0.23364516 -0.65507084 0.085143775 -0.6784612 -0.087715276 -0.09343117 -0.13908868
-0.49155298 -0.112386815 0.2227841 0.17462595 0.0050651613 0.19161525 0.024010614 -0.20388134
0.1195771 0.44509894 0.41583395 0.21765639 0.008032683 -0.07392485 0.07308161 0.13119818
-0.12573335 -0.4059346 0.27081347 0.079770856 0.033910297 -0.0018097529 0.23955867 -0.01498453
0.031746913 -0.015906284 0.063691325 0.043223523 0.089551315 -0.06558113 0.09328963 0.11669677
0.053811416 -0.27133298 -0.28988993 -0.5300957 0.81390995 -5.996012 0.221356 -0.3282489
-0.23493627 -0.47227886 0.15034875 -0.06641917 0.067095965 0.6905062 0.23774825 4.0710196
0.059569884 0.061741967 0.17218606 -0.15222622 0.19496906 0.0043423236 0.01075455 0.00036764174
-0.07560784 -0.071340494 -0.101188935 -0.047710076 0.020746158 0.056732476 -0.13314609 0.009987072
0.16962235 0.2199069 -0.18585251 0.08024547 0.10990418 3.8948588 0.31616426 -0.2727772
-0.21480554 -1.423972 -1.9240496 1.0934997 1.560989 1.4552668 -0.030297233 0.13680333
-0.084912345 -0.20384967 -0.024959488 0.09055777 -0.2168229 7.108598 -0.41008735 -0.02783965
-0.17230289 -0.058269754 -2.2810462 -1.756641 -1.5728616 0.06498076 -0.080853 -0.13753138
0.7653623 0.41261342 5.6400523 -0.12686867 -0.05442657 0.104310565 0.12777334 1.4914842
0.9760388 -0.06137545 0.11333196 0.5977108 0.12319248 0.033204343 0.18786679 -0.07334628
-0.030834584 0.12509948 0.2844678 2.5886407 0.81080467 0.0316917 -0.10224827 -0.12421395
1.4658831 -0.07320993 0.9738152 -0.15701501 0.21634635 0.18286158 -0.06058927 0.106251575
-0.008098704 0.05493777 2.1165845 2.2022507 0.6094419 0.6205679 2.8662944 -0.03118557
-0.10238467 -0.21372016 0.14575717 0.36375877 5.6646347 -0.15455374 0.04226885 -0.24562006
0.69566274 0.6755234 0.92111754 -0.08486455 0.20023426 -0.112293646 -0.11563647 -0.05792999
-0.23661199 -0.05758361 -0.09215285 0.029516075 -0.01937457 -0.2970526 -0.31884143 -0.27290827

net.0.bias f4 [128]
00000000: 4447 9fbf d71d b23e 6430 2b3e ce14 e33e
00000010: 4441 c0bf aadc 9a3e b7be 2f3f 5ae7 d03f
00000020: 7f18 d23e 5df9 66bf c786 cabe b923 193f
00000030: ce10 7f3d d28b b83e 28d5 d0be e8be 593f
00000040: 1e38 b63e 1fab a23e 23fa 97ba 6c3b 5d3f
00000050: 92f8 0f3f cd55 56be 792c 29bf 56a9 86bd
00000060: a0d1 ab3e b547 8ebf 76f2 163f 5491 8f3f
00000070: 6616 16bd 5453 ca3e 0509 6bbf 00a9 f03e
00000080: fcca 8dbe d6de 8f3e 3975 a3bc e7de 203f
00000090: 7722 133e 051b d0be 4234 e7be 485d e2be
000000a0: acab e03d 24a6 1e3f eba9 64be d18c 31bf
000000b0: 7522 14c0 8f56 84bf eaf4 aebd 5fbf b43f
000000c0: b14e 86bf 93c7 d83d a9cb 58be ab20 97be
000000d0: e810 ddbe 5355 cb3e 6e8d 833f fce3 a93f
000000e0: 2084 4dbf 1816 ab3f fb36 5bbf a3e3 e7bd
000000f0: c0fe 4140 b76e 14bf 7e95 49c0 8836 8c3e
00000100: 60a9 3f3f d57b 113c 2340 3e3e 6bce b23f
00000110: 8dc0 813e c35d b23e 0052 8fbd 3611 683e
00000120: a454 953f 580a 143e e539 c33c 4706 0140
00000130: c9fa 6b3f e4c8 be3e 1e22 9f3f ec07 00bf
00000140: 619c 753f 194d 7ebe 9e68 09bf bb44 853e
00000150: 0fa9 0bbf 186d 4b3f b9e5 173f 9304 cdbf
00000160: 322b a3bd f210 afbf e37e 143e c43f f8bd
00000170: ff68 833e b173 d73f f5b3 f7be ddfa 133f
00000180: d90a b23f 670b 35bf eae7 46bf ccf9 39bf
00000190: 46d2 edbb 252f c53e 5975 d9be dc0a c63f
000001a0: f755 5b3e ad88 16c0 9d28 003e 0af8 133f
000001b0: 3617 653e cf58 f53e eaa6 f63e 8045 88be
000001c0: 4f47 2b3d 70d9 05be 1cb3 4cbf 1a4f d9be
000001d0: e315 5abe 8f2d 923f 297c e2bf 4921 7e3f
000001e0: dcd9 10bf 312e f73c efd1 203f d49e 003f
000001f0: 94da ecbe 848f 853c c497 9dbd 980f 443f
-1.2443624 0.3478839 0.16717678 0.4435181 -1.5019917 0.30246478 0.6865038 1.6320603
0.41034314 -0.9022425 -0.39555952 0.59820133 0.062271886 0.36044174 -0.40787625 0.85056925
0.3558969 0.3177118 -0.0011594932 0.86418796 0.56238663 -0.20931168 -0.66083485 -0.06575267
0.3355837 -1.1115633 0.58963716 1.1216226 -0.036642455 0.395167 -0.9181064 0.47003937
-0.27693927 0.28099698 -0.019953357 0.6284012 0.14368616 -0.40645614 -0.45157057 -0.44211793
0.10970244 0.6197226 -0.22330444 -0.69355494 -2.314603 -1.0338916 -0.085428074 1.4120902
-1.0492765 0.10584941 -0.2117144 -0.2951711 -0.4317696 0.39713535 1.0277536 1.32727
-0.8027973 1.3366117 -0.8563077 -0.11322715 3.0311737 -0.5798144 -3.1497493 0.27385354
0.7486782 0.0088796215 0.18579154 1.3969244 0.25342217 0.3483716 -0.06998062 0.22662815
1.1666455 0.14457071 0.023831317 2.0160081 0.9217954 0.37262642 1.2432287 -0.5001209
0.9594174 -0.24834098 -0.5367526 0.26029 -0.5455484 0.7946334 0.59334904 -1.6017021
-0.07967223 -1.3677046 0.14501528 -0.12121537 0.25666043 1.6832181 -0.48379484 0.5780466
1.390956 -0.70720524 -0.7769762 -0.72646785 -0.0072577326 0.3851253 -0.42472342 1.5472064
0.21419512 -2.352092 0.12515493 0.5780035 0.22372136 0.47919318 0.4817422 -0.26615524
0.041816052 -0.13071227 -0.799608 -0.42443162 -0.21297412 1.1420153 -1.7694141 0.9926954
-0.5658243 0.030173393 0.62820333 0.5024235 -0.46260512 0.016303785 -0.076949626 0.76586294

net.2.weight f4 [64, 128]
00000000: 0d6d 4cbd b93f 13be 08bc 4c3d 08a4 90be
00000010: dc5a 173e bfed 8fbe 0f98 3a3e 399f fcbe
00000020: 111b 2b3e 69ec c33e 359e c2bd 16d6 15be
00000030: 681a 0b3e 0822 453d 1167 efbd 5018 703d
00000040: 5123 66be 6f3a 063f bf2e afbe 7d0e d6bc
00000050: 7ccf fd3e a8d7 f83e 70a6 933e 80d0 073f
00000060: b3b1 34bd 4a69 2cbf 2f08 a4be d248 afbe
00000070: 1bd8 be3e f473 163e bf49 5c3e 5d73 f73d
00000080: 96f9 e13d 9e46 873e 2b56 2ebd e387 923e
00000090: de6e b73d 9bed b7be 6a38 21bf bc34 1cbd
000000a0: 6a2f 80bd adc9 8fbd 0bf3 cebe d9d3 cbbc
000000b0: 28d7 a83e ac36 583e ed09 0f3e a3ff cebe
000000c0: 0c5e 1b3e ce46 4dbe 944a d6be f9d5 a9be
000000d0: 4079 91bc 452f 0cbe 4914 3abd f4d2 c3be
000000e0: 98c1 373e f56f adbe 3a83 afbd 3bea dc3d
000000f0: cef9 fbbd cac6 f53d adaa 443f 0a00 32bf
00000100: edc1 a8be 590a 703e c739 4bbe e0e9 7c3e
00000110: f910 f23b 40c2 8abe ade0 513e b7de c23e
00000120: 7f6b cbbd 3d1b 673e 1340 b1be 3e35 fabd
00000130: 9619 073d 4c32 82bd b927 62be 0142 b8be
00000140: 1bba af3c af8e cdbc c687 89be a683 90be
00000150: 7e66 c03d 2a66 86be 1389 14be 2982 d03e
00000160: 50f5 0dbe 039d 4a3d d724 b9be f1cb f8be
00000170: 873a bbbe 52ce d7bc b95a 31be 9c45 893e
00000180: d572 f5be f218 7dbe 0574 f3ba 52cd 64be
00000190: 636c 37be a83f 393e bfc7 853e 4a5a 15bf
000001a0: 4188 f6be 452f 1a3f ef41 863e 56bb 33bc
000001b0: 94ec 52be de92 3b3e 8b41 5abe 3407 b93c
000001c0: 97bd 2f3e 9c4a 8a3d 1d10 ddbd e66c 91be
000001d0: 01cf 413e ca6c 08bf c0a2 833e 4572 81be
000001e0: d265 06bf eb19 e2be c7f1 ecbe c991 fabc
000001f0: 0a1f c63d b742 2cbf 934c 1bbe 54f0 6dbe
00000200: 0d02 ee3c 2201 17be 7149 d7be cdc6 063f
00000210: 8029 0ebc 1557 d2be c35b c7be 18ec 913f
00000220: 39fb 2abf 5e0d 4bbe df7d 083f 5d8b d8bd
00000230: 2042 6c3f 61f1 9bbf 7c33 7bbe db58 cabe
00000240: c628 893e eec0 8e3f 641d 55be d2bc d53e
00000250: 52ac 703f 2810 0f3f a83c 29bf 666c 803f
00000260: e49f 033e 1270 09c0 5723 4bbe 2b4c 803e
00000270: 503e da3e dae1 253f 5fc5 48bf ab43 9abe
00000280: 79d4 573d 81e9 7f3e a0d3 1abe 718e 1cbf
00000290: e7e7 853f 488d 7d3e 87c8 a8be d29b 4a3f
000002a0: 76c5 32bf a109 3fbe aa50 bc3e 644d a03f
000002b0: e848 d63d bfc4 ef3e 80ac 9fbf 51ba 9f3f
000002c0: 78a7 9e3e 0719 f7be c908 7cbf ee45 56bf
000002d0: 86d3 8c3e 296c 9b3f ef9e 9f3e c280 c8bc
000002e0: 3d5b 953e d8c9 0d3e cab2 a7bd d1d2 8a3f
000002f0: 2ab5 133b a701 2abd 9b6b 66bd c28f 3f3f
00000300: 2c51 a03f 84b8 85bf 51be 353f 656e 4b3f
00000310: 4092 68bf b77c 90bf 2ad9 31be 4cff fb3e
00000320: 9e77 a6be e739 723d 23a8 e7be 2767 213f
00000330: 7934 233e 2dfb 803e 42de 6c3f 18c0 873d
00000340: 0e0a 4cbe 7095 b53f 2528 11bf 5890 223f
00000350: 5933 63bf 5e7d fc3e 1230 d93e 5572 b0be
00000360: c49a 72bf bb32 90bd fae4 063e 8600 e8be
00000370: 0ca1 043f d4af a53e d548 7dbf a25e 2fbf
00000380: a176 2b3f 75ff 59bf 6689 f6be 372a b2be
00000390: 5114 383e af0c 34be 16f1 12be 37a7 8a3f
000003a0: 9b05 8a3d 83f7 58be 681c c63e a0e8 8dbe
000003b0: 8b20 033f 13ec 80bf a445 2a3b 3c18 60bf
000003c0: 0542 113f dec6 b63e cad3 20c0 9d12 18bf
000003d0: 028d 1cbe 21e7 803e 2cd6 063e 1ece 03be
000003e0: da53 573f 6ae1 9bbe 38d3 65bb 039c 4dbf
000003f0: d34e 03bd ba37 7f3f a6be 8fbf e870 1cbe
-0.049908686 -0.14379777 0.049984008 -0.28250146 0.14780754 -0.28111073 0.18222068 -0.49340227
0.16709544 0.38266304 -0.09502832 -0.14632449 0.13584292 0.048128158 -0.1168958 0.058616936
-0.2247441 0.5243291 -0.34215352 -0.026129955 0.4957236 0.48602033 0.2883792 0.5305252
-0.04411478 -0.6734816 -0.32037494 -0.34235245 0.3727425 0.1469267 0.21512507 0.12082551
0.11033933 0.26421064 -0.042562645 0.28619298 0.08956693 -0.35923466 -0.62976706 -0.03813623
-0.062590435 -0.070208885 -0.40419802 -0.02488129 0.3297665 0.21114606 0.1396863 -0.4042941
0.15172595 -0.20046541 -0.41853774 -0.3317106 -0.017758012 -0.13689907 -0.0454295 -0.38246882
0.17944944 -0.3387448 -0.08569951 0.107868634 -0.12303506 0.12000807 0.7682293 -0.6953131
-0.32960454 0.23441447 -0.19846259 0.24698591 0.007387277 -0.27101326 0.20495863 0.38060543
-0.09932613 0.22568984 -0.34619197 -0.122171864 0.032983385 -0.063572496 -0.22085465 -0.35987857
0.021451047 -0.02509245 -0.268614 -0.2822544 0.09394549 -0.2624982 -0.14505415 0.40724304
-0.1386311 0.049466144 -0.3616092 -0.48593095 -0.3656809 -0.026343498 -0.17319764 0.2681092
-0.47939172 -0.24716547 -0.0018574005 -0.22343948 -0.1791244 0.18090689 0.26128957 -0.58340895
-0.48150828 0.6022838 0.26222178 -0.010969957 -0.2059806 0.18317744 -0.21314065 0.022586443
0.17162167 0.06752512 -0.10794089 -0.28403395 0.18926622 -0.53291 0.25710106 -0.25282493
-0.52499115 -0.441604 -0.4627821 -0.030587094 0.09673889 -0.672893 -0.1516593 -0.23236209
0.029053712 -0.14746526 -0.4204822 0.52647096 -0.008676887 -0.41082063 -0.38937196 1.1400175
-0.66789585 -0.19829318 0.53317064 -0.105734564 0.922884 -1.2183038 -0.24531358 -0.39520916
0.2678892 1.1152627 -0.20811993 0.4174562 0.9401294 0.5588403 -0.6610818 1.003308
0.12853962 -2.1474652 -0.198377 0.25058112 0.42625666 0.6479775 -0.78426164 -0.30129752
0.052692864 0.24991418 -0.15119791 -0.6115485 1.0461396 0.24760926 -0.3296549 0.7914401
-0.6983255 -0.18656017 0.36780292 1.2523618 0.104631245 0.46829793 -1.2474518 1.2478734
0.30987144 -0.48261282 -0.98450905 -0.83700454 0.2750513 1.2142383 0.31175944 -0.024475459
0.29171172 0.13846529 -0.08188398 1.0845586 0.0022538402 -0.041505482 -0.056254964 0.7482873
1.2524772 -1.0446935 0.70993525 0.79465324 -0.9084816 -1.128806 -0.17367998 0.49218214
-0.32513136 0.05913725 -0.45245466 0.63048023 0.15937985 0.25191632 0.9252664 0.06628436
-0.1992571 1.418623 -0.5670188 0.635015 -0.88750225 0.49314398 0.42419487 -0.34462228
-0.94767404 -0.07040926 0.13173285 -0.453129 0.5180824 0.3236071 -0.9893926 -0.68503773
0.6697789 -0.8515542 -0.48151702 -0.34797832 0.179765 -0.17582963 -0.1434978 1.083228
0.067393504 -0.21188168 0.38693547 -0.2771654 0.5122153 -1.0072044 0.002598145 -0.8753698
0.5674136 0.356986 -2.5129266 -0.594034 -0.15288165 0.25176337 0.13167638 -0.12871596
0.8411232 -0.30445415 -0.0035068523 -0.8031618 -0.032057595 0.99694407 -1.1230056 -0.15277445

net.2.bias f4 [64]
00000000: 5a94 babe 3d6f b6bc 3621 f7bc fb9c 963c
00000010: a054 c03b 9f32 8fbd b4f5 783e a0b0 48be
00000020: ff85 823d fdb4 14be 2244 df3c d5b3 20be
00000030: a6c2 933e b327 60be f210 a2bc cb31 ad3d
00000040: 8a74 863e af78 2d3e 00d2 9f3e 3354 a93e
00000050: 552b 93bd df10 e23d db3e 4abe c76f 82bd
00000060: ab80 ee3d 0bef 1c3e fcf3 99bd b4b6 89bc
00000070: 6692 b4bd 6082 95be f06c 2c3e 829f b6bd
00000080: bfa1 cf3c 53b5 97be 61fb a2be 3cfe 45bd
00000090: f94a 233c 10bb d3bd a0cc e5bd f26c 4b3b
000000a0: fddd 50be c745 6e3b 3395 4abd a45e 923a
000000b0: a527 3c3d 2616 1e3e b135 13be a01c 0fbc
000000c0: 4aea 753e edc8 553e 5f46 b8bd c158 e73d
000000d0: ecbb 24be 6ed7 103e e1f8 823e 4505 febe
000000e0: 4555 bcbd c21e a1bf f45f 5d3d 291b 053f
000000f0: 4416 c1bd c3c5 84bc 7a81 8abd da4c 153e
-0.36441308 -0.02226984 -0.030167203 0.018385401 0.005869463 -0.06992077 0.24312478 -0.19598627
0.06373214 -0.14522167 0.027254168 -0.156936 0.28859442 -0.21890144 -0.01978347 0.08456763
0.26260787 0.16940568 0.31214905 0.3307205 -0.07185999 0.11038374 -0.1975054 -0.06368976
0.11645635 0.15325563 -0.075172395 -0.016810752 -0.08816986 -0.2920103 0.16838431 -0.089171425
0.025345681 -0.29630527 -0.31832412 -0.04833816 0.009966605 -0.10338414 -0.1122067 0.0031040278
-0.20397182 0.0036357509 -0.049458694 0.0011167121 0.045936245 0.15438136 -0.1437595 -0.008734852
0.24015155 0.20877428 -0.08997797 0.11296225 -0.16087312 0.1414468 0.25580505 -0.49613395
-0.09195951 -1.2587512 0.054046586 0.5199457 -0.09428075 -0.016207581 -0.06762977 0.14580098

net.4.weight f4 [64, 64]
00000000: a6c0 2ebc fceb ac3f a158 00c0 99c5 82be
00000010: 4a04 cc3d ec1f ab3e e898 2abf 9336 0b3f
00000020: 5092 79bf 5b3e ba3d bb30 5bbf 4aea a4bf
00000030: 501e 6c3e 8bbb 46be da11 1e40 c402 263e
00000040: 6fc4 1dbf e313 35bc 9eed 993e 27fe 97bf
00000050: aebe a8be 3c10 1bbe ce31 2c3d 2a2e 15be
00000060: 308a b23c edf2 17bf 6120 b7be 90ee 9d3d
00000070: 1bce 01be c83e 1d3b 1ca2 00bf 3881 18be
00000080: f959 853f 644d eebe e381 d2be 9f88 06be
00000090: 64de 9a3e 12f8 5e3e 8d13 1b3f b44e f5be
000000a0: 017b a6bf 2c09 b63c e84f 6d3e 4759 503f
000000b0: 0cd1 3abf bb6b dcbe 031f fabd 4a7d 8d3e
000000c0: 6e59 133d 515b c83d 6504 03bf 8dd2 523e
000000d0: 2d21 b3be bc4c 89be 0225 65bd 1f43 e83c
000000e0: d06b 79bf 7143 d0bf 1897 333e b70a 6dbd
000000f0: 5ae5 2bbf e92a bfbe 5939 34bf dc62 cc3e
00000100: a7e2 453d 9733 6a3e 4e90 f73f 24a2 b53f
00000110: dec0 f93d 2309 0abf 2282 503e 0e88 fbbe
00000120: 69a4 1bbf 6621 11be 90ad b9bf 8506 04bf
00000130: c5cb af3e 3831 2cbd fba1 f7be 607a 013e
00000140: 9fb4 e0bd dbbd 773f 1216 0dbe 5fe2 92bd
00000150: 8f72 fc3e ee96 f5bd cd25 583f 7401 db3e
00000160: 9d9c 103d 3c64 233f 0e05 a4be 1d36 e13d
00000170: 59d8 33bf 3829 133f 554a 9cbf 367d 383e
00000180: 9556 5d3f 3aae a13e 3500 023e b8d8 d6bd
00000190: a729 6fbe bea0 aa3d fe6f 0b3e 02ee a0bf
000001a0: f62e cb3e 44cb b83e b77c 2dbe 3865 e9bc
000001b0: 6ab4 17bf 34d8 88be b834 ba3e 726f 3d3f
000001c0: 5240 24bf 9321 243f ea7a 513f edaa 1b3f
000001d0: 44a3 093e 31c9 263f 1af9 6ebe b664 52bd
000001e0: 8ab0 983d a614 8dbe 45df 563f a1c6 d43e
000001f0: 9d70 64bf 1810 a83e 3348 163e 8bb9 7dbe
00000200: c46d 71be f4d1 8dbe 6938 383e 1333 b63e
00000210: aac5 a1bd 1018 4ebe 7adc b8bf 05c0 053e
00000220: 3552 7e3e f0a0 883f b19d 66be 973f 18bf
00000230: 7364 62be 67f8 a4be f018 4d3e 8307 e43e
00000240: 1383 26bf 2c7e 17be 8008 3b3e 6d9b a53e
00000250: 7e06 6ebe eb7f b0bf 1fff 8bbf 0895 bb3d
00000260: dc41 d3be 024f 5e3f e40a 06be a813 543f
00000270: 6dbd 073e 587b dfbe fca4 d73e 1e96 0c3f
00000280: 2fd6 8e3f ef9e 9abf e5bb 13bf 1050 013e
00000290: 02b4 0240 a9f4 843e bdd2 003e b24f 6cbe
000002a0: a45f 923d 72c2 30be dbf1 12bf ffad 0a3f
000002b0: dbe5 9dbe 8d96 ad3f 5da4 643e 8a19 57be
000002c0: a3ee 773e a48b 333f e4b0 bb3e f478 0b3f
000002d0: 8e33 b13e 76d8 1fbe e988 983e 17b5 ce3c
000002e0: 33f3 943d 87e7 02bf 86d5 0e3f 24e4 eb3e
000002f0: 7779 0c3f 4260 2bbe 9232 0a3f ea84 f6bd
00000300: 819c c13e 951b 79bf 7146 b03f 9bf1 0ebf
00000310: 0221 a43e 5e01 b9bf 4403 5b3f 62a1 a23d
00000320: ba39 18bf b6a9 58bf b4c0 01bf 2ede e4bd
00000330: b82f ec3c c3f3 dd3f 2600 a5bc a0ef bf3e
00000340: 0a5b 18bd e64e 123f aa20 b03e 53d7 87be
00000350: f822 773e 8be6 693e 7408 afbe c602 143f
00000360: da5c a03d 0010 983e b2b1 3b3e 7df1 cd3e
00000370: 657e aa3e 30f6 8fbf e4ac 00bf cd49 363e
00000380: 6b31 70be 9c80 553e bc45 813f c258 a13e
00000390: 2413 76bf b156 81be 5e8d 613e 5d6f 78be
000003a0: 9dbf 8abf 997e 503d 867a d03e 386f 9bbc
000003b0: 1a93 babe 2c2c f3be f11c ae3e 7e28 8cbf
000003c0: b2d4 43be b5dd e63e e80e b23d edcd c3be
000003d0: 2531 0ebf 0d9a 54be 535b e7bf 1526 dc3e
000003e0: 3c65 c13e bcc6 f53d c859 8cbe c438 413d
000003f0: d3a8 0e3e f5be 02bf 8e67 4a3b 5932 43be
-0.010666048 1.3509517 -2.0054095 -0.2554138 0.099617556 0.33422792 -0.66639566 0.5438015
-0.9748888 0.090939246 -0.8562123 -1.2883999 0.23058438 -0.1940748 2.4698396 0.16211993
-0.6162786 -0.011052105 0.300641 -1.1874436 -0.32957977 -0.15142912 0.042039685 -0.14568391
0.021794409 -0.5935505 -0.3576689 0.07711518 -0.12676279 0.002399372 -0.5024736 -0.14893043
1.0418082 -0.4654342 -0.4111472 -0.13138054 0.30247796 0.21774319 0.6057671 -0.47911608
-1.3006288 0.02222117 0.23175013 0.81386226 -0.7297523 -0.43050942 -0.12212946 0.2763465
0.03597396 0.09783042 -0.5117858 0.20588131 -0.3498625 -0.26816356 -0.055943497 0.028352318
-0.97430134 -1.6270581 0.17538106 -0.057871547 -0.6714684 -0.37337425 -0.70400006 0.39919174
0.048311856 0.22871242 1.9340913 1.4190106 0.121949896 -0.5392019 0.20362142 -0.4912724
-0.60797745 -0.14172897 -1.4506092 -0.5157245 0.3433515 -0.042039126 -0.4836577 0.12644339
-0.10971951 0.9677407 -0.1377795 -0.07172083 0.4930615 -0.11991678 0.8443268 0.42774546
0.035305608 0.6382482 -0.32035106 0.109966494 -0.70251995 0.5748477 -1.2210184 0.18016514
0.8646024 0.31578237 0.12695391 -0.104905546 -0.23355733 0.083314404 0.1361694 -1.2572634
0.39684266 0.3609258 -0.16942106 -0.028490648 -0.59259665 -0.2672745 0.36368346 0.7399818
-0.64160645 0.6411373 0.81828177 0.6080769 0.13441187 0.65150744 -0.23337212 -0.051365577
0.07455547 -0.27554816 0.8393443 0.41557792 -0.89234334 0.3282478 0.1467598 -0.2477781
-0.23577029 -0.27699244 0.17990269 0.35585842 -0.078990296 -0.20126367 -1.4442284 0.13061531
0.24836047 1.0674114 -0.22521092 -0.5947203 -0.22108631 -0.32220766 0.20029044 0.4453698
-0.65043753 -0.14794225 0.18264961 0.32345143 -0.23244664 -1.3789037 -1.0937232 0.09159285
-0.41261184 0.86839306 -0.13090092 0.82842493 0.13255854 -0.4364879 0.4211806 0.5491656
1.1159114 -1.2079753 -0.5770858 0.12628198 2.0422368 0.2596791 0.1258039 -0.23077276
0.07147148 -0.17261675 -0.5740029 0.54171747 -0.30839428 1.356157 0.22328325 -0.21005836
0.24212126 0.7013495 0.36658394 0.54481435 0.34609646 -0.15609917 0.29791954 0.025232835
0.07272949 -0.5113453 0.5579456 0.46072495 0.5487284 -0.16735938 0.53983414 -0.1203707
0.37814716 -0.9730771 1.3771497 -0.5583741 0.32056433 -1.4453542 0.8555186 0.079409376
-0.59463084 -0.8463396 -0.50684667 -0.1117519 0.028831348 1.7340015 -0.020141672 0.37487507
-0.037196197 0.5715164 0.3439992 -0.26531467 0.24134433 0.22841851 -0.34186137 0.5781673
0.0783021 0.29699707 0.18329504 0.40223303 0.33299556 -1.1247005 -0.5026381 0.1780159
-0.23456351 0.20849842 1.0099406 0.3151303 -0.96122956 -0.25261453 0.22026584 -0.24261232
-1.0839726 0.050901983 0.40718478 -0.018973932 -0.36440355 -0.47494638 0.34006456 -1.0949857
-0.19124106 0.45091024 0.086942494 -0.38243046 -0.5554374 -0.2076189 -1.8074745 0.42997804
0.37772548 0.12000796 -0.27412248 0.047173277 0.13931589 -0.5107263 0.0030884477 -0.19062175

net.4.bias f4 [64]
00000000: 8a3c 833e cfde fc3d 28c0 cc3d b4fb 8bbe
00000010: 1786 7fbe b564 a6bd 51f4 fabe d9a7 9f3d
00000020: 664d aabe 9e79 90bd 7ad3 79be 4f30 45be
00000030: e8b6 a03e c3a7 a33e 0383 873e 0bf6 b63e
00000040: 5dd1 8ebc 455c 78be 4e44 4b3e 109c 75be
00000050: bb4e b23e f973 a8be f951 e53e 50e2 023f
00000060: 09a0 b5be 3c00 ce3e 6bca 98be a145 b3be
00000070: 1fed cfbc 934b dcbd 8639 b0be b997 8cbe
00000080: 308d 8abb 3879 91be aaf4 28be ec81 1c3e
00000090: f14c 0abe 79dc 49be 6385 e5bd bb92 92bd
000000a0: 4abe 7f3c 917d 383d a3ca 983e dabd 0dbe
000000b0: 1f17 2bba 35a8 2a3e 4fc5 ef3e 5a41 f2bd
000000c0: fd3e 4e3e 2b3f 55be b990 8dbe 55ee 7fbe
000000d0: 25ad a8be 4432 883e 92d4 ca3e dbcd 1e3e
000000e0: b925 a6bd efcf ddbe b188 0bbe 7aad 82be
000000f0: 4f84 453e 0e48 81be 7305 4cbe ad8b 003f
0.25632125 0.12347185 0.099975884 -0.27340472 -0.24953495 -0.08124677 -0.49014524 0.07795686
-0.33262175 -0.07054447 -0.24397078 -0.1925671 0.31389546 0.3196393 0.26467142 0.3573459
-0.017433817 -0.24253948 0.19850275 -0.23985314 0.34825692 -0.3290098 0.44789103 0.51126575
-0.3547366 0.40234554 -0.29841933 -0.3501406 -0.025381623 -0.10756602 -0.34418887 -0.27459505
-0.0042282566 -0.28412795 -0.16499582 0.15283936 -0.13505913 -0.1971301 -0.11207082 -0.07156893
0.015609333 0.045041624 0.298421 -0.13841954 -0.00065265776 0.16665728 0.46830222 -0.11828871
0.20141216 -0.20824878 -0.27649477 -0.2499326 -0.329446 0.2660085 0.39615303 0.15508215
-0.08112664 -0.43322703 -0.13626362 -0.25522977 0.19288753 -0.25250286 -0.19923954 0.5021313

action_head.0.weight f4 [3, 64]
00000000: a916 473e 8faa 953d f379 943e 109f 103c
00000010: 194a 07be 5d8d d8be 5231 b23d 10dc 4abe
00000020: d4b0 aa3d 8409 8abd 0eb7 06be 8b09 0fbe
00000030: ee6f 973c 0d0d b73b d3f7 2d3d 70d4 583e
00000040: 7064 173e 9866 15be d3b5 823e c317 e2bd
00000050: 32a2 0d3e 54c4 05bf 6bf4 883d 7a16 83be
00000060: d42d e63c a2a7 cbbd 04d4 9c3d b32a 82be
00000070: 9965 173e 5b57 3d3b 1005 81be 7f16 0cbe
00000080: d59f 1fbc 803c c4bc bbce 93be 55a4 d3bd
00000090: bdb8 5fbe c3e7 dbbd e96d 28be a3bd fbbc
000000a0: 4470 b5bd 8fb7 513e 6330 763e ce51 44be
000000b0: f14c 52be d77f 32bd 747a 433d dd24 32be
000000c0: 4efd bfbd 0210 c63e 366b d5be 51cb 87bd
000000d0: c9e0 263d 7307 9d3d eb0e 5d3e 39c6 c3bc
000000e0: 7e21 62bd 8d30 71be ba33 443c a393 d7bc
000000f0: 8256 fbbd 89af 61bd a6c9 b5be 902b 3a3e
00000100: 42ff 813e 4d55 a5bd 8fca ad3e 1b50 9a3d
00000110: 6e2e cebd fc4a a7be e27a 1c3c bf5b 84bd
00000120: 0eb0 79bd d0c2 25be 8de0 13be a028 53be
00000130: b7d7 a13c 42ad d5bd 0a2e 053e 702d c93d
00000140: 984e 2f3e d98c 51be 70d9 2d3e 1500 4bbd
00000150: 69e3 5e3e 5ef2 c4be 6fb2 c73d 231c 64be
00000160: 4fda c6bc 9e85 183e ce59 e23d 4d0d 77be
00000170: ed9c 1f3e ed77 12be b730 3fbe 54af d1bd
00000180: 3184 0b3e ea4c 8abd 7ea9 7cbe 4d87 52bd
00000190: 3e08 7cbe 7157 9fbd 87f8 2dbe 6320 d0bd
000001a0: 9628 dc3d 2f9e 153e 8849 823e 13c9 9bbd
000001b0: 2647 6fbe 0322 7dbd ea34 283b e9f4 c3bd
000001c0: 4b42 37bd 2fc0 883e 873c cbbd 0c08 0cbe
000001d0: d14c c13c 57ab 6f3e c6e9 813e 35a5 703e
000001e0: d7b2 583c fcc2 76be bfa0 01be 7526 29bd
000001f0: 04ad 83bd 4d03 e3bd e941 bbbe d5ae ce3d
00000200: af12 6f3e cf78 27be 8301 783e 4beb 81bc
00000210: 9d8a 86bd 3cc0 a9be aefd d3bd 2fdd 5dbe
00000220: 3745 263d 859a 09be 36aa 2ebd a289 19be
00000230: c8c3 103d 042c 9bbd 1bb1 b73d ac47 2f3d
00000240: c4d3 383e 5902 63be 0ae7 fe3d fc6f 92bc
00000250: c175 073e df5a 83be c58d fc3d fe8e 80be
00000260: 4a4f 4b3d 6412 093c c1c2 7c3d dffc 75be
00000270: c8a3 973e cffa eabd 487f 3abe b804 8ebe
00000280: 01d9 1c3d 3c48 7abd 4a6b 3ebe a1d8 ebbd
00000290: f1ca 34be 97bd c6bd 6e88 09be 86c9 89bd
000002a0: 9bb9 90bc 895f 433e e7db 763e 5fe9 24be
000002b0: 6c39 98be 7bd0 26bd 5ace 24bc d384 24be
000002c0: 222c 273d 76c5 693e e57b 59be e649 41be
000002d0: 0005 c9bc 15e1 143d f563 943e 3b29 a93d
000002e0: e5f1 8dbd cd8c 66be f00d 4abd da5b 12bd
000002f0: c68e c6bc 2df4 ffbd 80c3 babe e364 1e3e
0.19442238 0.07307922 0.2899929 0.008826986 -0.1321186 -0.42295352 0.08700813 -0.1981051
0.083345085 -0.06740096 -0.13155767 -0.13968484 0.01848599 0.0055862726 0.04247267 0.21174788
0.14784408 -0.14589918 0.25529346 -0.110396884 0.13831404 -0.522527 0.06687244 -0.25603086
0.028098024 -0.09944083 0.07657626 -0.25423202 0.1478485 0.002889118 -0.25199175 -0.13680457
-0.009742697 -0.02395463 -0.2886866 -0.10334078 -0.21847816 -0.107375644 -0.16448177 -0.030730074
-0.088593036 0.20480178 0.24041896 -0.19171831 -0.20537163 -0.04357895 0.047724202 -0.17396875
-0.09374486 0.38684088 -0.41683358 -0.066305764 0.040741716 0.076674365 0.21587722 -0.02389823
-0.055207722 -0.23553677 0.011975223 -0.026315516 -0.122723594 -0.055099044 -0.35505408 0.1818068
0.2539006 -0.080729105 0.33943602 0.0753481 -0.100674495 -0.32674396 0.009550782 -0.06462812
-0.060958914 -0.16187596 -0.14441128 -0.20620966 0.019756181 -0.10433437 0.13005844 0.0982312
0.17119825 -0.20463885 0.16977477 -0.049560625 0.21766438 -0.3846616 0.097508304 -0.22276358
-0.02427402 0.14894721 0.11052285 -0.24126168 0.15587206 -0.1430356 -0.18670927 -0.10238519
0.13624646 -0.067529514 -0.24674031 -0.051398564 -0.24612519 -0.0778035 -0.16989337 -0.10162427
0.10749929 0.14611124 0.25446725 -0.07606711 -0.23366985 -0.061800014 0.0025666305 -0.09568197
-0.044740956 0.26709124 -0.09923654 -0.13674945 0.0235962 0.23405205 0.25373667 0.23500521
0.0132262325 -0.24097818 -0.12658976 -0.04129644 -0.064294845 -0.11084614 -0.36573723 0.1009194
0.23346971 -0.16354679 0.24219327 -0.015859267 -0.06569407 -0.33154476 -0.1035112 -0.21666406
0.040593352 -0.13437851 -0.042642795 -0.14993909 0.03534296 -0.07576755 0.08969327 0.04279296
0.18049532 -0.22168864 0.12446411 -0.017875664 0.13228513 -0.25655267 0.12331728 -0.25109094
0.049636163 0.008366201 0.06170917 -0.24022244 0.29617143 -0.11473619 -0.18212616 -0.27737975
0.03829289 -0.061104044 -0.18595615 -0.11515928 -0.17655541 -0.0970413 -0.1343095 -0.06727891
-0.017666629 0.19079413 0.24107324 -0.16104649 -0.2973131 -0.040726166 -0.010058964 -0.16066293
0.040813573 0.22829232 -0.21238668 -0.18875846 -0.024538517 0.036347467 0.2898251 0.08259817
-0.06930903 -0.22514649 -0.049329698 -0.035732128 -0.024238002 -0.12497745 -0.3647728 0.15468173

action_head.0.bias f4 [3]
00000000: 5404 4b3e 4f10 24bd 3f85 013e
0.1982587 -0.040054616 0.12648486

value_head.weight f4 [1, 64]
00000000: f78c d942 b6d7 d9c2 9ab3 d942 55c3 d9c2
00000010: a375 d9c2 a7a2 d9c2 c27c d9c2 711b d9c2
00000020: a163 d9c2 42ab d9c2 de96 d9c2 7fe7 d9c2
00000030: e708 da42 0d25 da42 e349 d942 0290 d942
00000040: 4e71 d942 8cd4 d9c2 a85f d942 f0fe d9c2
00000050: c7bd d942 55a1 d9c2 2806 da42 17f8 d942
00000060: 7776 d9c2 3a97 d942 be92 d9c2 da89 d9c2
00000070: b285 d942 1961 d9c2 a89b d9c2 0b9c d9c2
00000080: ee87 d9c2 1180 d9c2 daa6 d9c2 5772 d942
00000090: c066 d9c2 9262 d9c2 c780 d9c2 22bb d9c2
000000a0: 29c7 d942 1fab d942 2cd4 d942 1555 d9c2
000000b0: 3a79 d9c2 fe0b da42 f19d d942 611b dac2
000000c0: 65e2 d942 ebed d942 305b d9c2 bf9b d9c2
000000d0: 7c8d d9c2 9190 d942 9d80 d942 6363 d942
000000e0: 62c0 d9c2 1523 dac2 2594 d9c2 dda7 d9c2
000000f0: dffa d9c2 187e dac2 ebf0 d9c2 3ea3 d942
108.77532 -108.92131 108.850784 -108.88151 -108.72976 -108.81768 -108.74367 -108.5536
-108.69459 -108.83449 -108.79466 -108.95214 109.01739 109.072365 108.64431 108.781265
108.7213 -108.91513 108.68683 -108.997925 108.87066 -108.8151 109.012024 108.98455
-108.73138 108.795364 -108.786606 -108.76924 108.76112 -108.689644 -108.804016 -108.80477
-108.76549 -108.75013 -108.82588 108.72332 -108.70068 -108.69252 -108.75152 -108.86549
108.888985 108.83422 108.9144 -108.666176 -108.73677 109.02342 108.80848 -109.053474
108.94218 108.96468 -108.6781 -108.80419 -108.77634 108.78236 108.7512 108.694115
-108.87575 -109.06852 -108.789345 -108.82786 -108.98998 -109.24628 -108.97054 108.81883

net.0.weight f4 [64, 3]
00000000: e354 3f3e 962c c9bd 5b4e 8a3d 80eb 803e
00000010: bbd4 afbe 8670 b43d 5986 d9be f907 ca3e
00000020: b26d 53bf 9700 493e 741b b73d a664 5cbf
00000030: cf89 dfbe a975 e6bd e6a2 b43a 98c0 62be
00000040: 7e95 243e 1dab 413e e57c 0e3f e390 963d
00000050: d4f5 0ebe cf3c 653e c200 883e bada d7be
00000060: 0deb 07bf 072f 40bc a6e6 0a3e 12c2 ca3d
00000070: 0a0f a4be b0c7 12be aa66 b23d c1b9 8f3d
00000080: 3669 80be a585 953e b9b3 5f3e a02f e8bd
00000090: b9ad eb3e fafa 72be b02b 253e 52ff de3d
000000a0: 0133 883e 830b 7c3e 5911 e53d 1653 aebc
000000b0: 5a65 cabe df0b 893e 44a8 3e3e 98c0 80be
000000c0: a1a4 17bf fc4a a83e d46f 10bf d9db b0be
000000d0: 90f1 17bd 3a07 ef3d b2cc 353e d052 25be
000000e0: 3c39 24be 4e53 6d3e 9e52 90bd c192 36be
000000f0: 955f 923e 29d1 d5bc 4be9 04be ddcd 20be
00000100: 9a38 c53e d3e7 4cbf 5ec3 9cbe ce97 adbe
00000110: 12ed 76be 8481 a93e d85d af3e 2959 f93d
00000120: 5fbe b33c 8900 443e 6281 013f b05b 9e3e
00000130: db9c 75bd 93fa a03e 808f 02bd b7ad 0fbe
00000140: 6f97 a03e 8e47 abbe 03b9 d53b 7a12 55bd
00000150: 36db 1dbe ac2d 14be a053 93bd 17fb 803f
00000160: 18e1 553d 095b f63d 40ba fb3d a9c8 4e3e
00000170: a007 26be 19e0 0dbf be7a 19be 0c6b 8d3e
00000180: 132a 6fbe 6601 4abe 44e1 e9bc 5633 fbbe
00000190: 7808 23be ac08 303d 6e6c 73be e937 903e
000001a0: 9648 b23e f823 e5be 1849 c5bd 4876 90be
000001b0: 0499 fe3d 572c 943e 0cae 153f 32e4 2abe
000001c0: d748 a03d 5098 06bd c3d2 5e3e 0621 3fbd
000001d0: bcf5 24be 0b21 ba3d 4a8b 9dbd e2c1 be3e
000001e0: 97c6 a7be 76b4 853e b814 cdbd 5d7e 163d
000001f0: 0a84 a3be 7386 9f3e 6470 b8bd 1129 323d
00000200: 0f99 d03e 7e78 b6be e04b f73d 7087 57be
00000210: 72cd 1fbe e16e 683e a1d0 083e 210e 903e
00000220: 07f9 983d f12d 1bbe bdcf ffbe 4d9a 36be
00000230: 3654 c13d beb6 1fbe 97e8 0a3f 3709 cd3e
00000240: 69a1 57be f0b8 7d3e 5b15 49bf 7729 f0be
00000250: b705 22bd ac12 453e efc8 e6be 0f1d 76bd
00000260: 08eb 383e 49d3 b0bd 44c6 183e 1107 ef3e
00000270: dda9 4c3e 5ec4 28be b49f f3be fa86 f33e
00000280: de60 d2be 8885 a7be 64ea dfbe 4aa1 f53d
00000290: 5e26 b4bd 7bec a43e 2f63 8cbe 591b 543e
000002a0: 2368 f9bc 1e74 8f3e a3ff 93bc 3bb6 d4be
000002b0: ace1 8fbd db4d 9f3d fff9 843e b3e2 aebe
000002c0: 1d44 2f3f 98d9 9f3e c522 0cbc 9530 46be
000002d0: 61b3 14be a39c 7fbe eb04 fb3e 4c7d a0be
000002e0: 80f6 93be 2e8c 26be e8b8 50bd 66f8 08bd
000002f0: 7c7a cd3e 15b2 cebe bbed 1c3b b0e9 7f3d
0.18684725 -0.09822957 0.06753226 0.25179672 -0.34341988 0.08810525 -0.42485312 0.39459208
-0.82589257 0.19629131 0.08940783 -0.8609108 -0.43659827 -0.11252911 0.0013781458 -0.22143781
0.16072652 0.18912931 0.55659324 0.07351854 -0.13960963 0.22386478 0.26563078 -0.42159063
-0.53093034 -0.011729962 0.13564548 0.09900297 -0.32042724 -0.14333987 0.08710988 0.070178516
-0.2508027 0.29203525 0.21845903 -0.11337209 0.46030977 -0.23728552 0.16129947 0.10888542
0.26601413 0.24613766 0.111849494 -0.021279853 -0.3953045 0.2676687 0.18618876 -0.25146937
-0.5923558 0.3286971 -0.56420636 -0.3454273 -0.037095606 0.116713 0.17753866 -0.16144872
-0.16037458 0.2317631 -0.07047008 -0.1782942 0.28588548 -0.026100712 -0.12979619 -0.1570353
0.38519746 -0.80041236 -0.30617803 -0.3390488 -0.24113873 0.33106625 0.34251285 0.12175209
0.021941362 0.19140829 0.5058805 0.30929327 -0.059964042 0.31441173 -0.031875134 -0.1403111
0.31365535 -0.3345303 0.0065222993 -0.052019574 -0.15415654 -0.14470547 -0.071936846 1.0076627
0.05221662 0.12029082 0.12291384 0.20193733 -0.16213846 -0.5542007 -0.14988229 0.27620733
-0.23355894 -0.19727096 -0.028549798 -0.49062604 -0.159212 0.04297702 -0.23771831 0.28167656
0.34821004 -0.44754004 -0.09633082 -0.2821524 0.12431529 0.2894008 0.584687 -0.16688612
0.07826393 -0.0328601 0.21760087 -0.046662353 -0.16109365 0.09088334 -0.07692583 0.37257296
-0.327687 0.26114243 -0.100137174 0.036741603 -0.31936675 0.31157264 -0.09005812 0.043496195
0.40741774 -0.35638803 0.12075019 -0.21047759 -0.15605715 0.22698547 0.13360836 0.2813578
0.07469373 -0.15154244 -0.4996318 -0.17832299 0.0943989 -0.15597054 0.54261154 0.40046093
-0.21057667 0.2477758 -0.7854821 -0.46906635 -0.03955623 0.19245404 -0.45075175 -0.060086306
0.18058407 -0.086340494 0.14919382 0.4668508 0.19986673 -0.16481158 -0.4758278 0.47563916
-0.4108953 -0.32719064 -0.43733513 0.11993654 -0.087963805 0.3221167 -0.2741942 0.20713557
-0.030445164 0.28018278 -0.018066233 -0.4154528 -0.07025465 0.077785216 0.25971982 -0.34157333
0.6846331 0.31220698 -0.008553212 -0.1935447 -0.14521553 -0.24962096 0.4902719 -0.31345594
-0.28899002 -0.16264412 -0.05095759 -0.033440016 0.4013251 -0.4037024 0.002394541 0.06247872

net.0.bias f4 [64]
00000000: 3c80 8a3e 98b2 ae3e a584 14be c195 3fbe
00000010: 9874 4cbd 2a15 853e 95d9 473d be66 7cbe
00000020: 2d1a c1bd 7b79 033e 9178 543d f6aa 033d
00000030: 3c25 0d3e ae08 ac3e 0eaa c0be c059 323e
00000040: 3411 48be 5ede 41bd d744 733e ecf3 193d
00000050: 0d7f 1d3d 0909 88be 0b82 073e 0d6e 6d3e
00000060: 49f8 543e f9d0 383d 179a 3a3e d007 e5bd
00000070: b025 49be f9c9 6a3e 41ca 8bbe 8142 00be
00000080: 7fdb 38be 5887 8abd 36b2 c93e 3c05 64be
00000090: 2dcc 713e 1c6b 8cbd 1a63 5f3e a7e6 9b3e
000000a0: b2c6 f1bd dda1 5e3e 4e0e 4e3e 0d2f 93be
000000b0: e3f7 8c3e 1489 e03d 2323 79be f720 8f3e
000000c0: 15c0 9ebd 859f 22be 5a06 aabd c5c1 4c3e
000000d0: f4e0 51be 9cf5 54be 471c 29be c62f 6f3e
000000e0: 0546 89be 83b2 83bd 3dc2 773d 6863 593d
000000f0: e6c8 a13e e1cc ccbd 23ab 2d3e 4b37 6dbe
0.2705096 0.3412063 -0.14503725 -0.1870947 -0.04991588 0.2599271 0.048791487 -0.24648568
-0.09428821 0.1283931 0.051872794 0.032145463 0.13783735 0.33600372 -0.3762974 0.1741705
-0.19537812 -0.047331207 0.23756729 0.037586138 0.038451243 -0.26569393 0.13233201 0.23186512
0.20797838 0.045121167 0.18222843 -0.11183131 -0.19643283 0.22928609 -0.27302745 -0.12525369
-0.18052481 -0.06764096 0.39393777 -0.22267622 0.23613043 -0.06856367 0.21815148 0.3044941
-0.11805476 0.21741433 0.20122644 -0.28746834 0.27532873 0.109636456 -0.2432981 0.27954838
-0.077514805 -0.15881164 -0.08301993 0.19995792 -0.20495969 -0.20796818 -0.16514693 0.23358068
-0.26811233 -0.06430533 0.060487974 0.053073317 0.31598586 -0.10000015 0.16959815 -0.23165624

net.2.weight f4 [32, 64]
00000000: 76a0 98be 32fa e1be 181a 2c3e 3950 dc3d
00000010: faec bdbe dbc7 40bf 1fb6 52be 190e fc3e
00000020: cde7 99bd 01f8 e1ba 135a 483e e8c0 06bd
00000030: fdb0 90be 9d86 d5be 16f7 ef3e 08fd 13bf
00000040: 7af8 173e 8f1f 823d bca1 c7be 4acb bdbd
00000050: 4f79 c3be f075 c8bd 6d27 80be def7 49be
00000060: a4f5 dcbe bcc9 3d3d e6c0 3d3e 5f40 623e
00000070: b00d 333c 6931 d2bd 2b4f 663e edb0 77bd
00000080: 3809 f9bd b106 4a3e cc2a 57bf a0c5 8cbd
00000090: 6179 f5bd b1ca 41be 39eb 12bf 487b 87be
000000a0: 6540 56be 1eae 7f3c 530e e7be db45 e43e
000000b0: 588a fdbe 58ae 0bbf 1903 203e db58 34bf
000000c0: cb8a 673d b648 8b3e a441 d43d 60d2 fbbe
000000d0: ca7d 9d3e 3cad 873e 1d39 773e a76a 063d
000000e0: 7d9c 893e e8f4 1cbe c56b 30be 78f0 f1bd
000000f0: 99f5 97be bce2 cf3d e5e6 a2be 2c4f 6fbd
00000100: 9f44 64bc fd8d 9ebe 529d 3bbe 5b26 383e
00000110: fd2a ac3e 3cc4 c1be 7177 9a3e 77cf 053e
00000120: f814 6d3e 9e51 8fbe 1b31 33bd 5d84 013e
00000130: 80c4 96be 912e a3be 81b1 e33e b4b1 b93b
00000140: 9c33 263e eac8 4ebd bf02 87bd 6c91 63bd
00000150: 9fc2 93be 01e1 223f 6761 473d 30aa d03e
00000160: 4889 52be c0d8 9a3b 0e24 7ebe 30ad 263d
00000170: fdb5 33bc 6aac ccbd 7d92 e83e 4fc3 7e3e
00000180: b686 483e 683c 2d3e 634a a2be 38ef 2cbe
00000190: 9536 07be 6d50 a43e e589 fa3d 5e71 52bd
000001a0: 86d4 073e 8901 e8be 3124 2fbf 11bd 1e3e
000001b0: 675c 26be 4dfe 453e 6bbc d4be ea08 10bf
000001c0: cd0b a83e 4e8e cfbd 8da4 5bbe 8324 bebd
000001d0: 4aee 023f bd77 073f 4b24 7e3e b162 ad3e
000001e0: 7e44 51be 98b2 b2be baf5 84be c903 f03d
000001f0: 5bcb f3bd d3b8 b9bd 65b0 d4be 8bf5 d8be
00000200: b9e8 06bf 8e90 68be 3ed0 a63e 48af ffbd
00000210: 065d e93e e47e 0d3d 3bad b2be 1d0a 2e3e
00000220: 7dd5 f23e 49b7 27bf 358c cbbd 5319 293e
00000230: 2554 1abe d88b cdbe a82e d23c 90d9 e9be
00000240: 8620 933d 2f31 4dbd d877 44be 256b 04bf
00000250: 9d19 adbe a9a1 b93d f576 c4be c39d 28be
00000260: 1913 28be 22e7 85be a16e 45bd d878 983d
00000270: a074 e73e 9edc 1bbf 99cf 523e 7bea 113f
00000280: 6ec9 c63d ac82 d13e f460 f0bb 3729 3f3e
00000290: 9e82 a7be ddc8 8c3e 4749 dcbe 3f32 7a3d
000002a0: 4887 26bd c5e6 89bd bafb 06be 366c 223f
000002b0: 018d 913e a560 77be 9fa3 1d3f 024b 80bd
000002c0: 8fc8 b53e 049d 0c3f 2c37 0a3f 08f4 f8be
000002d0: 6d18 883d 2321 093e 06c8 473f 91d9 e5bd
000002e0: d52d e43e d6a3 123f bcb7 02bf 933a 12bf
000002f0: aaf5 9ebe ac5e 6a3d 14bd bdbd 8ed3 e63e
00000300: d51b 4bbe 5f65 ec3d fe94 203f 1d01 a53e
00000310: 79e3 ef3e cdbc f5be cf70 363e de2f 443e
00000320: 7ff7 5b3e 7397 b3be dbf7 babe ea8d ccbe
00000330: 743e 40be 3325 8dbe 543c 5d3e 72bb b4bd
00000340: 1979 84bc 4718 f43e 14af dbbe d96e 72bd
00000350: 3139 3d3b 734c 083e 98a2 fc3d 1beb 86be
00000360: 4718 5cbf 3365 dabe f0af b8be 665f 643e
00000370: 48d6 0abe ad9c 4dbd bf5a 9abd d282 0ebc
00000380: fbe3 0b3d 816b a4bd 5e8e 803d 575e 53bd
00000390: 1f40 fbbe 0535 b63e b387 a1be 4715 a9be
000003a0: d3da b53d 575c 173d ea4f 8bbe a315 ac3e
000003b0: 6833 92be cdaf 28bd 1b2b 753e 3a62 a7be
000003c0: 716f 003e 6058 e83e 8983 55be 4b86 9ebe
000003d0: e98c a63e b86f d43e 60e8 713e 5f2b 873d
000003e0: d625 993e 7495 44bd b956 b4be e0f3 0e3d
000003f0: 5ae1 e2be 4e00 473e 0ed5 14be 3c3c f43d
-0.29809922 -0.44136196 0.16806829 0.10757489 -0.3709486 -0.75304955 -0.20577286 0.49229506
-0.075149156 -0.0017240049 0.1956561 -0.032898813 -0.2826003 -0.41704264 0.468682 -0.5780797
0.1484088 0.063536756 -0.3899058 -0.0926729 -0.3817849 -0.0978812 -0.2503008 -0.1972346
-0.4315616 0.046334967 0.18530616 0.22094868 0.010928556 -0.102633305 0.22491138 -0.060471464
-0.121599615 0.19729115 -0.8404968 -0.068736315 -0.11986042 -0.18924977 -0.5739017 -0.26461244
-0.20923002 0.015605478 -0.45128116 0.44584545 -0.4951961 -0.545629 0.15626182 -0.7044808
0.056528848 0.27203912 0.103640825 -0.4918394 0.30760032 0.26499355 0.2414288 0.032816555
0.26877204 -0.153278 -0.17228611 -0.11813444 -0.29679564 0.10150668 -0.31816784 -0.058425114
-0.013932376 -0.30967703 -0.18321732 0.17983381 0.33626547 -0.37845027 0.30169252 0.13067423
0.2315253 -0.27991956 -0.043748002 0.12648149 -0.29446793 -0.31871465 0.44471362 0.005666936
0.16230625 -0.050484575 -0.06592321 -0.055558607 -0.28859422 0.6362458 0.048676874 0.40754843
-0.20560181 0.0047255456 -0.24818441 0.04069251 -0.010968682 -0.09993823 0.45424262 0.24879192
0.19582638 0.16917574 -0.31697378 -0.1688813 -0.13204415 0.3209261 0.122333325 -0.051377647
0.13264665 -0.4531367 -0.684146 0.1550181 -0.16246186 0.1933529 -0.41550002 -0.562636
0.32821503 -0.10134564 -0.2144949 -0.09284308 0.5114485 0.5291708 0.24818532 0.33864358
-0.20436284 -0.3490188 -0.25968724 0.11719472 -0.11904021 -0.090684555 -0.41540828 -0.42374834
-0.52698857 -0.22711393 0.3258075 -0.12484604 0.45578784 0.03454484 -0.3489779 0.16996045
0.47428504 -0.65514046 -0.09938852 0.16513567 -0.15071161 -0.40145755 0.025657013 -0.456738
0.07183938 -0.050095733 -0.19186342 -0.5172599 -0.33808604 0.09064037 -0.38372007 -0.16466431
-0.16413535 -0.26152903 -0.048201207 0.07444924 0.45206165 -0.6088351 0.20587005 0.56998414
0.097063884 0.40920007 -0.0073357765 0.18668066 -0.3271684 0.27496997 -0.43024656 0.061083075
-0.040656358 -0.06733469 -0.13181964 0.63446367 0.2842789 -0.2415796 0.6157779 -0.062643066
0.35504577 0.54927087 0.53990436 -0.4862368 0.06645284 0.13391547 0.78039587 -0.11223138
0.44566217 0.57281244 -0.51061606 -0.5712063 -0.31046802 0.057219192 -0.092645794 0.45083278
-0.19834836 0.115427725 0.62727344 0.32227412 0.46853235 -0.47995606 0.1781647 0.19158885
0.21481131 -0.35076484 -0.36517224 -0.39952022 -0.18773824 -0.27567443 0.21605045 -0.08824815
-0.016171025 0.47674772 -0.42907012 -0.059187744 0.00288732 0.13310413 0.123357 -0.26351246
-0.85974544 -0.42655334 -0.3607173 0.22302017 -0.13558304 -0.050198246 -0.0753684 -0.008698182
0.034152966 -0.08028317 0.062771544 -0.05160364 -0.49072358 0.35587326 -0.31548843 -0.33024046
0.08879628 0.036953297 -0.27209407 0.33610258 -0.28554845 -0.04118328 0.23942225 -0.32692128
0.12542512 0.45379925 -0.20850958 -0.30961832 0.3252938 0.41491485 0.236238 0.06600069
0.2991168 -0.047994092 -0.35222414 0.034900546 -0.44312555 0.1943371 -0.14534399 0.11925551

net.2.bias f4 [32]
00000000: 6872 4ebe 178c a6bc 0fa3 03be f6e2 bdbd
00000010: 6743 b93c 7eaa cd3d 83b8 98bd dd04 ea3d
00000020: ba87 08be 2451 953c e754 03be 28ab 0abe
00000030: 67db 05be d2a1 053e 45b8 f63d 7e12 aebd
00000040: 0fd0 08be c711 e7bc 4e4d 103e 8dd5 3f3e
00000050: f4ec 033e db25 02be b4f4 dbbd b708 00be
00000060: acec 943d b01c 213e cf74 1a3e bb38 f5bd
00000070: 6765 f6bd 1a80 0d3e 7614 933d b423 0b3e
-0.2016083 -0.020330472 -0.1285517 -0.09271805 0.022615148 0.100422844 -0.07457068 0.11426709
-0.13333026 0.018227167 -0.12825356 -0.13541853 -0.13071977 0.13050011 0.120468654 -0.08499621
-0.13360618 -0.02820672 0.1409199 0.18733807 0.12883359 -0.12709753 -0.10740033 -0.12503324
0.07271704 0.157336 0.15083621 -0.11973711 -0.1203106 0.13818398 0.07181637 0.13587838

net.4.weight f4 [8, 32]
00000000: fe1e 2ebf b1da 9dbe 36c2 c0be 3a16 1dbf
00000010: 1769 593f 8842 483f 6f4b 03bf fe5a 0e3f
00000020: d549 01bf ba0a e3be 0731 853e 0936 98be
00000030: 67b9 0ebf a3b4 833e 5347 293f 5558 27bf
00000040: c679 d8be b522 11bf 09bc 453f 4992 b83e
00000050: 57e2 8d3e 4579 1cbf 5921 35bf 5ca4 62be
00000060: 3931 ca3e 57f1 763e 107e 783e fefc 90be
00000070: d53f e5bd 2ea3 a3ba 573f d03e 691c 143f
00000080: 0181 92bf 366b d4be d52a bbbe ce97 42bf
00000090: 2c60 183f c4eb 9a3e 6cc1 38be 5319 cd3d
000000a0: 253b b13c 7537 14be 571e d1be 7c8b 8bbe
000000b0: 3a2f 8ebe 4e80 4c3f 8673 ae3d ee30 b6be
000000c0: 4243 97be c186 24bf e67d 2b3f 5aba bd3d
000000d0: 221d 9e3e 1382 10bf 9143 24bf d8f8 04bf
000000e0: d3a8 e43e 7bcb 853e 9207 8b3e a5f8 1cbf
000000f0: 09dc 0fbf 03fe 7c3f 987c 4e3f dc37 03be
00000100: 3fae dabe 4997 b8bd 8676 9abc c0df 60bf
00000110: 16e7 7b3d 4d94 f23d aec1 eabe 9379 453f
00000120: 05cf c6be c2f2 d0be e07a 0fbf 6a2d a5bc
00000130: a45d 3dbe 9878 1d3f 8930 933e fce2 873d
00000140: 6310 2abf 4e15 e9be d6fd 263f f3ea df3e
00000150: 0ba8 253f 7dbd f7be 9640 c0be 9cf2 30be
00000160: 837f d23e 408f eb3e ea9a 2f3e 50d9 84bf
00000170: 6ece 40bf c9be cb3e 807d 803e 181d d93e
00000180: 33f1 c1be b10b 6fbe 176d 51be 625e 66bf
00000190: dd6a 313f 4dca b73e 2565 e7be c672 a23e
000001a0: f71a da3e d60d a7bd 6441 4bbf 3708 7fbe
000001b0: dd8c e2be 2767 7a3f c2f5 053f d3ce 9dbe
000001c0: 0fda 82bf a2f5 cebe 23b1 5c3f 766f 2a3f
000001d0: 6b59 c03e 24f8 d6be f0ca 9bbe 6c6d 84be
000001e0: e6cf fd3e af5d 0f3f 97c7 573e 51dd 8f3e
000001f0: 1cb2 d4bd 7ee7 bb3e 0a57 ac3e f115 5d3f
00000200: a8ba 203e 27f9 47bf 27a4 08bf 70c9 51be
00000210: 6f31 973e 6eca 483f 9acb dcbd 1e48 c13e
00000220: c393 92be 7d2c d73e f1cd b9be 4964 26bf
00000230: 6d77 35bf cfe3 323e 4c16 353f f277 c33d
00000240: e4d7 00bf 0a58 ccbe 3b7c 603f b052 683e
00000250: c18e 493e 9b5d 693d 0acc a8bd 331d 43bf
00000260: 16c3 92bd 0255 793f f40e e03e 044a 50bf
00000270: ddd8 babe a511 453f dc30 fe3e bc26 bf3e
00000280: 5ab1 033f d154 da3e f30e ca3e bb0b 2e3f
00000290: 72e2 e1be b716 3fbe b31e ab3d ce19 afbe
000002a0: 1ba5 f93e 6237 45bd c458 1f3e 0d41 1d3f
000002b0: 7821 883f a273 0fbf 7b81 933e 45ca bfbd
000002c0: cd07 483f 331b 9e3e 1b4a b03d 4bb9 59be
000002d0: eb93 54be 1326 1d3f a7f5 333f 9d63 1f3f
000002e0: 1a03 38bf 8850 2bbf 57c4 a4be 94ae 20be
000002f0: 9473 1e3f 5263 90be e7be 21bf 53e9 15bf
00000300: 2a70 debe c683 dbbe 47c7 e1be 27a6 91bc
00000310: f30e d5bd 9661 b83e d5b5 0fbf a060 25bd
00000320: 1ade 18be 7c6e 32be 03b3 cfbe 99c6 d7be
00000330: 9ed3 80be 1b5c 373f fde5 503e 0c1f 81bf
00000340: a4b2 4bbe 3064 ad3d eef2 103f fba1 593f
00000350: 0f15 093f 9840 d8be 8e6a 5dbd 13b0 69bd
00000360: c2c0 883f 2f81 223f 76a8 033f f0fd b2bc
00000370: dce7 b6be 912a ff3e 7afd 2a3f 2af6 8a3d
00000380: 717e 6dbf 58d9 b73e 5ed4 bcbe 06af 753e
00000390: 05b1 b83e 2b7f 6a3f 95c6 e7be dad8 c03e
000003a0: 499b 86be 5521 34be 66ab 13bf 51ba e5be
000003b0: 46be 48bf b52d 2a3f 875f 823c bee4 bebe
000003c0: 61cc dabe a552 30bf f51c 2d3f d1a9 1abe
000003d0: 05e6 1a3e a811 04bf d9a5 86be 8e1b b2be
000003e0: 7d0d 9c3e 7f97 623f 7dfa bb3e baa6 01bf
000003f0: c9bc aabe a235 d03e 80a2 5a3d e332 453f
-0.6801604 -0.3083091 -0.3764817 -0.6136204 0.8492598 0.7822652 -0.5128698 0.55607593
-0.50503284 -0.4434412 0.26013967 -0.29728726 -0.5575165 0.25723752 0.6612446 -0.6536916
-0.42280406 -0.56693584 0.77240044 0.36049107 0.27711746 -0.6112254 -0.7075401 -0.2213301
0.3949068 0.24115501 0.24266839 -0.28318018 -0.111938156 -0.0012484544 0.40673324 0.5785585
-1.1445619 -0.41488045 -0.36556116 -0.76012886 0.59521747 0.30258 -0.18042535 0.10014596
0.021634648 -0.1447428 -0.4084346 -0.27254856 -0.27770406 0.7988328 0.08518128 -0.35584205
-0.295435 -0.6426812 0.6698898 0.09264059 0.30881602 -0.5644848 -0.641656 -0.51942205
0.44660053 0.26131806 0.27154213 -0.613169 -0.5619512 0.9882509 0.80658865 -0.12814277
-0.42711064 -0.0901323 -0.018855345 -0.87841415 0.061499678 0.118446924 -0.4585089 0.7713863
-0.38829818 -0.4081021 -0.5604687 -0.020163257 -0.18492752 0.61512136 0.28747967 0.06635091
-0.66431254 -0.45524067 0.6523107 0.4373394 0.6470954 -0.48386756 -0.37549275 -0.17280048
0.4111291 0.4600773 0.17148939 -1.0378819 -0.75314987 0.39793995 0.2509575 0.4240501
-0.37879333 -0.23344304 -0.2045177 -0.89987767 0.69303685 0.3589653 -0.45194355 0.3172819
0.42598698 -0.08156936 -0.79396653 -0.24905477 -0.44248095 0.9781365 0.5232812 -0.30821857
-1.0222796 -0.40421778 0.8620779 0.66576326 0.3756822 -0.4198619 -0.30428267 -0.25864732
0.49572676 0.56002325 0.21072231 0.2809854 -0.10385534 0.36700052 0.33660156 0.86361605
0.15696204 -0.7811455 -0.53375477 -0.20486999 0.29529902 0.78433883 -0.107810214 0.37750334
-0.28628358 0.4202613 -0.36289933 -0.64996773 -0.70885354 0.17469715 0.7073715 0.09544362
-0.5032942 -0.39910918 0.8768956 0.22687793 0.19683363 0.056974035 -0.08242042 -0.7621643
-0.07166116 0.97395337 0.43761408 -0.8136294 -0.3649358 0.7698005 0.49646652 0.3733424
0.5144249 0.42642835 0.3946453 0.6798665 -0.44118077 -0.18661009 0.08355465 -0.34199375
0.48758778 -0.04814852 0.15561205 0.61427385 1.0635214 -0.56035817 0.28809723 -0.09364752
0.78136903 0.30880126 0.086078845 -0.2126209 -0.20759551 0.6138622 0.7029671 0.6226137
-0.7187973 -0.66919756 -0.32181045 -0.15691596 0.6189511 -0.28200775 -0.6318192 -0.5855915
-0.4344495 -0.42873973 -0.4409735 -0.017779423 -0.10403242 0.36011952 -0.5613683 -0.040375352
-0.14928475 -0.17424959 -0.40566263 -0.42143705 -0.2516145 0.71624917 0.20400234 -1.00876
-0.19892365 0.08466375 0.5662068 0.8501279 0.5354776 -0.4223678 -0.054056697 -0.057052683
1.0683825 0.6347837 0.51428926 -0.021849602 -0.3572377 0.49837163 0.66793025 0.06785233
-0.9277106 0.35908008 -0.36880773 0.23992547 0.36072555 0.9160029 -0.45268694 0.37665445
-0.26290348 -0.1759084 -0.5768341 -0.4486871 -0.78415334 0.66475993 0.015914692 -0.3728389
-0.42734054 -0.68876106 0.6762231 -0.15103842 0.15126808 -0.5158944 -0.26298407 -0.34786648
0.3047904 0.88512415 0.36714545 -0.5064503 -0.33347157 0.4066592 0.05337763 0.7703077

net.4.bias f4 [8]
00000000: ffa9 0c3e 354f 8e3e 0c5e 053e 9346 823e
00000010: c431 073e 6914 0dbe bf78 1c3e 736e 253e
0.13736723 0.27794805 0.13024157 0.2544447 0.13202578 -0.13777317 0.15280436 0.16155414
