auto-iss-demo/movement_net.pt (torch, 68335 bytes, 16 tensors)

net.0.weight f4 [128, 3]
0.1042845 0.29688385 -0.22335881 -0.17964825 0.04549938 -0.0036636994 -0.19894394 0.083883844
-0.02268483 0.044714086 -0.15724578 -0.110336 0.101917185 0.33345455 -0.051596384 -0.008544979
0.028319696 -0.032116823 0.2421231 0.04680895 -0.08683244 0.06921346 0.042729467 0.21461065
0.05325645 -0.19601706 0.10307508 0.01822057 0.08577544 0.29482168 -0.053422146 0.20628877
-0.061310954 0.09233799 -0.19443771 0.34677097 -0.1426361 -0.31300408 -0.20402709 -0.14816543
0.055679843 0.18859088 -0.05107342 0.21111828 0.1624743 -0.23839189 0.27235845 0.14116275
-0.04646083 -0.10137183 -0.162111 -0.14709431 -0.055984724 0.089566715 -0.14357837 0.030860573
0.19532806 -0.027791584 -0.18567167 -0.032164928 -0.07167784 -0.010543856 -0.029627733 0.11249928
0.27585036 -0.22838514 0.020797336 0.1511532 0.06433861 -0.033496942 -0.2664938 0.07176651
0.15150072 0.13550721 -0.18183081 -0.0667849 0.018477911 -0.118372396 -0.09406143 -0.09104877
0.36229572 0.13687909 0.12351689 -0.2598517 0.03199705 0.11402235 0.15115887 -0.15049562
-0.032120544 0.058692537 0.04888026 0.11915606 0.036558695 0.2986634 -0.2120668 0.17800725
-0.09078425 0.0424864 0.062430628 0.04461659 0.09749787 0.18737608 0.0040994347 0.1080747
0.03620591 -0.16353352 -0.054192726 -0.11724097 0.27599367 0.07892754 -0.046504874 -0.16108608
0.15510647 0.124373294 0.074399695 -0.0902303 -0.17893168 -0.14795423 0.017579494 -0.30588284
0.16927803 0.009812825 0.0037213205 0.05464174 0.17494142 0.26734573 -0.014770535 -0.037155923
0.10790588 0.19167435 -0.12328592 0.15081394 -0.06784148 0.029793415 0.2089763 0.028619912
0.022371816 0.043782495 -0.2443942 -0.16230139 -0.16350678 -0.029364383 0.13903305 0.048111703
0.10694883 -0.16383225 -0.2819241 0.19221784 0.102778725 -0.060149774 0.064392686 0.12297376
-0.010280109 0.11747556 -0.3868234 0.09666997 -0.14165626 0.034980047 0.12715416 0.0148288235
-0.06898482 0.07540707 -0.15397444 0.09732689 -0.088528626 -0.26801884 0.24318811 0.002767139
-0.060379416 0.12767419 -0.19200906 0.2753572 -0.23469183 -0.09768631 -0.010185033 0.18413311
-0.06484852 0.11170715 0.05963412 0.5522375 -0.11091781 -0.17176509 -0.07401278 -0.21409135
-0.124379426 0.03881889 -0.11035828 0.21654971 0.0200093 -0.08515138 0.100558564 0.050346144
0.082272224 -0.13156056 -0.12880912 -0.004346166 -0.044932634 -0.19250496 0.25123623 0.07780556
0.07701765 0.20807002 0.14362314 -0.009944173 0.13578202 -0.16948389 0.064848684 -0.064624354
-0.13996336 -0.018954102 0.057537608 -0.046513245 0.084935576 0.091849595 0.23897143 0.024647363
-0.10247605 0.07836881 -0.21828802 -0.17954205 0.093766496 -0.036594808 0.15445049 0.1280234
-0.19556914 -0.18737207 -0.14552791 -0.03314203 0.08657954 0.0678604 0.10654982 -0.03074076
0.2886856 0.41022933 0.18212597 -0.097692 -0.06803339 -0.00091083895 -0.18710902 0.19994399
0.099037096 -0.16012648 0.113235496 -0.069916956 -0.03649745 0.015065747 -0.059986405 -0.103903666
-0.07218082 0.23061186 -0.19991799 0.12706484 0.010486368 0.16990265 -0.070141256 -0.12453221
00000000: 1d93 d53d 2901 983e 2cb8 64be b6f5 37be
00000010: 8f5d 3a3d ad1a 70bb f6b7 4bbe 4bcb ab3d
00000020: 89d5 b9bc 1e26 373d 0a05 21be d7f7 e1bd
00000030: f5b9 d03d 8eba aa3e bb56 53bd 3d00 0cbc
00000040: b5fe e73c ee8c 03bd 1eef 773e beba 3f3d
00000050: 35d5 b1bd c9bf 8d3d 1805 2f3d e5c2 5b3e
00000060: 6f23 5a3d b2b8 48be 0719 d33d 4e43 953c
00000070: 09ab af3d def2 963e 2ed1 5abd 5d3d 533e
00000080: 3221 7bbd b31b bd3d ae1a 47be f78b b13e
00000090: 330f 12be 1242 a0be 7aec 50be aeb8 17be
000000a0: 8c10 643d f81d 413e 5d32 51bd 642f 583e
000000b0: aa5f 263e 011d 74be 9172 8b3e f88c 103e
000000c0: b64d 3ebd 099c cfbd 6d00 26be e49f 16be
000000d0: 3d50 65bd c16e b73d 3506 13be 50cf fc3c
000000e0: 1404 483e 2dab e3bc b720 3ebe 5fbf 03bd
000000f0: d5cb 92bd 23c0 2cbc dcb5 f2bc 0666 e63d
00000100: 423c 8d3e cbdd 69be 2d5f aa3c e8c7 1a3e
00000110: f6c3 833d 1734 09bd e071 88be 52fa 923d
00000120: 0123 1b3e 67c2 0a3e db31 3abe 86c6 88bd
00000130: fd5e 973c 3a6d f2bd 47a3 c0bd c777 babd
00000140: d37e b93e 082a 0c3e 6cf6 fc3d 480b 85be
00000150: 570f 033d 8d84 e93d 64c9 1a3e 861b 1abe
00000160: d590 03bd 9667 703d ab36 483d 1808 f43d
00000170: 92be 153d 69ea 983e 0a28 59be 8847 363e
00000180: 18ed b9bd 3806 2e3d 42b7 7f3d e3bf 363d
00000190: f7ac c73d 84df 3f3e 8d54 863b 4556 dd3d
000001a0: a64c 143d 5575 27be 31f9 5dbd 091c f0bd
000001b0: 0b4f 8d3e c3a4 a13d e57b 3ebd c0f3 24be
000001c0: 3bd4 1e3e 6db7 fe3d de5e 983d aaca b8bd
000001d0: de39 37be 5081 17be df02 903c ad9c 9cbe
000001e0: 3857 2d3e f9c5 203c 66e1 733b 04d0 5f3d
000001f0: d823 333e 8ae1 883e 1d00 72bc cf30 18bd
00000200: c2fd dc3d 4846 443e 547d fcbd f86e 1a3e
00000210: 79f0 8abd 5211 f43c e2fd 553e 4e74 ea3c
00000220: 1945 b73c 4655 333d 7942 7abe 5632 26be
00000230: 526e 27be 938d f0bc ae5e 0e3e c710 453d
00000240: fd07 db3d a4c3 27be 5b58 90be c1d4 443e
00000250: a77d d23d 9c5f 76bd 50e0 833d abd9 fb3d
00000260: e76d 28bc 0797 f03d b70d c6be e8fa c53d
00000270: 570e 11be 3d47 0f3d b334 023e 98f4 723c
00000280: ea47 8dbd 066f 9a3d 7aab 1dbe 5253 c73d
00000290: 7f4e b5bd c439 89be 4e06 793e e458 353b
000002a0: 6850 77bd 06bd 023e 069e 44be 9efb 8c3e
000002b0: 0e53 70be c30f c8bd 20df 26bc 648d 3c3e
000002c0: 4dcf 84bd b8c6 e43d e842 743d 705f 0d3f
000002d0: e028 e3bd 30e3 2fbe 0394 97bd c33a 5bbe
000002e0: a4ba febd 8e00 1f3d 8603 e2bd 35bf 5d3e
000002f0: 8bea a33c d963 aebd a6f1 cd3d c237 4e3d
00000300: 577e a83d d0b7 06be 8ae6 03be 486a 8ebb
00000310: 480b 38bd 0520 45be 09a2 803e 8558 9f3d
00000320: 6ebb 9d3d 4f10 553e f211 133e e2ec 22bc
00000330: 710a 0b3e 2f8d 2dbe 63cf 843d c659 84bd
00000340: 8e52 0fbe a245 9bbc 8eac 6b3d ac84 3ebd
00000350: b4f2 ad3d a41b bc3d edb4 743e 44e9 c93c
00000360: f7de d1bd d47f a03d e586 5fbe dfd9 37be
00000370: a608 c03d 70e4 15bd 4528 1e3e 9118 033e
00000380: 4743 48be 77de 3fbe 4505 15be f0bf 07bd
00000390: 9d50 b13d 65fa 8a3d cb36 da3d 0cd4 fbbc
000003a0: 99ce 933e 9409 d23e 3b7f 3a3e be12 c8bd
000003b0: 1755 8bbd 5ec5 6eba 8299 3fbe 1ebe 4c3e
000003c0: f6d3 ca3d 32f8 23be 03e8 e73d 9f30 8fbd
000003d0: 5a7e 15bd 53d6 763c 4eb4 75bd 72cb d4bd
000003e0: 8ad3 93bd 8425 6c3e 4db7 4cbe 491d 023e
000003f0: 04cf 2b3c f6fa 2d3e 38a6 8fbd be0a ffbd

net.0.bias f4 [128]
-0.002402039 0.010849089 -0.0029176762 0.0058303685 -0.0015668526 -0.0053535253 -0.0010915886 -0.007951382
-0.0013392724 -0.0011893824 0.0010778488 0.0037044636 -0.007433377 0.0054923245 -0.0005441105 0.008955194
-0.0018231097 -0.0074967803 0.0024695834 -0.0036836513 -0.0009864806 0.0025100529 -0.002300138 -0.0009531832
-0.0010368631 -0.00970994 0.007024754 0.00018966054 -0.0005981947 -0.0005118396 0.006353459 0.010091219
0.0012817481 0.00502842 -0.0009929542 -0.0041673356 0.006731669 0.011351785 -0.006462693 -0.0037608782
-0.00017426097 0.008226536 0.0021141393 0.0069629094 0.0020442882 0.0037877518 -0.0016306866 -0.0009343599
-0.011640296 -0.0043233912 0.011341426 -0.0027064309 0.00508759 -0.004674932 0.004806873 -0.0058906623
-0.00676576 -0.0077209556 0.0010035638 0.0071915537 0.0016920374 -0.008784949 0.003474042 0.0016648116
-0.007435951 -0.0015631769 0.0086969575 -0.0002229301 -0.001155682 -0.0008952152 0.005899646 0.0007197399
-0.0011576512 -0.0003803671 0.0016917965 -0.003247099 0.0021510415 0.003917533 0.0035365184 0.0015289063
0.009464064 0.0005432131 0.0039915196 -0.01057527 0.0003764269 0.0031423667 -0.0016320879 0.009759852
0.0036741137 -0.0025260518 -0.004979172 -0.0007819211 0.0016611995 0.00071116595 -0.001273199 -0.0013899184
-0.002484736 -0.0019551332 0.006944155 0.006255726 -0.00082549476 -0.008557438 0.008763207 0.002636157
0.0036122757 0.00203876 0.001280318 -0.0058393055 0.0040204776 -0.007901113 0.009096272 -0.0010052044
0.010031703 -0.00027596633 0.004970959 0.011787712 -0.008778045 -0.009368041 -0.00135738 0.0025843855
0.0038253192 -0.0015374452 -0.011876136 0.009307579 0.0046944637 -0.009768431 0.0008606729 -8.5676395e-05
00000000: 876b 1dbb 61c0 313c 7c36 3fbb ad0c bf3b
00000010: d95e cdba a06c afbb a313 8fba 8346 02bc
00000020: 868a afba 0de5 9bba 9b46 8d3a 96c6 723b
00000030: b093 f3bb f5f8 b33b a3a2 0eba ceb8 123c
00000040: 69f5 eeba 8da7 f5bb bcd8 213b 6a69 71bb
00000050: cc4c 81ba b37f 243b e9bd 16bb 0bdf 79ba
00000060: 5ae7 87ba 7116 1fbc e82f e63b 9ddf 4639
00000070: 2bd0 1cba f92c 06ba ad30 d03b a455 253c
00000080: 5400 a83a 72c5 a43b 0426 82ba 258e 88bb
00000090: 5595 dc3b d6fc 393c 00c5 d3bb 1179 76bb
000000a0: d3b9 36b9 98c8 063c 5f8d 0a3b 1e29 e43b
000000b0: 77f9 053b ee3b 783b c3bc d5ba d5ef 74ba
000000c0: f1b6 3ebc 3cab 8dbb 63d1 393c 605e 31bb
000000d0: ccb5 a63b 2c30 99bb f982 9d3b 7506 c1bb
000000e0: 4fb3 ddbb 1200 fdbb 038a 833a 20a7 eb3b
000000f0: 5bc7 dd3a bfee 0fbc c1ac 633b cf35 da3a
00000100: 47a9 f3bb 83e3 ccba af7d 0e3c 58c2 69b9
00000110: 417a 97ba e0ac 6aba d151 c13b edac 3c3a
00000120: 54bc 97ba 026c c7b9 45bf dd3a 48cd 54bb
00000130: 7df8 0c3b a65e 803b efc4 673b 9565 c83a
00000140: 290f 1b3c 6a66 0e3a 4bcb 823b e643 2dbc
00000150: 2a5b c539 2af0 4d3b c8eb d5ba c9e7 1f3c
00000160: 66c9 703b 1e8c 25bb 5228 a3bb d6f9 4cba
00000170: 9bbc d93a 8a6d 3a3a 78e1 a6ba ec2d b6ba
00000180: f4d6 22bb b121 00bb cb8b e33b d5fc cc3b
00000190: 0466 58ba 7f34 0cbc 8e93 0f3c 60c3 2c3b
000001a0: eebb 6c3b b89c 053b 58d0 a73a a557 bfbb
000001b0: 36be 833b ab73 01bc 8808 153c 10c1 83ba
000001c0: 035c 243c 93af 90b9 6de3 a23b 3f21 413c
000001d0: cad1 0fbc 697c 19bc 1dea b1ba cb5e 293b
000001e0: 35b2 7a3b 1a84 c9ba 2094 42bc d17e 183c
000001f0: 04d4 993b c50b 20bc c89e 613a 2aad b3b8

net.2.weight f4 [64, 128]
0.1396186 0.037320863 0.010374295 0.03648429 0.20337157 -0.19235606 0.045127384 0.10229656
0.009505633 0.054254662 -0.09049876 0.22303374 0.011163171 -0.14130142 -0.06910867 0.019864578
-0.10237877 0.015077363 -0.32407904 -0.10567455 -0.35968423 0.15367952 0.0855091 -0.10902733
-0.14414419 0.10356382 0.14710681 0.1604084 0.1142661 -0.17445564 0.026190698 -0.12180161
0.07258531 -0.26511058 -0.09375397 -0.0058602397 -0.008777563 0.02480071 -0.022303674 0.1750673
-0.31374088 0.14134468 0.18049346 -0.008080985 -0.16353607 -0.020340225 -0.020115543 -0.29850447
-0.19205259 -0.11531395 0.11453737 -0.052837953 0.016512612 0.042697757 0.19602801 0.20694616
-0.09333718 -0.052503105 0.13756835 -0.09606775 -0.25652805 0.06493837 -0.046745565 -0.11080822
0.100125134 -0.04964842 -0.049056046 -0.15787193 -0.11408722 0.07562323 0.29907015 -0.088920824
-0.2129656 0.0750915 0.2415022 0.34336823 0.2949874 -0.38613945 0.22909535 -0.11261144
0.039820455 -0.28246745 -0.14181468 -0.110524304 0.08243488 -0.27442828 -0.044550855 -0.03041927
-0.14771181 0.08093976 -0.111222334 0.052349534 -0.11479062 -0.06802961 0.0866783 -0.0686888
0.05616884 -0.040745724 0.15129304 -0.013294214 0.08822682 0.09578621 -0.06770287 -0.1517907
-0.26675728 0.18554032 0.06356901 -0.00032020028 -0.055657133 0.054918773 -0.19351225 -0.15038882
0.10195231 -0.10128383 0.010593263 -0.042267196 0.24590157 0.13319688 -0.12026586 -0.031501867
0.10943427 -0.17175615 0.029388499 -0.11805881 -0.085454546 -0.16278668 0.23036507 -0.08696053
-0.22063278 0.096229374 0.06094806 -0.11086113 -0.09449373 0.047203116 -0.14819862 0.055741522
0.26586968 0.11511285 -0.23806538 -0.0080053555 -0.20994656 -0.1901095 -0.10337442 0.25460485
0.15231742 -0.26765606 -0.017746495 -0.100945435 0.037712444 -0.07090809 0.28151497 0.08957455
0.043605532 -0.122480415 0.12923098 -0.18516344 -0.1926831 0.1346785 0.08682903 -0.09895362
-0.12469355 -0.01470663 0.007485544 -0.2004581 -0.24735437 0.06592686 -0.108183526 -0.2635049
-0.20822151 0.08338667 -0.14863408 -0.026582362 0.19351514 -0.06888879 -0.22547598 0.11150934
0.12708688 -0.2558598 0.12930751 0.068708904 0.14587052 0.06418803 0.2143868 -0.1471939
-0.09858969 -0.120098315 0.28456643 -0.03238717 0.090281636 -0.03443642 0.14990886 0.09867321
0.02047948 0.16039461 -0.08820672 -0.20432122 0.14431652 0.034516368 0.0034089184 -0.037492096
-0.08655976 0.15174437 -0.13302544 -0.011420358 0.20600393 0.12238694 -0.03033577 -0.057489607
0.12985776 -0.0476406 -0.06750187 0.17149675 -0.088386826 0.047364105 -0.105235554 -0.19462614
-0.030008007 0.38456717 9.5426716e-05 -0.036973603 -0.13168469 -0.11788329 -0.39478576 -0.12646331
0.03937086 -0.26785773 -0.11603495 -0.08942746 -0.21442458 0.0994594 0.054684352 -0.03613675
0.03208684 -0.021836387 0.016770333 0.03247756 0.14727898 -0.050684243 -0.011861305 -0.14861967
-0.13524297 0.39792338 0.0049124784 0.034223765 0.07051478 -0.0105762975 -0.24555697 -0.30146942
0.083697975 0.07522556 0.08942984 0.12504332 -0.06700383 0.032558776 0.20535403 -0.059910093
00000000: 2ef8 0e3e c3dd 183d f2f8 293c 8d70 153d
00000010: a340 503e fdf8 44be 7ed7 383d dc80 d13d
00000020: 84bd 1b3c 233a 5e3d 6a57 b9bd f562 643e
00000030: bce5 363c 52b1 10be d988 8dbd 0abb a23c
00000040: f6ab d1bd 0b07 773c b0ed a5be e66b d8bd
00000050: 8828 b8be 2a5e 1d3e 651f af3d b949 dfbd
00000060: 899a 13be 4519 d43d 2ba3 163e 1a42 243e
00000070: 5804 ea3d 80a4 32be e08d d63c 1f73 f9bd
00000080: 9ba7 943d 93bc 87be 1502 c0bd 4107 c0bb
00000090: c5cf 0fbc dc2a cb3c 32b6 b6bc d844 333e
000000a0: a5a2 a0be a9bc 103e 47d3 383e 1c66 04bc
000000b0: 0076 27be 8ba0 a6bc 5ac9 a4bc 94d5 98be
000000c0: 6fa9 44be b829 ecbd 9292 ea3d 9c6c 58bd
000000d0: 7545 873c d8e3 2e3d 91bb 483e b2e9 533e
000000e0: 9027 bfbd 7f0d 57bd b8de 0c3e 2bbf c4bd
000000f0: a557 83be 68fe 843d 4778 3fbd 6cef e2bd
00000100: 680e cd3d 245c 4bbd feee 48bd 2ea9 21be
00000110: 8fa6 e9bd 5ae0 9a3d b91f 993e 1f1c b6bd
00000120: a713 5abe 93c9 993d 5a4c 773e f6cd af3e
00000130: 9708 973e 12b4 c5be f997 6a3e d4a0 e6bd
00000140: c61a 233d 939f 90be de37 11be 915a e2bd
00000150: 9ed3 a83d dd81 8cbe f57a 36bd d531 f9bc
00000160: c441 17be bfc3 a53d 89c8 e3bd 776c 563d
00000170: 5817 ebbd 1c53 8bbd 6484 b13d b7ac 8cbd
00000180: 4c11 663d fde4 26bd 90ec 1a3e facf 59bc
00000190: 43b0 b43d 8f2b c43d cda7 8abd 056f 1bbe
000001a0: 6994 88be 48fe 3d3e 7830 823d 8ee0 a7b9
000001b0: bcf8 63bd 82f2 603d 1328 46be 87ff 19be
000001c0: 5fcc d03d e66d cfbd 5e8f 2d3c 5e20 2dbd
000001d0: 9fcd 7b3e c364 083e f24d f6bd 1a08 01bd
000001e0: 131f e03d d8e0 2fbe 26c0 f03c d1c8 f1bd
000001f0: cb02 afbd 8db1 26be d2e4 6b3e 5d18 b2bd
00000200: 8fed 61be e813 c53d aca4 793d 290b e3bd
00000210: ee85 c1bd 0e58 413d 61c1 17be 3951 643d
00000220: 1220 883e 49c0 eb3d 69c7 73be e528 03bc
00000230: 3bfc 56be 11ac 42be f8b5 d3bd 915b 823e
00000240: 19f9 1b3e 370a 89be 1961 91bc 7bbc cebd
00000250: 5d78 1a3d 4338 91bd bb22 903e dd72 b73d
00000260: b79b 323d 03d7 fabd 2055 043e 7c9b 3dbe
00000270: b84e 45be 29e9 093e 6bd3 b13d 32a8 cabd
00000280: 555f ffbd 14f4 70bc 4b49 f53b e344 4dbe
00000290: 774a 7dbe a904 873d 538f ddbd 1dea 86be
000002a0: 0538 55be a1c6 aa3d 8833 18be 41c3 d9bc
000002b0: d528 463e 9115 8dbd 2de3 66be 025f e43d
000002c0: 1023 023e 0e00 83be 3069 043e 41b7 8c3d
000002d0: 155f 153e 0475 833d 3788 5b3e ffb9 16be
000002e0: 64e9 c9bd 1bf6 f5bd b1b2 913e 69a8 04bd
000002f0: 94e5 b83d 340d 0dbd b581 193e 2e15 ca3d
00000300: 95c4 a73c 7c3e 243e baa5 b4bd 9539 51be
00000310: b6c7 133e 0961 0d3d 2968 5f3b 5091 19bd
00000320: 3e46 b1bd e062 1b3e d237 08be 741c 3bbc
00000330: b2f2 523e 01a6 fa3d b982 f8bc 397a 6bbd
00000340: 6ff9 043e ca22 43bd 6c3e 8abd d89c 2f3e
00000350: 2704 b5bd dd00 423d bd85 d7bd 134c 47be
00000360: 5ad3 f5bc fde5 c43e d41f c838 a271 17bd
00000370: 5ad8 06be cb6c f1bd 5c21 cabe 997f 01be
00000380: 5743 213d a624 89be bba3 edbd bf25 b7bd
00000390: 1e92 5bbe 5fb1 cb3d b3fc 5f3d 2104 14bd
000003a0: 7e6d 033d 39e2 b2bc f061 893c 3107 053d
000003b0: 4dd0 163e 489a 4fbd eb55 42bc c12f 18be
000003c0: 227d 0abe 9dbc cb3e dbf8 a03b 382e 0c3d
000003d0: 0e6a 903d 3548 2dbc 4973 7bbe 335a 9abe
000003e0: d869 ab3d dc0f 9a3d fe26 b73d 5b0b 003e
000003f0: 4e39 89bd 5a5c 053d 5448 523e 4964 75bd

net.2.bias f4 [64]
-0.0010354924 0.005861178 0.008443767 -0.0034965042 0.0016620309 0.0051300335 0.00080083613 0.0040068524
0.0017343747 -0.00089702825 -0.008414142 0.0025086552 -0.0036108573 0.0014597289 0.009645074 0.0044601643
0.0005255492 -0.0045262687 0.00263209 -0.0024586294 -0.0066413633 -0.0040713493 0.004367876 -0.0061006444
0.0007433152 -0.00030992614 0.004665561 0.0006691152 0.0027618567 0.0053640995 -0.004534204 0.007221615
-0.004249326 0.0011963011 -0.0016993958 0.0020856843 -0.0047337953 0.0010113908 -0.0021606996 0.0006012835
-0.00047677162 -0.0038190056 -0.0062463772 -0.0021214474 0.008686834 -0.0072854687 0.0029342396 0.004738871
-0.005234824 6.0329767e-06 0.004107726 0.000434098 0.0034180328 0.004806659 -0.0035806263 0.006243356
0.0017470507 -0.005353053 0.010760557 -0.0088961115 -0.0018802866 -0.00048193103 -0.0047362996 0.00022913486
00000000: 5cb9 87ba 200f c03b ba57 0a3c 9b25 65bb
00000010: 81d8 d93a d719 a83b 34ef 513a ea4b 833b
00000020: f553 e33a 8c26 6bba 78db 09bc 4068 243b
00000030: 22a4 6cbb 6054 bf3a 5f06 1e3c 9226 923b
00000040: 03c5 093a 1851 94bb 247f 2c3b f520 21bb
00000050: cb9f d9bb f468 85bb 6620 8f3b eae7 c7bb
00000060: 0adb 423a 957d a2b9 90e1 983b 9067 2f3a
00000070: 4400 353b 54c5 af3b a993 94bb 4ca3 ec3b
00000080: ee3d 8bbb 34cd 9c3a 43be deba faaf 083b
00000090: f41d 9bbb a590 843a 869a 0dbb 749f 1d3a
000000a0: 34f7 f9b9 4848 7abb 69ae ccbb fb07 0bbb
000000b0: 3953 0e3c f1ba eebb 5f4c 403b 8848 9b3b
000000c0: e388 abbb e06e ca36 1a9a 863b a697 e339
000000d0: 1301 603b 2e81 9d3b f1a8 6abb 1195 cc3b
000000e0: 4bfd e43a aa68 afbb 0c4d 303c ffc0 11bc
000000f0: f373 f6ba b0ab fcb9 f632 9bbb ec43 7039

net.4.weight f4 [64, 64]
-0.31302762 0.21728668 -0.024014007 -0.06780472 0.17380534 -0.15528429 -0.0066030137 0.17188755
-0.5440344 -0.0233486 0.022416938 -0.020073162 0.17180347 0.17055309 0.22477289 0.22179933
0.05615511 -0.0801856 0.21612154 -0.05058668 0.03532787 -0.20837468 0.036439035 0.17878541
-0.37329847 -0.05844988 0.27970684 -0.35527012 -0.019231187 -0.16065276 -0.029385582 -0.14426358
-0.22907764 -0.08134985 0.035204034 -0.20916654 0.21106629 0.20319767 -0.0045236005 -0.30710873
-0.0074028866 0.49411732 -0.12548074 -0.0017871596 0.2518347 0.24585797 -0.17103148 -0.12550704
-0.095182985 -0.18269445 0.16314691 0.15719283 -0.39341903 -0.005612032 0.11116423 0.13806209
-0.082541466 -0.30921644 -0.30915958 -0.1356796 0.23538104 0.48030972 -0.101847425 -0.19577026
0.11475206 -0.031801954 0.05222256 0.08645495 0.09831143 0.089271754 0.46527877 0.1904264
-0.09819975 -0.016942369 0.014092412 0.00071867206 -0.07406519 0.3170862 -0.3532974 -0.18888281
-0.06150003 -0.025288315 0.34308138 -0.36237872 0.07480608 -0.40521726 0.0338145 0.06376393
-0.031405564 0.08218512 -0.18442622 -0.10672428 -0.090982504 -0.14717168 0.2515433 0.22004852
-0.20192537 0.15950043 0.29495034 0.037023693 -0.18471566 0.22517431 0.018681834 -0.5684548
0.22532147 -0.30539834 0.03915773 -0.17298502 0.09030761 0.041606996 -0.0073788385 0.04702891
0.4314227 0.029681213 -0.1677653 0.4492143 0.013529782 0.0454707 0.16166848 0.12094672
-0.02694476 0.09706038 -0.119743496 -0.08885213 -0.03897148 -0.44542843 0.39025506 0.04716688
0.10769573 -0.109107435 0.25645712 -0.18050799 0.012406634 -0.06805545 0.19664079 -0.041820128
0.07103988 0.30048385 -0.12571974 -0.31118664 0.13441822 -0.026204934 0.028881826 0.19086008
-0.2622241 -0.2555452 -0.20959648 0.16064864 -0.25203982 -0.37230054 -0.17001407 -0.20360197
0.36329645 -0.10396012 -0.020265145 0.46313328 -0.32757258 0.13920458 -0.1968799 -0.20523542
0.062068343 0.22964339 0.008192762 -0.19664273 0.06358194 -0.047051247 0.011696544 -0.13231526
0.31533262 -0.23321433 -0.078086816 -0.055579353 0.0027044034 -0.19526291 0.26100218 0.09535936
-0.35076895 -0.51061875 0.46694902 0.27640676 -0.3626708 0.0113476 0.22530931 0.035448935
-0.098157115 -0.00085603166 0.015409921 -0.04923094 0.11469494 0.09597657 0.10642112 0.048577443
0.12793846 0.026307344 -0.007574324 0.33143476 -0.08179294 0.0003358824 -0.27061462 0.2720027
0.13160098 -0.11498602 -0.25259748 -0.22661893 0.23967923 -0.32127348 0.39866906 0.12513135
-0.0424425 0.36199847 0.20309064 0.11898955 -0.13338092 -0.42155045 -0.27543208 -0.18916509
-0.07596976 -0.3500251 0.08829906 -0.006626798 -0.09300423 -0.1899243 -0.22638133 0.2510713
0.13450773 0.19825414 0.18292738 0.07139245 0.024873821 0.06721197 0.10200019 0.020470725
-0.2887688 -0.014951209 -0.12912948 -0.2186907 0.25436696 -0.06636802 0.0026516202 -0.06141894
0.079632066 0.09451743 0.11996473 0.27766725 0.22871445 -0.37242788 -0.17610501 0.23071161
0.49955863 0.19150828 -0.14463475 0.17026965 -0.25156114 -0.075304 -0.07450047 -0.30464822
00000000: 2845 a0be 6680 5e3e 06b9 c4bc 33dd 8abd
00000010: 07fa 313e d802 1fbe 185e d8bb 4a03 303e
00000020: d745 0bbf 9045 bfbc baa3 b73c 7970 a4bc
00000030: 40ed 2f3e 78a5 2e3e dd2a 663e 5d1f 633e
00000040: e702 663d 5938 a4bd f74e 5d3e fb33 4fbd
00000050: f5b3 103d 2c60 55be 1941 153d 8613 373e
00000060: fa20 bfbe 2469 6fbd bc35 8f3e f7e5 b5be
00000070: b98a 9dbc 2882 24be 08ba f0bc d5b9 13be
00000080: 5493 6abe c09a a6bd 1b32 103d c12f 56be
00000090: c321 583e 0d13 503e b63a 94bb 5b3d 9dbe
000000a0: ea93 f2bb f2fc fc3e 067e 00be 203f eaba
000000b0: 7af0 803e 31c2 7b3e e022 2fbe eb84 00be
000000c0: 4cef c2bd 4114 3bbe fc0f 273e 28f7 203e
000000d0: 386e c9be 23e5 b7bb 12aa e33d 2660 0d3e
000000e0: 800b a9bd 9e51 9ebe 2a4a 9ebe 98ef 0abe
000000f0: ba07 713e 28eb f53e 6295 d0bd 0078 48be
00000100: 2103 eb3d c442 02bd 53e7 553d 4b0f b13d
00000110: 8157 c93d 1cd4 b63d 0539 ee3e 23ff 423e
00000120: f31c c9bd b9ca 8abc dce3 663c 4465 3c3a
00000130: 7eaf 97bd 1f59 a23e 66e3 b4be 7f6a 41be
00000140: 75e7 7bbd 7129 cfbc 5da8 af3e b489 b9be
00000150: ee33 993d a378 cfbe 1381 0a3d aa96 823d
00000160: 1fa3 00bd ac50 a83d 3ada 3cbe 4292 dabd
00000170: 0955 babd 2cb4 16be 49ca 803e 6654 613e
00000180: 86c5 4ebe 1554 233e bb03 973e 28a6 173d
00000190: 1a26 3dbe 1894 663e a50a 993c 4186 11bf
000001a0: acba 663e 2c5d 9cbe db63 203d fc22 31be
000001b0: 32f3 b83d 196c 2a3d 2fca f1bb 63a1 403d
000001c0: 70e3 dc3e 0426 f33c abca 2bbe 6bff e53e
000001d0: 05ac 5d3c 7c3f 3a3d 6c8c 253e eab2 f73d
000001e0: 42bb dcbc 98c7 c63d 143c f5bd 1bf8 b5bd
000001f0: 8fa0 1fbd 320f e4be 83cf c73e 0f32 413d
00000200: 948f dc3d b873 dfbd 594e 833e 16d7 38be
00000210: 3245 4b3c a860 8bbd 345c 493e 954b 2bbd
00000220: 5b7d 913d 05d9 993e adbc 00be db53 9fbe
00000230: eea4 093e bbab d6bc 9499 ec3c d370 433e
00000240: 3d42 86be d2d6 82be 76a0 56be 1481 243e
00000250: 5d0b 81be 2d9e bebe 2b18 2ebe 097d 50be
00000260: fe01 ba3e 0be9 d4bd 1703 a6bc ce1f ed3e
00000270: 98b7 a7be a58b 0e3e e29a 49be 3c29 52be
00000280: 603b 7e3d a327 6b3e ef3a 063c b65c 49be
00000290: 4037 823d cfb8 40bd dca2 3f3c a77d 07be
000002a0: 4773 a13e bdcf 6ebe fbeb 9fbd 2da7 63bd
000002b0: 5c3c 313b 00f3 47be 14a2 853e c54b c33d
000002c0: fd97 b3be e9b7 02bf f113 ef3e 3085 8d3e
000002d0: fdaf b9be 49eb 393c 7cb7 663e e732 113d
000002e0: 9906 c9bd 5067 60ba e579 7c3c 62a6 49bd
000002f0: 2ee5 ea3d 5d8f c43d 51f3 d93d 24f9 463d
00000300: 4d02 033e 8082 d73c 0932 f8bb d1b1 a93e
00000310: 0f83 a7bd 5f19 b039 008e 8abe f043 8b3e
00000320: 68c2 063e ca7d ebbd 7554 81be cb0e 68be
00000330: 796e 753e f57d a4be 5a1e cc3e 6f22 003e
00000340: 30d8 2dbd dd57 b93e fef6 4f3e cbb0 f33d
00000350: 0295 08be 76d5 d7be 6f05 8dbe 7eb4 41be
00000360: 0996 9bbd 7d36 b3be 23d6 b43d 9c25 d9bb
00000370: 0079 bebd 847b 42be 82d0 67be 6b8c 803e
00000380: 65bc 093e 2203 4b3e 5151 3b3e 3436 923d
00000390: 2fc4 cb3c 6ea6 893d 7ae5 d03d 39b2 a73c
000003a0: 81d9 93be eaf5 74bc 853a 04be 74f0 5fbe
000003b0: 633c 823e f5eb 87bd cec6 2d3b 6d92 7bbd
000003c0: 2316 a33d 5b92 c13d 12b0 f53d 672a 8e3e
000003d0: 1f34 6a3e deae bebe df54 34be aa3f 6c3e
000003e0: 26c6 ff3e bf1a 443e 221b 14be 2b5b 2e3e
000003f0: 9fcc 80be fc38 9abd b493 98bd dafa 9bbe

net.4.bias f4 [64]
0.001333203 -0.00018359898 0.002626623 0.0016034251 -0.003898925 -0.008483078 -0.00045527297 0.0010905282
0.0032408582 0.0076817935 -0.0028785379 -1.7667582e-05 -0.0026049782 0.0030570924 0.0035483534 -0.0027979538
0.0024171683 -4.5465276e-06 0.00068673736 0.0017267048 -0.005446764 -0.005200181 -0.0025073125 0.0025663958
0.0020240352 0.0042248606 -0.0014366554 -0.0016730092 0.0012016612 0.001459151 -0.0013693668 -0.0012652577
-0.0029332084 0.0023916445 -0.002105364 0.0011856472 0.0030907132 0.008449743 0.0036534616 0.0011144034
0.00013407314 -0.0011009527 0.00720932 -0.001256664 0.0067513008 -0.0054219086 0.00067185756 -0.003099192
0.00046398092 0.0024228462 0.0022175952 -0.0031959324 -0.0016005558 -0.0024633708 0.005169514 0.0020701585
-0.0044339537 -0.0060061626 0.0034180486 -0.01047899 -0.0064182165 -0.0028856848 0.0030805871 -0.0009746783
00000000: dfbe ae3a 7a84 40b9 6c23 2c3b 052a d23a
00000010: 1b85 7fbb 9cfc 0abc b4b1 eeb9 0ef0 8e3a
00000020: 9464 543b 8eb7 fb3b daa5 3cbb d834 94b7
00000030: 48b8 2abb 8059 483b 7e8b 683b e05d 37bb
00000040: 5b69 1e3b 608e 98b6 2a06 343a 9952 e23a
00000050: c57a b2bb 4866 aabb b951 24bb fa30 283b
00000060: ada5 043b b370 8a3b 284e bcba e048 dbba
00000070: 0f81 9d3a fc40 bf3a 537c b3ba 01d7 a5ba
00000080: 123b 40bb 23bd 1c3b 26fa 09bb b867 9b3a
00000090: 908d 4a3b ca70 0a3c ea6e 6f3b 2c11 923a
000000a0: fc95 0c39 d84d 90ba 293c ec3b a6b6 a4ba
000000b0: 043a dd3b 44aa b1bb 991f 303a d01b 4bbb
000000c0: 7742 f339 9dc8 1e3b 1355 113b d972 51bb
000000d0: bec9 d1ba 8170 21bb 0765 a93b 7fab 073b
000000e0: b34a 91bb 58cf c4bb 5701 603b 12b0 2bbc
000000f0: e74f d2bb c21d 3dbb ade3 493b 8e81 7fba

action_head.0.weight f4 [3, 64]
0.31090993 0.1043735 -0.3506282 -0.06653946 0.100031435 0.22968648 0.018773409 -0.0025946249
-0.01893706 -0.25212434 0.14744395 -0.22710319 -0.033951297 -0.13028362 0.40226367 0.022890866
-0.2220109 -0.10404731 0.07442506 0.09146024 0.20517808 0.40424967 0.29270178 -0.066037774
-0.18235424 0.1270271 0.062473144 0.34646955 0.47976148 -0.12844962 0.08379305 -0.20866416
-0.10440969 -0.4854343 0.13763972 -0.17450224 0.12064245 -0.25388652 -0.14592206 -0.06312768
-0.0018085014 -0.06389397 0.008614204 -0.024492633 -0.13648155 0.27791077 0.16137934 -0.13936193
0.17228255 -0.12370804 0.20231646 0.0013008846 0.33239415 -0.0851696 -0.39582232 0.08961412
0.05748442 0.4344654 -0.12923172 0.33157492 -0.12555225 0.19268464 0.035986964 0.08901235
0.20136127 -0.2136259 0.5432206 0.111779034 -0.21382372 0.21376586 -0.018214347 0.15870622
0.4021897 -0.08418148 -0.13944276 0.41357937 -0.0857415 0.23735455 -0.091145016 -0.28441375
0.25039917 -0.13902238 0.14767325 -0.0387674 -0.10269183 0.23498414 0.09889788 0.0872294
-0.09699929 0.038249515 -0.1135091 -0.058309503 0.025553362 -0.100020096 -0.17151955 -5.0656236e-05
-0.08960667 0.249162 -0.32665366 -0.04777579 0.24629892 -0.04641861 0.11798489 0.04683887
0.48550943 -0.11241973 0.2319777 -0.09201102 -0.18592004 -0.08449832 0.13048388 -0.2683919
0.10755998 0.28654167 0.554163 -0.053749524 0.047659934 -0.28895885 -0.027898734 0.11216105
0.3214721 0.13327911 -0.39072084 -0.0819506 -0.0846124 0.08003647 -0.038881004 0.012805892
0.060853124 0.2012262 -0.18675783 0.2887789 0.21622923 -0.05429214 -0.00016071883 0.17871262
-0.09995207 0.094709404 -0.0858132 0.069758356 -0.21682262 -0.252424 -0.042735647 0.043782465
-0.148655 -0.00049277756 -0.0029104908 -0.4897838 -0.0162481 0.37085742 0.036824305 0.32388833
-0.2594225 -0.21089791 0.10566725 -0.5985094 0.36393982 -0.050586767 0.15122078 0.20175077
-0.3876514 -0.015115284 0.10587407 0.13113567 0.045813374 0.0077747917 -0.014079302 0.2831507
-0.23780303 -0.328038 0.2486998 -0.15604366 0.06269346 -0.49042794 0.052259043 -0.17885764
-0.1866553 0.11165486 -0.18064152 0.0061571714 0.037630852 -0.05981164 0.15613669 0.26939204
-0.2509381 0.019948583 -0.25038278 -0.0323274 -0.20045835 -0.2058986 -0.15349235 0.05341485
00000000: 962f 9f3e c6c1 d53d 8a85 b3be d745 88bd
00000010: 48dd cc3d ef32 6b3e b1ca 993c 950a 2abb
00000020: e521 9bbc 7116 81be 8cfb 163e bd8d 68be
00000030: 8410 0bbd 1269 05be 81f5 cd3e a085 bb3c
00000040: d356 63be c216 d5bd 2a6c 983d 824f bb3d
00000050: 341a 523e d0f9 ce3e 02dd 953e d03e 87bd
00000060: 12bb 3abe 6413 023e d7e3 7f3d 7564 b13e
00000070: 4ca3 f53e 4c88 03be b19b ab3d 0fac 55be
00000080: bfd4 d5bd d88a f8be 6df1 0c3e b7b0 32be
00000090: 6413 f73d 6afd 81be 986c 15be 1649 81bd
000000a0: 3d0b edba d7da 82bd 9722 0d3c c6a4 c8bc
000000b0: d2c1 0bbe 524a 8e3e a040 253e e5b4 0ebe
000000c0: d66a 303e a45a fdbd 0c2c 4f3e 7282 aa3a
000000d0: 912f aa3e 666d aebd 39a9 cabe 9c87 b73d
000000e0: c874 6b3d 4072 de3e 5255 04be 30c4 a93e
000000f0: c590 00be 1f4f 453e 1167 133d 1b4c b63d
00000100: a631 4e3e bfc0 5abe 8110 0b3f 68ec e43d
00000110: 9bf4 5abe 70e5 5a3e 4136 95bc e283 223e
00000120: cfeb cd3e 5767 acbd 15ca 0ebe adc0 d33e
00000130: 3d99 afbd 120d 733e 3daa babd ae9e 91be
00000140: 5234 803e e25b 0ebe a837 173e 91ca 1ebd
00000150: 1850 d2bd af9f 703e f98a ca3d 54a5 b23d
00000160: 90a7 c6bd 86ab 1c3d 7677 e8bd f2d5 6ebd
00000170: 4955 d13c 56d7 ccbd d2a2 2fbe b877 54b8
00000180: b483 b7bd 5324 7f3e 263f a7be 8cb0 43bd
00000190: c935 7c3e 7121 3ebd 10a2 f13d 1dda 3f3d
000001a0: b194 f83e 513c e6bd 908b 6d3e 4670 bcbd
000001b0: d361 3ebe 750d adbd 919d 053e aa6a 89be
000001c0: 6848 dc3d 97b5 923e a0dd 0d3f 7628 5cbd
000001d0: 1037 433d 6af2 93be e38b e4bc b1b4 e53d
000001e0: fe97 a43e 527a 083e 900c c8be b7d5 a7bd
000001f0: 4449 adbd 29ea a33d b041 1fbd cecf 513c
00000200: 2041 793d 3e0e 4e3e 723d 3fbe d4da 933e
00000210: 326b 5d3e 6f61 5ebd a286 28b9 7100 373e
00000220: acb3 ccbd 01f7 c13d d5be afbd 78dd 8e3d
00000230: c006 5ebe b83d 81be 930b 2fbd 3e55 333d
00000240: 0439 18be be2d 01ba efbd 3ebb f1c4 fabe
00000250: bc1a 85bc 06e1 bd3e 15d5 163d b1d4 a53e
00000260: 07d3 84be 9ff5 57be 1268 d83d e937 19bf
00000270: 5256 ba3e 1234 4fbd 9fd9 1a3e c197 4e3e
00000280: 3f7a c6be 19a6 77bc 81d4 d83d 6e48 063e
00000290: cea6 3b3d aec3 fe3b dfac 66bc 21f9 903e
000002a0: a382 73be 99f4 a7be 29ab 7e3e e9c9 1fbe
000002b0: 6e65 803d 5f19 fbbe 940d 563d 7526 37be
000002c0: 9122 3fbe 4eab e43d 17fa 38be 19c2 c93b
000002d0: cf22 1a3d 0dfd 74bd 4ce2 1f3e c1ed 893e
000002e0: f57a 80be 366b a33c 2c32 80be bc69 04bd
000002f0: f444 4dbe 15d7 52be 192d 1dbe 88c9 5a3d

action_head.0.bias f4 [3]
-0.0022267427 0.0028428207 0.00028963393
00000000: 8bee 11bb 9e4e 3a3b 02da 9739

value_head.weight f4 [1, 64]
0.034393866 0.12272038 -0.32186297 -0.07875154 -0.035659436 -0.25798056 0.29820386 0.0007563058
0.13344142 -0.2592831 -0.1954689 0.31835502 0.287661 0.22875378 0.0019109732 0.096771754
0.009457008 -0.18180859 -0.18496743 0.04406177 0.3136651 -0.25023517 -0.11879998 0.15699135
0.13869525 0.042571135 -0.010471889 -0.21256042 0.23405723 0.24338597 -0.063518524 0.2938531
-0.13929285 0.119728446 0.16819008 -0.040425934 -0.23770347 0.14800231 0.019121476 0.054824933
-0.14068757 0.048975915 -0.31514278 -0.031336196 -0.2296845 -0.22406322 -0.054167893 -0.15837383
-0.101636685 0.26099068 0.25500473 -0.028238054 0.2901205 0.4921003 -0.38898313 0.32790563
0.06646068 -0.31220216 -0.28683522 -0.41684002 -0.10812633 -0.1750795 0.0039723776 0.23984976
00000000: 95e0 0c3d d354 fb3d 39cb a4be 7d48 a1bd
00000010: a10f 12bd 0716 84be 2dae 983e d342 463a
00000020: dea4 083e c1c0 84be 0029 48be 6eff a23e
00000030: 4d48 933e 6e3e 6a3e 9f79 fa3a 4530 c63d
00000040: 91f1 1a3c 082c 3abe 1a68 3dbe 1d7a 343d
00000050: b698 a03e d31e 80be 674d f3bd 57c2 203e
00000060: 2106 0e3e 125f 2e3d 4992 2bbc 70a9 59be
00000070: b3ac 6f3e 2c3a 793e 0016 82bd ea73 963e
00000080: c9a2 0ebe 3034 f53d 053a 2c3e aa95 25bd
00000090: 8a68 73be eb8d 173e a4a4 9c3c 1c90 603d
000000a0: 6710 10be f89a 483d 655a a1be 625a 00bd
000000b0: 6a32 6bbe d470 65be 27df 5dbd c02c 22be
000000c0: e526 d0bd 92a0 853e fb8f 823e 7e53 e7bc
000000d0: ad8a 943e 92f4 fb3e cc28 c7be 3fe3 a73e
000000e0: 891c 883d f6d8 9fbe 11dc 92be 0e6c d5be
000000f0: 5671 ddbd 0a48 33be b82a 823b 2d9b 753e

net.0.weight f4 [64, 3]
-0.29286724 0.07017826 0.029595371 0.052370448 -0.18308462 -0.39449087 0.2648938 -0.26193395
0.41108525 0.34464872 -0.22599187 -0.09354036 -0.20951132 -0.056713067 -0.29468697 0.23229672
-0.15361588 -0.032602612 -0.14771351 0.19637878 0.053118125 0.061112225 -0.13812403 -0.24439202
-0.0553429 -0.118206464 0.23278303 0.11949461 -0.094128326 0.14640889 0.23375331 0.2804602
-0.0033854614 -0.28522858 0.3898165 -0.14610888 -0.18577965 -0.18455866 -0.10261185 0.057095997
0.12327386 0.26868227 -0.1064522 0.1015287 -0.19321549 -0.28061652 0.122587256 0.21423995
0.050113607 -0.08536981 0.08211254 -0.05479993 -0.31846002 0.21637931 0.22967029 -0.033232685
0.28672493 0.29789397 0.12561277 -0.40276337 -0.21241152 0.08735816 -0.05520776 -0.10383035
0.22246724 0.041354857 0.13507098 0.37339595 0.18274434 -0.11399211 0.028701216 0.104736425
0.1598447 -0.09840616 -0.0692994 -0.33395547 -0.30249637 0.4348775 0.08972312 0.16786821
0.007580809 0.18959807 -0.079781435 0.46707818 0.0862366 -0.1544479 0.24841021 -0.36951965
-0.3788043 0.37899256 -0.08235659 -0.022153318 0.15221027 0.20915405 0.28325948 0.2504275
-0.29472554 -0.26844478 -0.15503779 0.42927018 0.14713818 -0.17419125 -0.122363165 -0.06168201
-0.21178032 0.07776769 0.28100282 0.10397928 0.0036479728 0.1696922 0.372258 -0.1053997
0.24708985 -0.13174333 0.08589976 0.06681434 -0.10587231 -0.22724478 0.04185923 0.17455746
0.033616748 0.12804474 0.06834674 -0.36505255 0.1462041 -0.04517126 0.099155985 -0.25171554
-0.047760643 0.08448402 0.17112748 -0.22623177 0.6474495 0.10375737 0.18113968 -0.3104664
-0.54410195 -0.26695275 0.1831487 -0.1493877 -0.27183664 -0.40377045 0.4111009 0.20383045
0.12639487 -0.027256489 0.102357425 -0.033632774 -0.3330847 -0.1546263 -0.03216703 0.17374647
0.17922963 0.2818593 -0.20236436 0.22440962 -0.055453233 -0.32792735 -0.19788414 -0.13128589
0.038879223 0.014838019 -0.115510635 0.24232219 0.09662292 0.13316815 0.049502376 -0.091948755
0.2600548 -0.05049271 -0.19377331 -0.16234896 0.012718261 -0.19236511 0.026758187 -0.37708077
0.28480238 0.09274227 -0.29911706 0.064754754 0.1923561 -0.03877684 0.13057832 -0.06455282
0.11591666 -0.018220846 0.027832674 0.019717963 0.054126095 -0.14210252 -0.08392213 0.19075766
00000000: b2f2 95be 9fb9 8f3d fe71 f23c 6582 563d
00000010: 897a 3bbe b5fa c9be 29a0 873e 351c 86be
00000020: c479 d23e cc75 b03e 6a6a 67be 1792 bfbd
00000030: 238a 56be f64b 68bd 36e1 96be 31df 6d3e
00000040: 7b4d 1dbe 518a 05bd 3642 17be 8517 493e
00000050: 6492 593d d050 7a3d 6370 0dbe e741 7abe
00000060: 3daf 62bd 3b16 f2bd ad5e 6e3e 97b9 f43d
00000070: 5ac6 c0bd 36ec 153e 075d 6f3e 7b98 8f3e
00000080: 9ede 5dbb 7b09 92be 0796 c73e 919d 15be
00000090: 053d 3ebe f2fc 3cbe 2926 d2bd 7edd 693d
000000a0: 0177 fc3d b990 893e 9c03 dabd 47ee cf3d
000000b0: 48da 45be f8ac 8fbe 070f fb3d b861 5b3e
000000c0: ed43 4d3d 5ed6 aebd 9f2a a83d e475 60bd
000000d0: 310d a3be 8a92 5d3e b02e 6b3e ff1e 08bd
000000e0: 9ccd 923e 8f85 983e a2a0 003e 0037 cebe
000000f0: 6882 59be d6e8 b23d 8821 62bd 02a5 d4bd
00000100: 74ce 633e b663 293d 0c50 0a3e c12d bf3e
00000110: 5521 3b3e b274 e9bd d01e eb3c 0d80 d63d
00000120: 54ae 233e 2b89 c9bd d8ec 8dbd 36fc aabe
00000130: cee0 9abe 44a8 de3e c1c0 b73d a5e5 2b3e
00000140: 6f68 f83b ff25 423e 7364 a3bd df24 ef3e
00000150: d19c b03d 9727 1ebe 3f5f 7e3e ae31 bdbe
00000160: a3f2 c1be 500b c23e 92aa a8bd e07a b5bc
00000170: 02dd 1b3e 7b2c 563e 6307 913e 0938 803e
00000180: 44e6 96be 9871 89be 3ac2 1ebe 4dc9 db3e
00000190: 64ab 163e 315f 32be 8a99 fabd 46a6 7cbd
000001a0: f1dc 58be ab44 9f3d 9adf 8f3e 17f3 d43d
000001b0: d412 6f3b cbc3 2d3e 9a98 be3e ccdb d7bd
000001c0: 1f05 7d3e b9e7 06be 37ec af3d f5d5 883d
000001d0: 95d3 d8bd dbb2 68be 9574 2b3d 31bf 323e
000001e0: b7b1 093d 291e 033e 60f9 8b3d 2be8 babe
000001f0: 87b6 153e 8005 39bd 4b12 cb3d dce0 80be
00000200: aaa0 43bd f505 ad3d 0b3c 2f3e 4da9 67be
00000210: 40bf 253f be7e d43d ae7c 393e 74f5 9ebe
00000220: 444a 0bbf 08ae 88be 558b 3b3e 17f9 18be
00000230: 2c2e 8bbe 00bb cebe d17b d23e eeb8 503e
00000240: a86d 013e 0049 dfbc c5a0 d13d 85c2 09bd
00000250: 148a aabe 5b56 1ebe 93c1 03bd 98ea 313e
00000260: f987 373e dd4f 903e 9a38 4fbe a3cb 653e
00000270: ee22 63bd 18e6 a7be 24a2 4abe cf6f 06be
00000280: d23f 1f3d 2a1b 733c d790 ecbd 4f23 783e
00000290: 3de2 c53d 3b5d 083e 01c3 4a3d a14f bcbd
000002a0: e725 853e 72d1 4ebd 836c 46be ce3e 26be
000002b0: 4160 503c 5cfb 44be fc33 db3c bb10 c1be
000002c0: 9ed1 913e a9ef bd3d df25 99be 249e 843d
000002d0: fff8 443e 77d4 1ebd 53b6 053e 4534 84bd
000002e0: b765 ed3d e243 95bc 5901 e43c 9187 a13c
000002f0: 53b3 5d3d 5383 11be 5edf abbd fa55 433e

net.0.bias f4 [64]
-0.010855688 -0.014003729 0.013172621 0.010361556 -0.010788609 -0.005560222 0.0111014 -0.0051881303
0.0070485612 0.011704788 0.012579134 0.011802778 0.01572444 0.009011954 -0.014711094 0.004520788
-0.015977785 -0.012950316 -0.016966963 0.005006162 0.012457758 0.0050149304 -0.0015935501 -0.0068977373
0.012956355 -0.017735286 0.017589312 -0.010841356 -0.01701126 -0.015383639 -0.0029538935 0.012477837
-0.012381867 -0.00035651436 -0.0047785095 -0.012967382 0.013356888 -0.0057728156 -0.012263387 -0.010280587
-0.018563211 0.018234536 0.006271756 -0.0098125795 0.015363882 -0.0142311845 -0.009272126 -0.015124691
-0.008390017 0.0091747865 0.016624296 -0.012642123 0.007384091 0.005327061 0.011234061 0.01855009
-0.008509719 -0.01949168 0.007408792 0.017324617 0.016100854 -0.015219075 0.016077863 0.01863131
00000000: 0edc 31bc e66f 65bc fad1 573c 84c3 293c
00000010: b5c2 30bc 8632 b6bb a5e2 353c 3101 aabb
00000020: 9ef7 e63b 70c5 3f3c b618 4e3c 7060 413c
00000030: 8ad0 803c e0a6 133c cd06 71bc 1e23 943b
00000040: d8e3 82bc 902d 54bc 4dfe 8abc bb0a a43b
00000050: a01b 4c3c 4954 a43b abde d0ba 6a06 e2bb
00000060: e446 543c 9749 91bc 7617 903c f19f 31bc
00000070: 335b 8bbc a90b 7cbc 1c96 41bb d76f 4c3c
00000080: 50dd 4abc 8cea bab9 0b95 9cbb 2475 54bc
00000090: d9d6 5a3c e329 bdbb 60ec 48bc e86f 28bc
000000a0: e011 98bc 9860 953c 4d83 cd3b f1c4 20bc
000000b0: cbb8 7b3c ea29 69bc 1dea 17bc 8dcd 77bc
000000c0: 4876 09bc d851 163c ad2f 883c e820 4fbc
000000d0: 3ff6 f13b a08e ae3b 110f 383c 5cf6 973c
000000e0: 596c 0bbc 04ad 9fbc 74c5 f23b 5bec 8d3c
000000f0: f0e5 833c 6d59 79bc b9b5 833c b0a0 983c

net.2.weight f4 [32, 64]
0.079207085 0.011349739 0.1599783 0.24865332 -0.37411973 0.13425405 -0.022761352 -0.111029446
-0.26820642 -0.08342642 -0.004356927 -0.2790672 -0.3126856 0.06855634 -0.26061797 0.09269649
-0.029319603 0.09287827 0.049571536 -0.088873714 0.22804601 -0.16666047 -0.0611092 0.29854894
-0.15653582 -0.07962892 0.31388158 0.3058108 -0.15742706 -0.13246849 0.15601555 -0.092614405
-0.6523401 -0.2633459 -0.13874464 0.030301856 -0.24303624 -0.44685206 -0.1390739 -0.124809854
0.044907004 -0.17852417 0.09221286 0.24961916 0.31308708 0.32028744 -0.27579498 -0.4567442
-0.3903829 0.071950525 -0.31573838 0.17676055 -0.009929847 -0.038554925 0.02459083 -0.046404954
0.042007912 0.07386452 -0.058587164 -0.083483525 -0.08392146 0.13708675 -0.118015915 -0.068625614
-0.06035828 -0.085086286 0.091884404 -0.38856515 0.1705637 0.3246586 -0.39144635 0.010561775
-0.2174902 0.04516437 0.1411128 -0.11194772 0.009427044 -0.10943312 -0.06388574 -0.030077523
-0.0030463487 -0.26455164 -0.17274044 -0.025270674 -0.23093443 -0.021248233 0.3273505 0.20702519
-0.055749357 -0.041240234 0.05442222 -0.34004515 -0.22551991 0.07909551 0.041001033 -0.20218062
-0.2537638 -0.153064 -0.09722162 0.12461594 0.11009428 -0.15270454 -0.15738273 0.09495116
-0.2121484 -0.041778862 0.023700923 -0.4532141 0.032457005 0.072360285 0.043146968 -0.13866673
-0.16014588 0.080416866 0.5751289 0.121186666 0.1610909 -0.57488585 -0.011845143 0.25863227
0.08190404 -0.06602178 -0.16796711 -0.16646637 0.51713604 -0.30498052 -0.10442332 0.022896154
-0.045879196 0.08982238 -0.04397327 -0.17875688 -0.22203478 -0.07141067 -0.5102077 0.326431
0.25033477 -0.2665117 -0.4044113 -0.36736518 -0.08242852 -0.15627016 0.17471732 -0.09646558
-0.01191161 -0.1685564 -0.13477011 -0.047302574 -0.19631243 0.3543355 0.10496891 0.22805935
0.17551665 0.12001397 -0.12576905 0.23065282 -0.17453514 -0.2555853 0.09206659 0.043558788
-0.008385491 0.08024961 -0.003966111 -0.20037156 0.1757753 0.40367725 0.20497808 0.00513431
0.019926816 -0.16213247 -0.12099963 0.07723672 -0.3950414 0.48606282 -0.05331465 0.01992433
0.042157635 0.26072207 -0.2039423 0.10205717 0.052169498 0.13745113 0.005363795 -0.03821768
0.41286856 0.08712037 -0.38946003 -0.055033755 0.10144082 0.25785917 0.19008304 -0.093671285
0.40178502 0.55582666 -0.4875264 -0.23639981 0.11638028 -0.269336 0.0065619117 -0.022136735
-0.07851657 0.025112506 0.31531593 0.07752658 -0.019685233 -0.3875691 0.117537394 -0.07141407
0.35393277 0.1833827 -0.12642696 -0.36329785 0.07118246 0.026975391 0.0014713674 -0.09831225
-0.09832138 -0.13360843 -0.12587 0.098727405 0.30848294 0.030525986 -0.15847638 -0.048528444
-0.13929431 -0.0047671725 0.23972225 0.058348786 -0.14933841 0.22418168 -0.15152824 0.050035372
0.39594656 -0.38792682 0.07881675 0.10399798 0.20666692 0.03276565 0.16514961 0.06861335
0.051302943 0.2266227 -0.12686326 0.08367418 0.16244672 -0.2934895 0.02471404 -0.06712525
-0.076135635 0.23759264 0.072358474 -0.1929546 0.31045815 0.09353226 -0.13476637 -0.36853784
00000000: 5337 a23d 41f4 393c 5ad1 233e fa9e 7e3e
00000010: 9f8c bfbe e579 093e 0476 babc 6863 e3bd
00000020: 5a52 89be 79db aabd 8dc4 8ebb e5e1 8ebe
00000030: 5418 a0be 4467 8c3d b86f 85be a8d7 bd3d
00000040: aa2f f0bc f636 be3d 860b 4b3d 6c03 b6bd
00000050: e584 693e 0ba9 2abe a44d 7abd 68db 983e
00000060: ed4a 20be 7d14 a3bd 16b5 a03e 3c93 9c3e
00000070: 8f34 21be d2a5 07be 8ac2 1f3e 9fac bdbd
00000080: c3ff 26bf 46d5 86be 1313 0ebe 993b f83c
00000090: 7ede 78be cbc9 e4be 6369 0ebe 4f9c ffbd
000000a0: 68f0 373d 0acf 36be 19da bc3d 2a9c 7f3e
000000b0: f34c a03e b7fc a33e 0035 8dbe 60da e9be
000000c0: 44e0 c7be cc5a 933d 76a8 a1be b800 353e
000000d0: ccb0 22bc c5eb 1dbd b572 c93c 1f13 3ebd
000000e0: 7d10 2c3d 4846 973d 18f9 6fbd 69f9 aabd
000000f0: 04df abbd 7860 0c3e 54b2 f1bd 968b 8cbd
00000100: 3e3a 77bd b841 aebd e42d bc3d 03f2 c6be
00000110: 40a8 2e3e a739 a63e a86b c8be 4c0b 2d3c
00000120: c0b5 5ebe 46fe 383d e07f 103e d944 e5bd
00000130: e373 1a3c 791e e0bd 87d6 82bd 2365 f6bc
00000140: 40a5 47bb 5073 87be dfe2 30be 7204 cfbc
00000150: 137a 6cbe c610 aebc 7c9a a73e 69fe 533e
00000160: 7059 64bd 85eb 28bd d5e9 5e3d 661a aebe
00000170: b1ee 66be d4fc a13d b3f0 273d 7008 4fbe
00000180: 54ed 81be cfbc 1cbe 211c c7bd a436 ff3d
00000190: 1c79 e13d 945e 1cbe f028 21be c175 c23d
000001a0: 6e3d 59be 5020 2bbd 7028 c23c ae0b e8be
000001b0: a3f1 043d a131 943d e0ba 303d a7fe 0dbe
000001c0: 48fd 23be 99b1 a43d a63b 133f b730 f83d
000001d0: 03f5 243e b82b 13bf 2112 42bc 736b 843e
000001e0: 4ebd a73d 6d36 87bd 92ff 2bbe 2976 2abe
000001f0: 0763 043f 6826 9cbe e5db d5bd b790 bb3c
00000200: d3eb 3bbd ccf4 b73d 511d 34bd 0b0c 37be
00000210: 165d 63be c23f 92bd f99c 02bf f721 a73e
00000220: e12b 803e 3974 88be ff0e cfbe 4a17 bcbe
00000230: 49d0 a8bd 4905 20be 19e9 323e bf8f c5bd
00000240: ea28 43bc 0d9a 2cbe 2d01 0abe 58c0 41bd
00000250: 2006 49be 766b b53e f1f9 d63d 6488 693e
00000260: a3ba 333e e2c9 f53d 9ac9 00be 4130 6c3e
00000270: 57b9 32be 14dc 82be 698d bc3d b36a 323d
00000280: 4c63 09bc e859 a43d 27f6 81bb 342e 4dbe
00000290: 71fe 333e c9ae ce3e c6e5 513e b73d a83b
000002a0: 903d a33c 0e06 26be a7ce f7bd 492e 9e3d
000002b0: de42 cabe 3add f83e 7660 5abd 5938 a33c
000002c0: 7cad 2c3d 5d7d 853e 40d6 50be 5903 d13d
000002d0: afaf 553d fdbf 0c3e c6c2 af3b 248a 1cbd
000002e0: 8263 d33e 2a6c b23d 4e67 c7be 136b 61bd
000002f0: 34c0 cf3d 1e06 843e 21a5 423e bbd6 bfbd
00000300: c4b6 cd3e a84a 0e3f 0f9d f9be cb12 72be
00000310: c958 ee3d 68e6 89be 4e05 d73b 1958 b5bc
00000320: 4ccd a0bd beb8 cd3c 1771 a13e 41c6 9e3d
00000330: ed42 a1bc 756f c6be 72b7 f03d 8a41 92bd
00000340: ad36 b53e adc8 3b3e 1276 01be 2d02 babe
00000350: 1cc8 913d 7ffb dc3c e6da c03a ef57 c9bd
00000360: b85c c9bd a6d0 08be 11e4 00be 9831 ca3d
00000370: 7af1 9d3e a211 fa3c a247 22be c3c5 46bd
00000380: 2ba3 0ebe f135 9cbb c079 753e 23ff 6e3d
00000390: 2bec 18be e28f 653e 382a 1bbe e4f1 4c3d
000003a0: 82b9 ca3e 589e c6be ad6a a13d e5fc d43d
000003b0: 7ea0 533e 4635 063d fb1c 293e 2885 8c3d
000003c0: 0923 523d c80f 683e 71e8 01be 5e5d ab3d
000003d0: 6f58 263e 4144 96be 1975 ca3c f778 89bd
000003e0: 00ed 9bbd 7c4b 733e ae30 943d e495 45be
000003f0: 5ff4 9e3e d78d bf3d 3200 0abe feb0 bcbe

net.2.bias f4 [32]
0.01562066 0.014252325 -0.012657359 -0.015839294 -0.010087081 0.013541931 -0.010080413 0.017762633
-0.013863653 -0.006398684 -0.0143119255 0.006481213 -0.0101564955 0.01212465 -0.0034336043 0.0008317568
-0.01572536 -0.011091017 -0.0117222015 0.009043017 -0.008201458 0.0018076565 -0.016811535 0.01943351
-0.011272269 -0.016369319 0.011943568 0.008447965 0.0026457652 0.01124479 0.013194261 -0.01165694
00000000: cced 7f3c 9582 693c d060 4fbc 68c1 81bc
00000010: 4944 25bc fade 5d3c 5128 25bc f182 913c
00000020: 6024 63bc 0dac d1bb 917c 6abc 5b60 d43b
00000030: 6e67 26bc 78a6 463c 5206 61bb 410a 5a3a
00000040: 78d2 80bc 19b7 35bc 7a0e 40bc 2a29 143c
00000050: 685f 06bc e3ee ec3a 58b8 89bc 0633 9f3c
00000060: 53af 38bc f318 86bc f4ae 433c 5569 0a3c
00000070: 9364 2d3b 113c 383c be2c 583c c0fc 3ebc
